…
I0424 12:21:40.864346 15978 upgrade_proto.cpp:82] Successfully upgraded batch norm layers using deprecated params.
I0424 12:21:40.865669 15978 net.cpp:51] Initializing net from parameters: 
name: "MobileFaceNet"
state {
  phase: TRAIN
  level: 0
  stage: ""
}
layer {
  name: "data"
  type: "Data"
  top: "data"
  top: "label"
  include {
    phase: TRAIN
  }
  transform_param {
    scale: 0.0078125
    mirror: true
    mean_value: 127.5
  }
  data_param {
    source: "/raid/face_dataset/CASIA-Webface_lmdb/"
    batch_size: 128
    backend: LMDB
  }
}
layer {
  name: "conv1"
  type: "Convolution"
  bottom: "data"
  top: "conv1"
  param {
    lr_mult: 1
    decay_mult: 1
  }
  param {
    lr_mult: 2
    decay_mult: 0
  }
  convolution_param {
    num_output: 64
    pad: 1
    kernel_size: 3
    stride: 2
    weight_filler {
      type: "xavier"
    }
    bias_filler {
      type: "constant"
      value: 0
    }
  }
}
layer {
  name: "conv1/bn"
  type: "BatchNorm"
  bottom: "conv1"
  top: "conv1"
  param {
    lr_mult: 0
    decay_mult: 0
  }
  param {
    lr_mult: 0
    decay_mult: 0
  }
  param {
    lr_mult: 0
    decay_mult: 0
  }
}
layer {
  name: "conv1/scale"
  type: "Scale"
  bottom: "conv1"
  top: "conv1"
  param {
    lr_mult: 1
    decay_mult: 0
  }
  param {
    lr_mult: 1
    decay_mult: 0
  }
  scale_param {
    bias_term: true
  }
}
layer {
  name: "relu1"
  type: "PReLU"
  bottom: "conv1"
  top: "conv1"
}
layer {
  name: "conv1_dw"
  type: "DepthwiseConvolution"
  bottom: "conv1"
  top: "conv1_dw"
  param {
    lr_mult: 1
    decay_mult: 1
  }
  param {
    lr_mult: 0
    decay_mult: 0
  }
  convolution_param {
    num_output: 64
    pad: 1
    kernel_size: 3
    group: 64
    stride: 1
    weight_filler {
      type: "xavier"
    }
    bias_filler {
      type: "constant"
      value: 0
    }
  }
}
layer {
  name: "conv1_dw/bn"
  type: "BatchNorm"
  bottom: "conv1_dw"
  top: "conv1_dw"
  param {
    lr_mult: 0
    decay_mult: 0
  }
  param {
    lr_mult: 0
    decay_mult: 0
  }
  param {
    lr_mult: 0
    decay_mult: 0
  }
}
layer {
  name: "conv1_dw/scale"
  type: "Scale"
  bottom: "conv1_dw"
  top: "conv1_dw"
  param {
    lr_mult: 1
    decay_mult: 0
  }
  param {
    lr_mult: 1
    decay_mult: 0
  }
  scale_param {
    bias_term: true
  }
}
layer {
  name: "relu1_dw"
  type: "PReLU"
  bottom: "conv1_dw"
  top: "conv1_dw"
}
layer {
  name: "conv2_ex"
  type: "Convolution"
  bottom: "conv1_dw"
  top: "conv2_ex"
  param {
    lr_mult: 1
    decay_mult: 1
  }
  convolution_param {
    num_output: 128
    bias_term: false
    pad: 0
    kernel_size: 1
    stride: 1
    weight_filler {
      type: "xavier"
    }
  }
}
layer {
  name: "conv2_ex/bn"
  type: "BatchNorm"
  bottom: "conv2_ex"
  top: "conv2_ex"
  param {
    lr_mult: 0
    decay_mult: 0
  }
  param {
    lr_mult: 0
    decay_mult: 0
  }
  param {
    lr_mult: 0
    decay_mult: 0
  }
}
layer {
  name: "conv2_ex/scale"
  type: "Scale"
  bottom: "conv2_ex"
  top: "conv2_ex"
  param {
    lr_mult: 1
    decay_mult: 0
  }
  param {
    lr_mult: 1
    decay_mult: 0
  }
  scale_param {
    bias_term: true
  }
}
layer {
  name: "relu2_ex"
  type: "PReLU"
  bottom: "conv2_ex"
  top: "conv2_ex"
}
layer {
  name: "conv2_dw"
  type: "DepthwiseConvolution"
  bottom: "conv2_ex"
  top: "conv2_dw"
  param {
    lr_mult: 1
    decay_mult: 1
  }
  param {
    lr_mult: 0
    decay_mult: 0
  }
  convolution_param {
    num_output: 128
    pad: 1
    kernel_size: 3
    group: 128
    stride: 2
    weight_filler {
      type: "xavier"
    }
    bias_filler {
      type: "constant"
      value: 0
    }
    engine: CAFFE
  }
}
layer {
  name: "conv2_dw/bn"
  type: "BatchNorm"
  bottom: "conv2_dw"
  top: "conv2_dw"
  param {
    lr_mult: 0
    decay_mult: 0
  }
  param {
    lr_mult: 0
    decay_mult: 0
  }
  param {
    lr_mult: 0
    decay_mult: 0
  }
}
layer {
  name: "conv2_dw/scale"
  type: "Scale"
  bottom: "conv2_dw"
  top: "conv2_dw"
  param {
    lr_mult: 1
    decay_mult: 0
  }
  param {
    lr_mult: 1
    decay_mult: 0
  }
  scale_param {
    bias_term: true
  }
}
layer {
  name: "relu2_dw"
  type: "PReLU"
  bottom: "conv2_dw"
  top: "conv2_dw"
}
layer {
  name: "conv2_em"
  type: "Convolution"
  bottom: "conv2_dw"
  top: "conv2_em"
  param {
    lr_mult: 1
    decay_mult: 1
  }
  convolution_param {
    num_output: 64
    bias_term: false
    pad: 0
    kernel_size: 1
    stride: 1
    weight_filler {
      type: "xavier"
    }
  }
}
layer {
  name: "conv2_em/bn"
  type: "BatchNorm"
  bottom: "conv2_em"
  top: "conv2_em"
  param {
    lr_mult: 0
    decay_mult: 0
  }
  param {
    lr_mult: 0
    decay_mult: 0
  }
  param {
    lr_mult: 0
    decay_mult: 0
  }
}
layer {
  name: "conv2_em/scale"
  type: "Scale"
  bottom: "conv2_em"
  top: "conv2_em"
  param {
    lr_mult: 1
    decay_mult: 0
  }
  param {
    lr_mult: 1
    decay_mult: 0
  }
  scale_param {
    bias_term: true
  }
}
layer {
  name: "conv2_1_ex"
  type: "Convolution"
  bottom: "conv2_em"
  top: "conv2_1_ex"
  param {
    lr_mult: 1
    decay_mult: 1
  }
  convolution_param {
    num_output: 128
    bias_term: false
    pad: 0
    kernel_size: 1
    stride: 1
    weight_filler {
      type: "xavier"
    }
  }
}
layer {
  name: "conv2_1_ex/bn"
  type: "BatchNorm"
  bottom: "conv2_1_ex"
  top: "conv2_1_ex"
  param {
    lr_mult: 0
    decay_mult: 0
  }
  param {
    lr_mult: 0
    decay_mult: 0
  }
  param {
    lr_mult: 0
    decay_mult: 0
  }
}
layer {
  name: "conv2_1_ex/scale"
  type: "Scale"
  bottom: "conv2_1_ex"
  top: "conv2_1_ex"
  param {
    lr_mult: 1
    decay_mult: 0
  }
  param {
    lr_mult: 1
    decay_mult: 0
  }
  scale_param {
    bias_term: true
  }
}
layer {
  name: "relu2_1_ex"
  type: "PReLU"
  bottom: "conv2_1_ex"
  top: "conv2_1_ex"
}
layer {
  name: "conv2_1_dw"
  type: "DepthwiseConvolution"
  bottom: "conv2_1_ex"
  top: "conv2_1_dw"
  param {
    lr_mult: 1
    decay_mult: 1
  }
  param {
    lr_mult: 0
    decay_mult: 0
  }
  convolution_param {
    num_output: 128
    pad: 1
    kernel_size: 3
    group: 128
    stride: 1
    weight_filler {
      type: "xavier"
    }
    bias_filler {
      type: "constant"
      value: 0
    }
    engine: CAFFE
  }
}
layer {
  name: "conv2_1_dw/bn"
  type: "BatchNorm"
  bottom: "conv2_1_dw"
  top: "conv2_1_dw"
  param {
    lr_mult: 0
    decay_mult: 0
  }
  param {
    lr_mult: 0
    decay_mult: 0
  }
  param {
    lr_mult: 0
    decay_mult: 0
  }
}
layer {
  name: "conv2_1_dw/scale"
  type: "Scale"
  bottom: "conv2_1_dw"
  top: "conv2_1_dw"
  param {
    lr_mult: 1
    decay_mult: 0
  }
  param {
    lr_mult: 1
    decay_mult: 0
  }
  scale_param {
    bias_term: true
  }
}
layer {
  name: "relu2_1_dw"
  type: "PReLU"
  bottom: "conv2_1_dw"
  top: "conv2_1_dw"
}
layer {
  name: "conv2_1_em"
  type: "Convolution"
  bottom: "conv2_1_dw"
  top: "conv2_1_em"
  param {
    lr_mult: 1
    decay_mult: 1
  }
  convolution_param {
    num_output: 64
    bias_term: false
    pad: 0
    kernel_size: 1
    stride: 1
    weight_filler {
      type: "xavier"
    }
  }
}
layer {
  name: "conv2_1_em/bn"
  type: "BatchNorm"
  bottom: "conv2_1_em"
  top: "conv2_1_em"
  param {
    lr_mult: 0
    decay_mult: 0
  }
  param {
    lr_mult: 0
    decay_mult: 0
  }
  param {
    lr_mult: 0
    decay_mult: 0
  }
}
layer {
  name: "conv2_1_em/scale"
  type: "Scale"
  bottom: "conv2_1_em"
  top: "conv2_1_em"
  param {
    lr_mult: 1
    decay_mult: 0
  }
  param {
    lr_mult: 1
    decay_mult: 0
  }
  scale_param {
    bias_term: true
  }
}
layer {
  name: "res2_1"
  type: "Eltwise"
  bottom: "conv2_em"
  bottom: "conv2_1_em"
  top: "res2_1"
}
layer {
  name: "conv2_2_ex"
  type: "Convolution"
  bottom: "res2_1"
  top: "conv2_2_ex"
  param {
    lr_mult: 1
    decay_mult: 1
  }
  convolution_param {
    num_output: 128
    bias_term: false
    pad: 0
    kernel_size: 1
    stride: 1
    weight_filler {
      type: "xavier"
    }
  }
}
layer {
  name: "conv2_2_ex/bn"
  type: "BatchNorm"
  bottom: "conv2_2_ex"
  top: "conv2_2_ex"
  param {
    lr_mult: 0
    decay_mult: 0
  }
  param {
    lr_mult: 0
    decay_mult: 0
  }
  param {
    lr_mult: 0
    decay_mult: 0
  }
}
layer {
  name: "conv2_2_ex/scale"
  type: "Scale"
  bottom: "conv2_2_ex"
  top: "conv2_2_ex"
  param {
    lr_mult: 1
    decay_mult: 0
  }
  param {
    lr_mult: 1
    decay_mult: 0
  }
  scale_param {
    bias_term: true
  }
}
layer {
  name: "relu2_2_ex"
  type: "PReLU"
  bottom: "conv2_2_ex"
  top: "conv2_2_ex"
}
layer {
  name: "conv2_2_dw"
  type: "DepthwiseConvolution"
  bottom: "conv2_2_ex"
  top: "conv2_2_dw"
  param {
    lr_mult: 1
    decay_mult: 1
  }
  param {
    lr_mult: 0
    decay_mult: 0
  }
  convolution_param {
    num_output: 128
    pad: 1
    kernel_size: 3
    group: 128
    stride: 1
    weight_filler {
      type: "xavier"
    }
    bias_filler {
      type: "constant"
      value: 0
    }
    engine: CAFFE
  }
}
layer {
  name: "conv2_2_dw/bn"
  type: "BatchNorm"
  bottom: "conv2_2_dw"
  top: "conv2_2_dw"
  param {
    lr_mult: 0
    decay_mult: 0
  }
  param {
    lr_mult: 0
    decay_mult: 0
  }
  param {
    lr_mult: 0
    decay_mult: 0
  }
}
layer {
  name: "conv2_2_dw/scale"
  type: "Scale"
  bottom: "conv2_2_dw"
  top: "conv2_2_dw"
  param {
    lr_mult: 1
    decay_mult: 0
  }
  param {
    lr_mult: 1
    decay_mult: 0
  }
  scale_param {
    bias_term: true
  }
}
layer {
  name: "relu2_2_dw"
  type: "PReLU"
  bottom: "conv2_2_dw"
  top: "conv2_2_dw"
}
layer {
  name: "conv2_2_em"
  type: "Convolution"
  bottom: "conv2_2_dw"
  top: "conv2_2_em"
  param {
    lr_mult: 1
    decay_mult: 1
  }
  convolution_param {
    num_output: 64
    bias_term: false
    pad: 0
    kernel_size: 1
    stride: 1
    weight_filler {
      type: "xavier"
    }
  }
}
layer {
  name: "conv2_2_em/bn"
  type: "BatchNorm"
  bottom: "conv2_2_em"
  top: "conv2_2_em"
  param {
    lr_mult: 0
    decay_mult: 0
  }
  param {
    lr_mult: 0
    decay_mult: 0
  }
  param {
    lr_mult: 0
    decay_mult: 0
  }
}
layer {
  name: "conv2_2_em/scale"
  type: "Scale"
  bottom: "conv2_2_em"
  top: "conv2_2_em"
  param {
    lr_mult: 1
    decay_mult: 0
  }
  param {
    lr_mult: 1
    decay_mult: 0
  }
  scale_param {
    bias_term: true
  }
}
layer {
  name: "res2_2"
  type: "Eltwise"
  bottom: "res2_1"
  bottom: "conv2_2_em"
  top: "res2_2"
}
layer {
  name: "conv2_3_ex"
  type: "Convolution"
  bottom: "res2_2"
  top: "conv2_3_ex"
  param {
    lr_mult: 1
    decay_mult: 1
  }
  convolution_param {
    num_output: 128
    bias_term: false
    pad: 0
    kernel_size: 1
    stride: 1
    weight_filler {
      type: "xavier"
    }
  }
}
layer {
  name: "conv2_3_ex/bn"
  type: "BatchNorm"
  bottom: "conv2_3_ex"
  top: "conv2_3_ex"
  param {
    lr_mult: 0
    decay_mult: 0
  }
  param {
    lr_mult: 0
    decay_mult: 0
  }
  param {
    lr_mult: 0
    decay_mult: 0
  }
}
layer {
  name: "conv2_3_ex/scale"
  type: "Scale"
  bottom: "conv2_3_ex"
  top: "conv2_3_ex"
  param {
    lr_mult: 1
    decay_mult: 0
  }
  param {
    lr_mult: 1
    decay_mult: 0
  }
  scale_param {
    bias_term: true
  }
}
layer {
  name: "relu2_3_ex"
  type: "PReLU"
  bottom: "conv2_3_ex"
  top: "conv2_3_ex"
}
layer {
  name: "conv2_3_dw"
  type: "DepthwiseConvolution"
  bottom: "conv2_3_ex"
  top: "conv2_3_dw"
  param {
    lr_mult: 1
    decay_mult: 1
  }
  param {
    lr_mult: 0
    decay_mult: 0
  }
  convolution_param {
    num_output: 128
    pad: 1
    kernel_size: 3
    group: 128
    stride: 1
    weight_filler {
      type: "xavier"
    }
    bias_filler {
      type: "constant"
      value: 0
    }
    engine: CAFFE
  }
}
layer {
  name: "conv2_3_dw/bn"
  type: "BatchNorm"
  bottom: "conv2_3_dw"
  top: "conv2_3_dw"
  param {
    lr_mult: 0
    decay_mult: 0
  }
  param {
    lr_mult: 0
    decay_mult: 0
  }
  param {
    lr_mult: 0
    decay_mult: 0
  }
}
layer {
  name: "conv2_3_dw/scale"
  type: "Scale"
  bottom: "conv2_3_dw"
  top: "conv2_3_dw"
  param {
    lr_mult: 1
    decay_mult: 0
  }
  param {
    lr_mult: 1
    decay_mult: 0
  }
  scale_param {
    bias_term: true
  }
}
layer {
  name: "relu2_3_dw"
  type: "PReLU"
  bottom: "conv2_3_dw"
  top: "conv2_3_dw"
}
layer {
  name: "conv2_3_em"
  type: "Convolution"
  bottom: "conv2_3_dw"
  top: "conv2_3_em"
  param {
    lr_mult: 1
    decay_mult: 1
  }
  convolution_param {
    num_output: 64
    bias_term: false
    pad: 0
    kernel_size: 1
    stride: 1
    weight_filler {
      type: "xavier"
    }
  }
}
layer {
  name: "conv2_3_em/bn"
  type: "BatchNorm"
  bottom: "conv2_3_em"
  top: "conv2_3_em"
  param {
    lr_mult: 0
    decay_mult: 0
  }
  param {
    lr_mult: 0
    decay_mult: 0
  }
  param {
    lr_mult: 0
    decay_mult: 0
  }
}
layer {
  name: "conv2_3_em/scale"
  type: "Scale"
  bottom: "conv2_3_em"
  top: "conv2_3_em"
  param {
    lr_mult: 1
    decay_mult: 0
  }
  param {
    lr_mult: 1
    decay_mult: 0
  }
  scale_param {
    bias_term: true
  }
}
layer {
  name: "res2_3"
  type: "Eltwise"
  bottom: "res2_2"
  bottom: "conv2_3_em"
  top: "res2_3"
}
layer {
  name: "conv2_4_ex"
  type: "Convolution"
  bottom: "res2_3"
  top: "conv2_4_ex"
  param {
    lr_mult: 1
    decay_mult: 1
  }
  convolution_param {
    num_output: 128
    bias_term: false
    pad: 0
    kernel_size: 1
    stride: 1
    weight_filler {
      type: "xavier"
    }
  }
}
layer {
  name: "conv2_4_ex/bn"
  type: "BatchNorm"
  bottom: "conv2_4_ex"
  top: "conv2_4_ex"
  param {
    lr_mult: 0
    decay_mult: 0
  }
  param {
    lr_mult: 0
    decay_mult: 0
  }
  param {
    lr_mult: 0
    decay_mult: 0
  }
}
layer {
  name: "conv2_4_ex/scale"
  type: "Scale"
  bottom: "conv2_4_ex"
  top: "conv2_4_ex"
  param {
    lr_mult: 1
    decay_mult: 0
  }
  param {
    lr_mult: 1
    decay_mult: 0
  }
  scale_param {
    bias_term: true
  }
}
layer {
  name: "relu2_4_ex"
  type: "PReLU"
  bottom: "conv2_4_ex"
  top: "conv2_4_ex"
}
layer {
  name: "conv2_4_dw"
  type: "DepthwiseConvolution"
  bottom: "conv2_4_ex"
  top: "conv2_4_dw"
  param {
    lr_mult: 1
    decay_mult: 1
  }
  param {
    lr_mult: 0
    decay_mult: 0
  }
  convolution_param {
    num_output: 128
    pad: 1
    kernel_size: 3
    group: 128
    stride: 1
    weight_filler {
      type: "xavier"
    }
    bias_filler {
      type: "constant"
      value: 0
    }
    engine: CAFFE
  }
}
layer {
  name: "conv2_4_dw/bn"
  type: "BatchNorm"
  bottom: "conv2_4_dw"
  top: "conv2_4_dw"
  param {
    lr_mult: 0
    decay_mult: 0
  }
  param {
    lr_mult: 0
    decay_mult: 0
  }
  param {
    lr_mult: 0
    decay_mult: 0
  }
}
layer {
  name: "conv2_4_dw/scale"
  type: "Scale"
  bottom: "conv2_4_dw"
  top: "conv2_4_dw"
  param {
    lr_mult: 1
    decay_mult: 0
  }
  param {
    lr_mult: 1
    decay_mult: 0
  }
  scale_param {
    bias_term: true
  }
}
layer {
  name: "relu2_4_dw"
  type: "PReLU"
  bottom: "conv2_4_dw"
  top: "conv2_4_dw"
}
layer {
  name: "conv2_4_em"
  type: "Convolution"
  bottom: "conv2_4_dw"
  top: "conv2_4_em"
  param {
    lr_mult: 1
    decay_mult: 1
  }
  convolution_param {
    num_output: 64
    bias_term: false
    pad: 0
    kernel_size: 1
    stride: 1
    weight_filler {
      type: "xavier"
    }
  }
}
layer {
  name: "conv2_4_em/bn"
  type: "BatchNorm"
  bottom: "conv2_4_em"
  top: "conv2_4_em"
  param {
    lr_mult: 0
    decay_mult: 0
  }
  param {
    lr_mult: 0
    decay_mult: 0
  }
  param {
    lr_mult: 0
    decay_mult: 0
  }
}
layer {
  name: "conv2_4_em/scale"
  type: "Scale"
  bottom: "conv2_4_em"
  top: "conv2_4_em"
  param {
    lr_mult: 1
    decay_mult: 0
  }
  param {
    lr_mult: 1
    decay_mult: 0
  }
  scale_param {
    bias_term: true
  }
}
layer {
  name: "res2_4"
  type: "Eltwise"
  bottom: "res2_3"
  bottom: "conv2_4_em"
  top: "res2_4"
}
layer {
  name: "conv3_ex"
  type: "Convolution"
  bottom: "res2_4"
  top: "conv3_ex"
  param {
    lr_mult: 1
    decay_mult: 1
  }
  convolution_param {
    num_output: 256
    bias_term: false
    pad: 0
    kernel_size: 1
    stride: 1
    weight_filler {
      type: "xavier"
    }
  }
}
layer {
  name: "conv3_ex/bn"
  type: "BatchNorm"
  bottom: "conv3_ex"
  top: "conv3_ex"
  param {
    lr_mult: 0
    decay_mult: 0
  }
  param {
    lr_mult: 0
    decay_mult: 0
  }
  param {
    lr_mult: 0
    decay_mult: 0
  }
}
layer {
  name: "conv3_ex/scale"
  type: "Scale"
  bottom: "conv3_ex"
  top: "conv3_ex"
  param {
    lr_mult: 1
    decay_mult: 0
  }
  param {
    lr_mult: 1
    decay_mult: 0
  }
  scale_param {
    bias_term: true
  }
}
layer {
  name: "relu3_ex"
  type: "PReLU"
  bottom: "conv3_ex"
  top: "conv3_ex"
}
layer {
  name: "conv3_dw"
  type: "DepthwiseConvolution"
  bottom: "conv3_ex"
  top: "conv3_dw"
  param {
    lr_mult: 1
    decay_mult: 1
  }
  param {
    lr_mult: 0
    decay_mult: 0
  }
  convolution_param {
    num_output: 256
    pad: 1
    kernel_size: 3
    group: 256
    stride: 2
    weight_filler {
      type: "xavier"
    }
    bias_filler {
      type: "constant"
      value: 0
    }
    engine: CAFFE
  }
}
layer {
  name: "conv3_dw/bn"
  type: "BatchNorm"
  bottom: "conv3_dw"
  top: "conv3_dw"
  param {
    lr_mult: 0
    decay_mult: 0
  }
  param {
    lr_mult: 0
    decay_mult: 0
  }
  param {
    lr_mult: 0
    decay_mult: 0
  }
}
layer {
  name: "conv3_dw/scale"
  type: "Scale"
  bottom: "conv3_dw"
  top: "conv3_dw"
  param {
    lr_mult: 1
    decay_mult: 0
  }
  param {
    lr_mult: 1
    decay_mult: 0
  }
  scale_param {
    bias_term: true
  }
}
layer {
  name: "relu3_dw"
  type: "PReLU"
  bottom: "conv3_dw"
  top: "conv3_dw"
}
layer {
  name: "conv3_em"
  type: "Convolution"
  bottom: "conv3_dw"
  top: "conv3_em"
  param {
    lr_mult: 1
    decay_mult: 1
  }
  convolution_param {
    num_output: 128
    bias_term: false
    pad: 0
    kernel_size: 1
    stride: 1
    weight_filler {
      type: "xavier"
    }
  }
}
layer {
  name: "conv3_em/bn"
  type: "BatchNorm"
  bottom: "conv3_em"
  top: "conv3_em"
  param {
    lr_mult: 0
    decay_mult: 0
  }
  param {
    lr_mult: 0
    decay_mult: 0
  }
  param {
    lr_mult: 0
    decay_mult: 0
  }
}
layer {
  name: "conv3_em/scale"
  type: "Scale"
  bottom: "conv3_em"
  top: "conv3_em"
  param {
    lr_mult: 1
    decay_mult: 0
  }
  param {
    lr_mult: 1
    decay_mult: 0
  }
  scale_param {
    bias_term: true
  }
}
layer {
  name: "conv3_1_ex"
  type: "Convolution"
  bottom: "conv3_em"
  top: "conv3_1_ex"
  param {
    lr_mult: 1
    decay_mult: 1
  }
  convolution_param {
    num_output: 256
    bias_term: false
    pad: 0
    kernel_size: 1
    stride: 1
    weight_filler {
      type: "xavier"
    }
  }
}
layer {
  name: "conv3_1_ex/bn"
  type: "BatchNorm"
  bottom: "conv3_1_ex"
  top: "conv3_1_ex"
  param {
    lr_mult: 0
    decay_mult: 0
  }
  param {
    lr_mult: 0
    decay_mult: 0
  }
  param {
    lr_mult: 0
    decay_mult: 0
  }
}
layer {
  name: "conv3_1_ex/scale"
  type: "Scale"
  bottom: "conv3_1_ex"
  top: "conv3_1_ex"
  param {
    lr_mult: 1
    decay_mult: 0
  }
  param {
    lr_mult: 1
    decay_mult: 0
  }
  scale_param {
    bias_term: true
  }
}
layer {
  name: "relu3_1_ex"
  type: "PReLU"
  bottom: "conv3_1_ex"
  top: "conv3_1_ex"
}
layer {
  name: "conv3_1_dw"
  type: "DepthwiseConvolution"
  bottom: "conv3_1_ex"
  top: "conv3_1_dw"
  param {
    lr_mult: 1
    decay_mult: 1
  }
  param {
    lr_mult: 0
    decay_mult: 0
  }
  convolution_param {
    num_output: 256
    pad: 1
    kernel_size: 3
    group: 256
    stride: 1
    weight_filler {
      type: "xavier"
    }
    bias_filler {
      type: "constant"
      value: 0
    }
    engine: CAFFE
  }
}
layer {
  name: "conv3_1_dw/bn"
  type: "BatchNorm"
  bottom: "conv3_1_dw"
  top: "conv3_1_dw"
  param {
    lr_mult: 0
    decay_mult: 0
  }
  param {
    lr_mult: 0
    decay_mult: 0
  }
  param {
    lr_mult: 0
    decay_mult: 0
  }
}
layer {
  name: "conv3_1_dw/scale"
  type: "Scale"
  bottom: "conv3_1_dw"
  top: "conv3_1_dw"
  param {
    lr_mult: 1
    decay_mult: 0
  }
  param {
    lr_mult: 1
    decay_mult: 0
  }
  scale_param {
    bias_term: true
  }
}
layer {
  name: "relu3_1_dw"
  type: "PReLU"
  bottom: "conv3_1_dw"
  top: "conv3_1_dw"
}
layer {
  name: "conv3_1_em"
  type: "Convolution"
  bottom: "conv3_1_dw"
  top: "conv3_1_em"
  param {
    lr_mult: 1
    decay_mult: 1
  }
  convolution_param {
    num_output: 128
    bias_term: false
    pad: 0
    kernel_size: 1
    stride: 1
    weight_filler {
      type: "xavier"
    }
  }
}
layer {
  name: "conv3_1_em/bn"
  type: "BatchNorm"
  bottom: "conv3_1_em"
  top: "conv3_1_em"
  param {
    lr_mult: 0
    decay_mult: 0
  }
  param {
    lr_mult: 0
    decay_mult: 0
  }
  param {
    lr_mult: 0
    decay_mult: 0
  }
}
layer {
  name: "conv3_1_em/scale"
  type: "Scale"
  bottom: "conv3_1_em"
  top: "conv3_1_em"
  param {
    lr_mult: 1
    decay_mult: 0
  }
  param {
    lr_mult: 1
    decay_mult: 0
  }
  scale_param {
    bias_term: true
  }
}
layer {
  name: "res3_1"
  type: "Eltwise"
  bottom: "conv3_em"
  bottom: "conv3_1_em"
  top: "res3_1"
}
layer {
  name: "conv3_2_ex"
  type: "Convolution"
  bottom: "res3_1"
  top: "conv3_2_ex"
  param {
    lr_mult: 1
    decay_mult: 1
  }
  convolution_param {
    num_output: 256
    bias_term: false
    pad: 0
    kernel_size: 1
    stride: 1
    weight_filler {
      type: "xavier"
    }
  }
}
layer {
  name: "conv3_2_ex/bn"
  type: "BatchNorm"
  bottom: "conv3_2_ex"
  top: "conv3_2_ex"
  param {
    lr_mult: 0
    decay_mult: 0
  }
  param {
    lr_mult: 0
    decay_mult: 0
  }
  param {
    lr_mult: 0
    decay_mult: 0
  }
}
layer {
  name: "conv3_2_ex/scale"
  type: "Scale"
  bottom: "conv3_2_ex"
  top: "conv3_2_ex"
  param {
    lr_mult: 1
    decay_mult: 0
  }
  param {
    lr_mult: 1
    decay_mult: 0
  }
  scale_param {
    bias_term: true
  }
}
layer {
  name: "relu3_2_ex"
  type: "PReLU"
  bottom: "conv3_2_ex"
  top: "conv3_2_ex"
}
layer {
  name: "conv3_2_dw"
  type: "DepthwiseConvolution"
  bottom: "conv3_2_ex"
  top: "conv3_2_dw"
  param {
    lr_mult: 1
    decay_mult: 1
  }
  param {
    lr_mult: 0
    decay_mult: 0
  }
  convolution_param {
    num_output: 256
    pad: 1
    kernel_size: 3
    group: 256
    stride: 1
    weight_filler {
      type: "xavier"
    }
    bias_filler {
      type: "constant"
      value: 0
    }
    engine: CAFFE
  }
}
layer {
  name: "conv3_2_dw/bn"
  type: "BatchNorm"
  bottom: "conv3_2_dw"
  top: "conv3_2_dw"
  param {
    lr_mult: 0
    decay_mult: 0
  }
  param {
    lr_mult: 0
    decay_mult: 0
  }
  param {
    lr_mult: 0
    decay_mult: 0
  }
}
layer {
  name: "conv3_2_dw/scale"
  type: "Scale"
  bottom: "conv3_2_dw"
  top: "conv3_2_dw"
  param {
    lr_mult: 1
    decay_mult: 0
  }
  param {
    lr_mult: 1
    decay_mult: 0
  }
  scale_param {
    bias_term: true
  }
}
layer {
  name: "relu3_2_dw"
  type: "PReLU"
  bottom: "conv3_2_dw"
  top: "conv3_2_dw"
}
layer {
  name: "conv3_2_em"
  type: "Convolution"
  bottom: "conv3_2_dw"
  top: "conv3_2_em"
  param {
    lr_mult: 1
    decay_mult: 1
  }
  convolution_param {
    num_output: 128
    bias_term: false
    pad: 0
    kernel_size: 1
    stride: 1
    weight_filler {
      type: "xavier"
    }
  }
}
layer {
  name: "conv3_2_em/bn"
  type: "BatchNorm"
  bottom: "conv3_2_em"
  top: "conv3_2_em"
  param {
    lr_mult: 0
    decay_mult: 0
  }
  param {
    lr_mult: 0
    decay_mult: 0
  }
  param {
    lr_mult: 0
    decay_mult: 0
  }
}
layer {
  name: "conv3_2_em/scale"
  type: "Scale"
  bottom: "conv3_2_em"
  top: "conv3_2_em"
  param {
    lr_mult: 1
    decay_mult: 0
  }
  param {
    lr_mult: 1
    decay_mult: 0
  }
  scale_param {
    bias_term: true
  }
}
layer {
  name: "res3_2"
  type: "Eltwise"
  bottom: "res3_1"
  bottom: "conv3_2_em"
  top: "res3_2"
}
layer {
  name: "conv3_3_ex"
  type: "Convolution"
  bottom: "res3_2"
  top: "conv3_3_ex"
  param {
    lr_mult: 1
    decay_mult: 1
  }
  convolution_param {
    num_output: 256
    bias_term: false
    pad: 0
    kernel_size: 1
    stride: 1
    weight_filler {
      type: "xavier"
    }
  }
}
layer {
  name: "conv3_3_ex/bn"
  type: "BatchNorm"
  bottom: "conv3_3_ex"
  top: "conv3_3_ex"
  param {
    lr_mult: 0
    decay_mult: 0
  }
  param {
    lr_mult: 0
    decay_mult: 0
  }
  param {
    lr_mult: 0
    decay_mult: 0
  }
}
layer {
  name: "conv3_3_ex/scale"
  type: "Scale"
  bottom: "conv3_3_ex"
  top: "conv3_3_ex"
  param {
    lr_mult: 1
    decay_mult: 0
  }
  param {
    lr_mult: 1
    decay_mult: 0
  }
  scale_param {
    bias_term: true
  }
}
layer {
  name: "relu3_3_ex"
  type: "PReLU"
  bottom: "conv3_3_ex"
  top: "conv3_3_ex"
}
layer {
  name: "conv3_3_dw"
  type: "DepthwiseConvolution"
  bottom: "conv3_3_ex"
  top: "conv3_3_dw"
  param {
    lr_mult: 1
    decay_mult: 1
  }
  param {
    lr_mult: 0
    decay_mult: 0
  }
  convolution_param {
    num_output: 256
    pad: 1
    kernel_size: 3
    group: 256
    stride: 1
    weight_filler {
      type: "xavier"
    }
    bias_filler {
      type: "constant"
      value: 0
    }
    engine: CAFFE
  }
}
layer {
  name: "conv3_3_dw/bn"
  type: "BatchNorm"
  bottom: "conv3_3_dw"
  top: "conv3_3_dw"
  param {
    lr_mult: 0
    decay_mult: 0
  }
  param {
    lr_mult: 0
    decay_mult: 0
  }
  param {
    lr_mult: 0
    decay_mult: 0
  }
}
layer {
  name: "conv3_3_dw/scale"
  type: "Scale"
  bottom: "conv3_3_dw"
  top: "conv3_3_dw"
  param {
    lr_mult: 1
    decay_mult: 0
  }
  param {
    lr_mult: 1
    decay_mult: 0
  }
  scale_param {
    bias_term: true
  }
}
layer {
  name: "relu3_3_dw"
  type: "PReLU"
  bottom: "conv3_3_dw"
  top: "conv3_3_dw"
}
layer {
  name: "conv3_3_em"
  type: "Convolution"
  bottom: "conv3_3_dw"
  top: "conv3_3_em"
  param {
    lr_mult: 1
    decay_mult: 1
  }
  convolution_param {
    num_output: 128
    bias_term: false
    pad: 0
    kernel_size: 1
    stride: 1
    weight_filler {
      type: "xavier"
    }
  }
}
layer {
  name: "conv3_3_em/bn"
  type: "BatchNorm"
  bottom: "conv3_3_em"
  top: "conv3_3_em"
  param {
    lr_mult: 0
    decay_mult: 0
  }
  param {
    lr_mult: 0
    decay_mult: 0
  }
  param {
    lr_mult: 0
    decay_mult: 0
  }
}
layer {
  name: "conv3_3_em/scale"
  type: "Scale"
  bottom: "conv3_3_em"
  top: "conv3_3_em"
  param {
    lr_mult: 1
    decay_mult: 0
  }
  param {
    lr_mult: 1
    decay_mult: 0
  }
  scale_param {
    bias_term: true
  }
}
layer {
  name: "res3_3"
  type: "Eltwise"
  bottom: "res3_2"
  bottom: "conv3_3_em"
  top: "res3_3"
}
layer {
  name: "conv3_4_ex"
  type: "Convolution"
  bottom: "res3_3"
  top: "conv3_4_ex"
  param {
    lr_mult: 1
    decay_mult: 1
  }
  convolution_param {
    num_output: 256
    bias_term: false
    pad: 0
    kernel_size: 1
    stride: 1
    weight_filler {
      type: "xavier"
    }
  }
}
layer {
  name: "conv3_4_ex/bn"
  type: "BatchNorm"
  bottom: "conv3_4_ex"
  top: "conv3_4_ex"
  param {
    lr_mult: 0
    decay_mult: 0
  }
  param {
    lr_mult: 0
    decay_mult: 0
  }
  param {
    lr_mult: 0
    decay_mult: 0
  }
}
layer {
  name: "conv3_4_ex/scale"
  type: "Scale"
  bottom: "conv3_4_ex"
  top: "conv3_4_ex"
  param {
    lr_mult: 1
    decay_mult: 0
  }
  param {
    lr_mult: 1
    decay_mult: 0
  }
  scale_param {
    bias_term: true
  }
}
layer {
  name: "relu3_4_ex"
  type: "PReLU"
  bottom: "conv3_4_ex"
  top: "conv3_4_ex"
}
layer {
  name: "conv3_4_dw"
  type: "DepthwiseConvolution"
  bottom: "conv3_4_ex"
  top: "conv3_4_dw"
  param {
    lr_mult: 1
    decay_mult: 1
  }
  param {
    lr_mult: 0
    decay_mult: 0
  }
  convolution_param {
    num_output: 256
    pad: 1
    kernel_size: 3
    group: 256
    stride: 1
    weight_filler {
      type: "xavier"
    }
    bias_filler {
      type: "constant"
      value: 0
    }
    engine: CAFFE
  }
}
layer {
  name: "conv3_4_dw/bn"
  type: "BatchNorm"
  bottom: "conv3_4_dw"
  top: "conv3_4_dw"
  param {
    lr_mult: 0
    decay_mult: 0
  }
  param {
    lr_mult: 0
    decay_mult: 0
  }
  param {
    lr_mult: 0
    decay_mult: 0
  }
}
layer {
  name: "conv3_4_dw/scale"
  type: "Scale"
  bottom: "conv3_4_dw"
  top: "conv3_4_dw"
  param {
    lr_mult: 1
    decay_mult: 0
  }
  param {
    lr_mult: 1
    decay_mult: 0
  }
  scale_param {
    bias_term: true
  }
}
layer {
  name: "relu3_4_dw"
  type: "PReLU"
  bottom: "conv3_4_dw"
  top: "conv3_4_dw"
}
layer {
  name: "conv3_4_em"
  type: "Convolution"
  bottom: "conv3_4_dw"
  top: "conv3_4_em"
  param {
    lr_mult: 1
    decay_mult: 1
  }
  convolution_param {
    num_output: 128
    bias_term: false
    pad: 0
    kernel_size: 1
    stride: 1
    weight_filler {
      type: "xavier"
    }
  }
}
layer {
  name: "conv3_4_em/bn"
  type: "BatchNorm"
  bottom: "conv3_4_em"
  top: "conv3_4_em"
  param {
    lr_mult: 0
    decay_mult: 0
  }
  param {
    lr_mult: 0
    decay_mult: 0
  }
  param {
    lr_mult: 0
    decay_mult: 0
  }
}
layer {
  name: "conv3_4_em/scale"
  type: "Scale"
  bottom: "conv3_4_em"
  top: "conv3_4_em"
  param {
    lr_mult: 1
    decay_mult: 0
  }
  param {
    lr_mult: 1
    decay_mult: 0
  }
  scale_param {
    bias_term: true
  }
}
layer {
  name: "res3_4"
  type: "Eltwise"
  bottom: "res3_3"
  bottom: "conv3_4_em"
  top: "res3_4"
}
layer {
  name: "conv3_5_ex"
  type: "Convolution"
  bottom: "res3_4"
  top: "conv3_5_ex"
  param {
    lr_mult: 1
    decay_mult: 1
  }
  convolution_param {
    num_output: 256
    bias_term: false
    pad: 0
    kernel_size: 1
    stride: 1
    weight_filler {
      type: "xavier"
    }
  }
}
layer {
  name: "conv3_5_ex/bn"
  type: "BatchNorm"
  bottom: "conv3_5_ex"
  top: "conv3_5_ex"
  param {
    lr_mult: 0
    decay_mult: 0
  }
  param {
    lr_mult: 0
    decay_mult: 0
  }
  param {
    lr_mult: 0
    decay_mult: 0
  }
}
layer {
  name: "conv3_5_ex/scale"
  type: "Scale"
  bottom: "conv3_5_ex"
  top: "conv3_5_ex"
  param {
    lr_mult: 1
    decay_mult: 0
  }
  param {
    lr_mult: 1
    decay_mult: 0
  }
  scale_param {
    bias_term: true
  }
}
layer {
  name: "relu3_5_ex"
  type: "PReLU"
  bottom: "conv3_5_ex"
  top: "conv3_5_ex"
}
layer {
  name: "conv3_5_dw"
  type: "Depthw
I0424 12:21:40.866384 15978 layer_factory.hpp:77] Creating layer data
I0424 12:21:40.866493 15978 db_lmdb.cpp:35] Opened lmdb /raid/face_dataset/CASIA-Webface_lmdb/
I0424 12:21:40.866526 15978 net.cpp:84] Creating Layer data
I0424 12:21:40.866535 15978 net.cpp:380] data -> data
I0424 12:21:40.866554 15978 net.cpp:380] data -> label
I0424 12:21:40.867926 15978 data_layer.cpp:45] output data size: 128,3,112,96
I0424 12:21:40.896776 15978 net.cpp:122] Setting up data
I0424 12:21:40.896806 15978 net.cpp:129] Top shape: 128 3 112 96 (4128768)
I0424 12:21:40.896811 15978 net.cpp:129] Top shape: 128 (128)
I0424 12:21:40.896813 15978 net.cpp:137] Memory required for data: 16515584
I0424 12:21:40.896822 15978 layer_factory.hpp:77] Creating layer label_data_1_split
I0424 12:21:40.896836 15978 net.cpp:84] Creating Layer label_data_1_split
I0424 12:21:40.896843 15978 net.cpp:406] label_data_1_split <- label
I0424 12:21:40.896855 15978 net.cpp:380] label_data_1_split -> label_data_1_split_0
I0424 12:21:40.896867 15978 net.cpp:380] label_data_1_split -> label_data_1_split_1
I0424 12:21:40.896875 15978 net.cpp:380] label_data_1_split -> label_data_1_split_2
I0424 12:21:40.896961 15978 net.cpp:122] Setting up label_data_1_split
I0424 12:21:40.896971 15978 net.cpp:129] Top shape: 128 (128)
I0424 12:21:40.896975 15978 net.cpp:129] Top shape: 128 (128)
I0424 12:21:40.896981 15978 net.cpp:129] Top shape: 128 (128)
I0424 12:21:40.896982 15978 net.cpp:137] Memory required for data: 16517120
I0424 12:21:40.896986 15978 layer_factory.hpp:77] Creating layer conv1
I0424 12:21:40.897006 15978 net.cpp:84] Creating Layer conv1
I0424 12:21:40.897012 15978 net.cpp:406] conv1 <- data
I0424 12:21:40.897019 15978 net.cpp:380] conv1 -> conv1
I0424 12:21:41.691148 15978 net.cpp:122] Setting up conv1
I0424 12:21:41.691211 15978 net.cpp:129] Top shape: 128 64 56 48 (22020096)
I0424 12:21:41.691218 15978 net.cpp:137] Memory required for data: 104597504
I0424 12:21:41.691237 15978 layer_factory.hpp:77] Creating layer conv1/bn
I0424 12:21:41.691249 15978 net.cpp:84] Creating Layer conv1/bn
I0424 12:21:41.691254 15978 net.cpp:406] conv1/bn <- conv1
I0424 12:21:41.691262 15978 net.cpp:367] conv1/bn -> conv1 (in-place)
I0424 12:21:41.691474 15978 net.cpp:122] Setting up conv1/bn
I0424 12:21:41.691483 15978 net.cpp:129] Top shape: 128 64 56 48 (22020096)
I0424 12:21:41.691485 15978 net.cpp:137] Memory required for data: 192677888
I0424 12:21:41.691496 15978 layer_factory.hpp:77] Creating layer conv1/scale
I0424 12:21:41.691506 15978 net.cpp:84] Creating Layer conv1/scale
I0424 12:21:41.691510 15978 net.cpp:406] conv1/scale <- conv1
I0424 12:21:41.691515 15978 net.cpp:367] conv1/scale -> conv1 (in-place)
I0424 12:21:41.691560 15978 layer_factory.hpp:77] Creating layer conv1/scale
I0424 12:21:41.691681 15978 net.cpp:122] Setting up conv1/scale
I0424 12:21:41.691689 15978 net.cpp:129] Top shape: 128 64 56 48 (22020096)
I0424 12:21:41.691692 15978 net.cpp:137] Memory required for data: 280758272
I0424 12:21:41.691699 15978 layer_factory.hpp:77] Creating layer relu1
I0424 12:21:41.691705 15978 net.cpp:84] Creating Layer relu1
I0424 12:21:41.691709 15978 net.cpp:406] relu1 <- conv1
I0424 12:21:41.691714 15978 net.cpp:367] relu1 -> conv1 (in-place)
I0424 12:21:41.692852 15978 net.cpp:122] Setting up relu1
I0424 12:21:41.692867 15978 net.cpp:129] Top shape: 128 64 56 48 (22020096)
I0424 12:21:41.692872 15978 net.cpp:137] Memory required for data: 368838656
I0424 12:21:41.692878 15978 layer_factory.hpp:77] Creating layer conv1_dw
I0424 12:21:41.692888 15978 net.cpp:84] Creating Layer conv1_dw
I0424 12:21:41.692893 15978 net.cpp:406] conv1_dw <- conv1
I0424 12:21:41.692899 15978 net.cpp:380] conv1_dw -> conv1_dw
I0424 12:21:41.694066 15978 net.cpp:122] Setting up conv1_dw
I0424 12:21:41.694082 15978 net.cpp:129] Top shape: 128 64 56 48 (22020096)
I0424 12:21:41.694087 15978 net.cpp:137] Memory required for data: 456919040
I0424 12:21:41.694097 15978 layer_factory.hpp:77] Creating layer conv1_dw/bn
I0424 12:21:41.694103 15978 net.cpp:84] Creating Layer conv1_dw/bn
I0424 12:21:41.694109 15978 net.cpp:406] conv1_dw/bn <- conv1_dw
I0424 12:21:41.694114 15978 net.cpp:367] conv1_dw/bn -> conv1_dw (in-place)
I0424 12:21:41.694316 15978 net.cpp:122] Setting up conv1_dw/bn
I0424 12:21:41.694324 15978 net.cpp:129] Top shape: 128 64 56 48 (22020096)
I0424 12:21:41.694329 15978 net.cpp:137] Memory required for data: 544999424
I0424 12:21:41.694335 15978 layer_factory.hpp:77] Creating layer conv1_dw/scale
I0424 12:21:41.694344 15978 net.cpp:84] Creating Layer conv1_dw/scale
I0424 12:21:41.694348 15978 net.cpp:406] conv1_dw/scale <- conv1_dw
I0424 12:21:41.694353 15978 net.cpp:367] conv1_dw/scale -> conv1_dw (in-place)
I0424 12:21:41.694392 15978 layer_factory.hpp:77] Creating layer conv1_dw/scale
I0424 12:21:41.694507 15978 net.cpp:122] Setting up conv1_dw/scale
I0424 12:21:41.694515 15978 net.cpp:129] Top shape: 128 64 56 48 (22020096)
I0424 12:21:41.694519 15978 net.cpp:137] Memory required for data: 633079808
I0424 12:21:41.694525 15978 layer_factory.hpp:77] Creating layer relu1_dw
I0424 12:21:41.694530 15978 net.cpp:84] Creating Layer relu1_dw
I0424 12:21:41.694532 15978 net.cpp:406] relu1_dw <- conv1_dw
I0424 12:21:41.694537 15978 net.cpp:367] relu1_dw -> conv1_dw (in-place)
I0424 12:21:41.694736 15978 net.cpp:122] Setting up relu1_dw
I0424 12:21:41.694744 15978 net.cpp:129] Top shape: 128 64 56 48 (22020096)
I0424 12:21:41.694746 15978 net.cpp:137] Memory required for data: 721160192
I0424 12:21:41.694751 15978 layer_factory.hpp:77] Creating layer conv2_ex
I0424 12:21:41.694761 15978 net.cpp:84] Creating Layer conv2_ex
I0424 12:21:41.694764 15978 net.cpp:406] conv2_ex <- conv1_dw
I0424 12:21:41.694769 15978 net.cpp:380] conv2_ex -> conv2_ex
I0424 12:21:41.698127 15978 net.cpp:122] Setting up conv2_ex
I0424 12:21:41.698163 15978 net.cpp:129] Top shape: 128 128 56 48 (44040192)
I0424 12:21:41.698168 15978 net.cpp:137] Memory required for data: 897320960
I0424 12:21:41.698177 15978 layer_factory.hpp:77] Creating layer conv2_ex/bn
I0424 12:21:41.698186 15978 net.cpp:84] Creating Layer conv2_ex/bn
I0424 12:21:41.698191 15978 net.cpp:406] conv2_ex/bn <- conv2_ex
I0424 12:21:41.698196 15978 net.cpp:367] conv2_ex/bn -> conv2_ex (in-place)
I0424 12:21:41.698400 15978 net.cpp:122] Setting up conv2_ex/bn
I0424 12:21:41.698408 15978 net.cpp:129] Top shape: 128 128 56 48 (44040192)
I0424 12:21:41.698411 15978 net.cpp:137] Memory required for data: 1073481728
I0424 12:21:41.698420 15978 layer_factory.hpp:77] Creating layer conv2_ex/scale
I0424 12:21:41.698426 15978 net.cpp:84] Creating Layer conv2_ex/scale
I0424 12:21:41.698431 15978 net.cpp:406] conv2_ex/scale <- conv2_ex
I0424 12:21:41.698436 15978 net.cpp:367] conv2_ex/scale -> conv2_ex (in-place)
I0424 12:21:41.698472 15978 layer_factory.hpp:77] Creating layer conv2_ex/scale
I0424 12:21:41.698580 15978 net.cpp:122] Setting up conv2_ex/scale
I0424 12:21:41.698590 15978 net.cpp:129] Top shape: 128 128 56 48 (44040192)
I0424 12:21:41.698591 15978 net.cpp:137] Memory required for data: 1249642496
I0424 12:21:41.698596 15978 layer_factory.hpp:77] Creating layer relu2_ex
I0424 12:21:41.698602 15978 net.cpp:84] Creating Layer relu2_ex
I0424 12:21:41.698606 15978 net.cpp:406] relu2_ex <- conv2_ex
I0424 12:21:41.698611 15978 net.cpp:367] relu2_ex -> conv2_ex (in-place)
I0424 12:21:41.699812 15978 net.cpp:122] Setting up relu2_ex
I0424 12:21:41.699827 15978 net.cpp:129] Top shape: 128 128 56 48 (44040192)
I0424 12:21:41.699832 15978 net.cpp:137] Memory required for data: 1425803264
I0424 12:21:41.699838 15978 layer_factory.hpp:77] Creating layer conv2_dw
I0424 12:21:41.699846 15978 net.cpp:84] Creating Layer conv2_dw
I0424 12:21:41.699851 15978 net.cpp:406] conv2_dw <- conv2_ex
I0424 12:21:41.699857 15978 net.cpp:380] conv2_dw -> conv2_dw
I0424 12:21:41.700122 15978 net.cpp:122] Setting up conv2_dw
I0424 12:21:41.700132 15978 net.cpp:129] Top shape: 128 128 28 24 (11010048)
I0424 12:21:41.700135 15978 net.cpp:137] Memory required for data: 1469843456
I0424 12:21:41.700142 15978 layer_factory.hpp:77] Creating layer conv2_dw/bn
I0424 12:21:41.700150 15978 net.cpp:84] Creating Layer conv2_dw/bn
I0424 12:21:41.700153 15978 net.cpp:406] conv2_dw/bn <- conv2_dw
I0424 12:21:41.700158 15978 net.cpp:367] conv2_dw/bn -> conv2_dw (in-place)
I0424 12:21:41.700352 15978 net.cpp:122] Setting up conv2_dw/bn
I0424 12:21:41.700361 15978 net.cpp:129] Top shape: 128 128 28 24 (11010048)
I0424 12:21:41.700362 15978 net.cpp:137] Memory required for data: 1513883648
I0424 12:21:41.700369 15978 layer_factory.hpp:77] Creating layer conv2_dw/scale
I0424 12:21:41.700378 15978 net.cpp:84] Creating Layer conv2_dw/scale
I0424 12:21:41.700383 15978 net.cpp:406] conv2_dw/scale <- conv2_dw
I0424 12:21:41.700387 15978 net.cpp:367] conv2_dw/scale -> conv2_dw (in-place)
I0424 12:21:41.700424 15978 layer_factory.hpp:77] Creating layer conv2_dw/scale
I0424 12:21:41.700534 15978 net.cpp:122] Setting up conv2_dw/scale
I0424 12:21:41.700542 15978 net.cpp:129] Top shape: 128 128 28 24 (11010048)
I0424 12:21:41.700546 15978 net.cpp:137] Memory required for data: 1557923840
I0424 12:21:41.700551 15978 layer_factory.hpp:77] Creating layer relu2_dw
I0424 12:21:41.700556 15978 net.cpp:84] Creating Layer relu2_dw
I0424 12:21:41.700559 15978 net.cpp:406] relu2_dw <- conv2_dw
I0424 12:21:41.700563 15978 net.cpp:367] relu2_dw -> conv2_dw (in-place)
I0424 12:21:41.700708 15978 net.cpp:122] Setting up relu2_dw
I0424 12:21:41.700717 15978 net.cpp:129] Top shape: 128 128 28 24 (11010048)
I0424 12:21:41.700719 15978 net.cpp:137] Memory required for data: 1601964032
I0424 12:21:41.700723 15978 layer_factory.hpp:77] Creating layer conv2_em
I0424 12:21:41.700731 15978 net.cpp:84] Creating Layer conv2_em
I0424 12:21:41.700736 15978 net.cpp:406] conv2_em <- conv2_dw
I0424 12:21:41.700740 15978 net.cpp:380] conv2_em -> conv2_em
I0424 12:21:41.703521 15978 net.cpp:122] Setting up conv2_em
I0424 12:21:41.703554 15978 net.cpp:129] Top shape: 128 64 28 24 (5505024)
I0424 12:21:41.703562 15978 net.cpp:137] Memory required for data: 1623984128
I0424 12:21:41.703567 15978 layer_factory.hpp:77] Creating layer conv2_em/bn
I0424 12:21:41.703574 15978 net.cpp:84] Creating Layer conv2_em/bn
I0424 12:21:41.703580 15978 net.cpp:406] conv2_em/bn <- conv2_em
I0424 12:21:41.703586 15978 net.cpp:367] conv2_em/bn -> conv2_em (in-place)
I0424 12:21:41.703801 15978 net.cpp:122] Setting up conv2_em/bn
I0424 12:21:41.703809 15978 net.cpp:129] Top shape: 128 64 28 24 (5505024)
I0424 12:21:41.703812 15978 net.cpp:137] Memory required for data: 1646004224
I0424 12:21:41.703824 15978 layer_factory.hpp:77] Creating layer conv2_em/scale
I0424 12:21:41.703831 15978 net.cpp:84] Creating Layer conv2_em/scale
I0424 12:21:41.703835 15978 net.cpp:406] conv2_em/scale <- conv2_em
I0424 12:21:41.703840 15978 net.cpp:367] conv2_em/scale -> conv2_em (in-place)
I0424 12:21:41.703881 15978 layer_factory.hpp:77] Creating layer conv2_em/scale
I0424 12:21:41.703999 15978 net.cpp:122] Setting up conv2_em/scale
I0424 12:21:41.704007 15978 net.cpp:129] Top shape: 128 64 28 24 (5505024)
I0424 12:21:41.704010 15978 net.cpp:137] Memory required for data: 1668024320
I0424 12:21:41.704016 15978 layer_factory.hpp:77] Creating layer conv2_em_conv2_em/scale_0_split
I0424 12:21:41.704023 15978 net.cpp:84] Creating Layer conv2_em_conv2_em/scale_0_split
I0424 12:21:41.704026 15978 net.cpp:406] conv2_em_conv2_em/scale_0_split <- conv2_em
I0424 12:21:41.704031 15978 net.cpp:380] conv2_em_conv2_em/scale_0_split -> conv2_em_conv2_em/scale_0_split_0
I0424 12:21:41.704039 15978 net.cpp:380] conv2_em_conv2_em/scale_0_split -> conv2_em_conv2_em/scale_0_split_1
I0424 12:21:41.704082 15978 net.cpp:122] Setting up conv2_em_conv2_em/scale_0_split
I0424 12:21:41.704088 15978 net.cpp:129] Top shape: 128 64 28 24 (5505024)
I0424 12:21:41.704092 15978 net.cpp:129] Top shape: 128 64 28 24 (5505024)
I0424 12:21:41.704097 15978 net.cpp:137] Memory required for data: 1712064512
I0424 12:21:41.704099 15978 layer_factory.hpp:77] Creating layer conv2_1_ex
I0424 12:21:41.704107 15978 net.cpp:84] Creating Layer conv2_1_ex
I0424 12:21:41.704113 15978 net.cpp:406] conv2_1_ex <- conv2_em_conv2_em/scale_0_split_0
I0424 12:21:41.704118 15978 net.cpp:380] conv2_1_ex -> conv2_1_ex
I0424 12:21:41.706569 15978 net.cpp:122] Setting up conv2_1_ex
I0424 12:21:41.706585 15978 net.cpp:129] Top shape: 128 128 28 24 (11010048)
I0424 12:21:41.706590 15978 net.cpp:137] Memory required for data: 1756104704
I0424 12:21:41.706596 15978 layer_factory.hpp:77] Creating layer conv2_1_ex/bn
I0424 12:21:41.706604 15978 net.cpp:84] Creating Layer conv2_1_ex/bn
I0424 12:21:41.706609 15978 net.cpp:406] conv2_1_ex/bn <- conv2_1_ex
I0424 12:21:41.706614 15978 net.cpp:367] conv2_1_ex/bn -> conv2_1_ex (in-place)
I0424 12:21:41.706822 15978 net.cpp:122] Setting up conv2_1_ex/bn
I0424 12:21:41.706830 15978 net.cpp:129] Top shape: 128 128 28 24 (11010048)
I0424 12:21:41.706833 15978 net.cpp:137] Memory required for data: 1800144896
I0424 12:21:41.706840 15978 layer_factory.hpp:77] Creating layer conv2_1_ex/scale
I0424 12:21:41.706848 15978 net.cpp:84] Creating Layer conv2_1_ex/scale
I0424 12:21:41.706851 15978 net.cpp:406] conv2_1_ex/scale <- conv2_1_ex
I0424 12:21:41.706856 15978 net.cpp:367] conv2_1_ex/scale -> conv2_1_ex (in-place)
I0424 12:21:41.706894 15978 layer_factory.hpp:77] Creating layer conv2_1_ex/scale
I0424 12:21:41.707006 15978 net.cpp:122] Setting up conv2_1_ex/scale
I0424 12:21:41.707015 15978 net.cpp:129] Top shape: 128 128 28 24 (11010048)
I0424 12:21:41.707017 15978 net.cpp:137] Memory required for data: 1844185088
I0424 12:21:41.707022 15978 layer_factory.hpp:77] Creating layer relu2_1_ex
I0424 12:21:41.707027 15978 net.cpp:84] Creating Layer relu2_1_ex
I0424 12:21:41.707031 15978 net.cpp:406] relu2_1_ex <- conv2_1_ex
I0424 12:21:41.707034 15978 net.cpp:367] relu2_1_ex -> conv2_1_ex (in-place)
I0424 12:21:41.707181 15978 net.cpp:122] Setting up relu2_1_ex
I0424 12:21:41.707209 15978 net.cpp:129] Top shape: 128 128 28 24 (11010048)
I0424 12:21:41.707216 15978 net.cpp:137] Memory required for data: 1888225280
I0424 12:21:41.707219 15978 layer_factory.hpp:77] Creating layer conv2_1_dw
I0424 12:21:41.707226 15978 net.cpp:84] Creating Layer conv2_1_dw
I0424 12:21:41.707231 15978 net.cpp:406] conv2_1_dw <- conv2_1_ex
I0424 12:21:41.707237 15978 net.cpp:380] conv2_1_dw -> conv2_1_dw
I0424 12:21:41.707494 15978 net.cpp:122] Setting up conv2_1_dw
I0424 12:21:41.707501 15978 net.cpp:129] Top shape: 128 128 28 24 (11010048)
I0424 12:21:41.707506 15978 net.cpp:137] Memory required for data: 1932265472
I0424 12:21:41.707512 15978 layer_factory.hpp:77] Creating layer conv2_1_dw/bn
I0424 12:21:41.707517 15978 net.cpp:84] Creating Layer conv2_1_dw/bn
I0424 12:21:41.707521 15978 net.cpp:406] conv2_1_dw/bn <- conv2_1_dw
I0424 12:21:41.707526 15978 net.cpp:367] conv2_1_dw/bn -> conv2_1_dw (in-place)
I0424 12:21:41.707717 15978 net.cpp:122] Setting up conv2_1_dw/bn
I0424 12:21:41.707725 15978 net.cpp:129] Top shape: 128 128 28 24 (11010048)
I0424 12:21:41.707727 15978 net.cpp:137] Memory required for data: 1976305664
I0424 12:21:41.707734 15978 layer_factory.hpp:77] Creating layer conv2_1_dw/scale
I0424 12:21:41.707741 15978 net.cpp:84] Creating Layer conv2_1_dw/scale
I0424 12:21:41.707744 15978 net.cpp:406] conv2_1_dw/scale <- conv2_1_dw
I0424 12:21:41.707748 15978 net.cpp:367] conv2_1_dw/scale -> conv2_1_dw (in-place)
I0424 12:21:41.707787 15978 layer_factory.hpp:77] Creating layer conv2_1_dw/scale
I0424 12:21:41.707897 15978 net.cpp:122] Setting up conv2_1_dw/scale
I0424 12:21:41.707906 15978 net.cpp:129] Top shape: 128 128 28 24 (11010048)
I0424 12:21:41.707907 15978 net.cpp:137] Memory required for data: 2020345856
I0424 12:21:41.707913 15978 layer_factory.hpp:77] Creating layer relu2_1_dw
I0424 12:21:41.707919 15978 net.cpp:84] Creating Layer relu2_1_dw
I0424 12:21:41.707922 15978 net.cpp:406] relu2_1_dw <- conv2_1_dw
I0424 12:21:41.707926 15978 net.cpp:367] relu2_1_dw -> conv2_1_dw (in-place)
I0424 12:21:41.708070 15978 net.cpp:122] Setting up relu2_1_dw
I0424 12:21:41.708078 15978 net.cpp:129] Top shape: 128 128 28 24 (11010048)
I0424 12:21:41.708081 15978 net.cpp:137] Memory required for data: 2064386048
I0424 12:21:41.708086 15978 layer_factory.hpp:77] Creating layer conv2_1_em
I0424 12:21:41.708096 15978 net.cpp:84] Creating Layer conv2_1_em
I0424 12:21:41.708099 15978 net.cpp:406] conv2_1_em <- conv2_1_dw
I0424 12:21:41.708104 15978 net.cpp:380] conv2_1_em -> conv2_1_em
I0424 12:21:41.710574 15978 net.cpp:122] Setting up conv2_1_em
I0424 12:21:41.710592 15978 net.cpp:129] Top shape: 128 64 28 24 (5505024)
I0424 12:21:41.710597 15978 net.cpp:137] Memory required for data: 2086406144
I0424 12:21:41.710602 15978 layer_factory.hpp:77] Creating layer conv2_1_em/bn
I0424 12:21:41.710609 15978 net.cpp:84] Creating Layer conv2_1_em/bn
I0424 12:21:41.710614 15978 net.cpp:406] conv2_1_em/bn <- conv2_1_em
I0424 12:21:41.710619 15978 net.cpp:367] conv2_1_em/bn -> conv2_1_em (in-place)
I0424 12:21:41.710836 15978 net.cpp:122] Setting up conv2_1_em/bn
I0424 12:21:41.710844 15978 net.cpp:129] Top shape: 128 64 28 24 (5505024)
I0424 12:21:41.710850 15978 net.cpp:137] Memory required for data: 2108426240
I0424 12:21:41.710857 15978 layer_factory.hpp:77] Creating layer conv2_1_em/scale
I0424 12:21:41.710865 15978 net.cpp:84] Creating Layer conv2_1_em/scale
I0424 12:21:41.710870 15978 net.cpp:406] conv2_1_em/scale <- conv2_1_em
I0424 12:21:41.710875 15978 net.cpp:367] conv2_1_em/scale -> conv2_1_em (in-place)
I0424 12:21:41.710917 15978 layer_factory.hpp:77] Creating layer conv2_1_em/scale
I0424 12:21:41.711040 15978 net.cpp:122] Setting up conv2_1_em/scale
I0424 12:21:41.711046 15978 net.cpp:129] Top shape: 128 64 28 24 (5505024)
I0424 12:21:41.711050 15978 net.cpp:137] Memory required for data: 2130446336
I0424 12:21:41.711055 15978 layer_factory.hpp:77] Creating layer res2_1
I0424 12:21:41.711062 15978 net.cpp:84] Creating Layer res2_1
I0424 12:21:41.711066 15978 net.cpp:406] res2_1 <- conv2_em_conv2_em/scale_0_split_1
I0424 12:21:41.711089 15978 net.cpp:406] res2_1 <- conv2_1_em
I0424 12:21:41.711097 15978 net.cpp:380] res2_1 -> res2_1
I0424 12:21:41.711133 15978 net.cpp:122] Setting up res2_1
I0424 12:21:41.711139 15978 net.cpp:129] Top shape: 128 64 28 24 (5505024)
I0424 12:21:41.711143 15978 net.cpp:137] Memory required for data: 2152466432
I0424 12:21:41.711145 15978 layer_factory.hpp:77] Creating layer res2_1_res2_1_0_split
I0424 12:21:41.711150 15978 net.cpp:84] Creating Layer res2_1_res2_1_0_split
I0424 12:21:41.711153 15978 net.cpp:406] res2_1_res2_1_0_split <- res2_1
I0424 12:21:41.711159 15978 net.cpp:380] res2_1_res2_1_0_split -> res2_1_res2_1_0_split_0
I0424 12:21:41.711167 15978 net.cpp:380] res2_1_res2_1_0_split -> res2_1_res2_1_0_split_1
I0424 12:21:41.711210 15978 net.cpp:122] Setting up res2_1_res2_1_0_split
I0424 12:21:41.711218 15978 net.cpp:129] Top shape: 128 64 28 24 (5505024)
I0424 12:21:41.711223 15978 net.cpp:129] Top shape: 128 64 28 24 (5505024)
I0424 12:21:41.711226 15978 net.cpp:137] Memory required for data: 2196506624
I0424 12:21:41.711230 15978 layer_factory.hpp:77] Creating layer conv2_2_ex
I0424 12:21:41.711237 15978 net.cpp:84] Creating Layer conv2_2_ex
I0424 12:21:41.711243 15978 net.cpp:406] conv2_2_ex <- res2_1_res2_1_0_split_0
I0424 12:21:41.711248 15978 net.cpp:380] conv2_2_ex -> conv2_2_ex
I0424 12:21:41.714061 15978 net.cpp:122] Setting up conv2_2_ex
I0424 12:21:41.714077 15978 net.cpp:129] Top shape: 128 128 28 24 (11010048)
I0424 12:21:41.714082 15978 net.cpp:137] Memory required for data: 2240546816
I0424 12:21:41.714088 15978 layer_factory.hpp:77] Creating layer conv2_2_ex/bn
I0424 12:21:41.714095 15978 net.cpp:84] Creating Layer conv2_2_ex/bn
I0424 12:21:41.714099 15978 net.cpp:406] conv2_2_ex/bn <- conv2_2_ex
I0424 12:21:41.714107 15978 net.cpp:367] conv2_2_ex/bn -> conv2_2_ex (in-place)
I0424 12:21:41.714315 15978 net.cpp:122] Setting up conv2_2_ex/bn
I0424 12:21:41.714323 15978 net.cpp:129] Top shape: 128 128 28 24 (11010048)
I0424 12:21:41.714326 15978 net.cpp:137] Memory required for data: 2284587008
I0424 12:21:41.714335 15978 layer_factory.hpp:77] Creating layer conv2_2_ex/scale
I0424 12:21:41.714342 15978 net.cpp:84] Creating Layer conv2_2_ex/scale
I0424 12:21:41.714346 15978 net.cpp:406] conv2_2_ex/scale <- conv2_2_ex
I0424 12:21:41.714350 15978 net.cpp:367] conv2_2_ex/scale -> conv2_2_ex (in-place)
I0424 12:21:41.714391 15978 layer_factory.hpp:77] Creating layer conv2_2_ex/scale
I0424 12:21:41.714504 15978 net.cpp:122] Setting up conv2_2_ex/scale
I0424 12:21:41.714512 15978 net.cpp:129] Top shape: 128 128 28 24 (11010048)
I0424 12:21:41.714514 15978 net.cpp:137] Memory required for data: 2328627200
I0424 12:21:41.714521 15978 layer_factory.hpp:77] Creating layer relu2_2_ex
I0424 12:21:41.714526 15978 net.cpp:84] Creating Layer relu2_2_ex
I0424 12:21:41.714529 15978 net.cpp:406] relu2_2_ex <- conv2_2_ex
I0424 12:21:41.714534 15978 net.cpp:367] relu2_2_ex -> conv2_2_ex (in-place)
I0424 12:21:41.714682 15978 net.cpp:122] Setting up relu2_2_ex
I0424 12:21:41.714691 15978 net.cpp:129] Top shape: 128 128 28 24 (11010048)
I0424 12:21:41.714694 15978 net.cpp:137] Memory required for data: 2372667392
I0424 12:21:41.714704 15978 layer_factory.hpp:77] Creating layer conv2_2_dw
I0424 12:21:41.714713 15978 net.cpp:84] Creating Layer conv2_2_dw
I0424 12:21:41.714717 15978 net.cpp:406] conv2_2_dw <- conv2_2_ex
I0424 12:21:41.714722 15978 net.cpp:380] conv2_2_dw -> conv2_2_dw
I0424 12:21:41.714982 15978 net.cpp:122] Setting up conv2_2_dw
I0424 12:21:41.714990 15978 net.cpp:129] Top shape: 128 128 28 24 (11010048)
I0424 12:21:41.714993 15978 net.cpp:137] Memory required for data: 2416707584
I0424 12:21:41.714998 15978 layer_factory.hpp:77] Creating layer conv2_2_dw/bn
I0424 12:21:41.715005 15978 net.cpp:84] Creating Layer conv2_2_dw/bn
I0424 12:21:41.715009 15978 net.cpp:406] conv2_2_dw/bn <- conv2_2_dw
I0424 12:21:41.715014 15978 net.cpp:367] conv2_2_dw/bn -> conv2_2_dw (in-place)
I0424 12:21:41.715209 15978 net.cpp:122] Setting up conv2_2_dw/bn
I0424 12:21:41.715215 15978 net.cpp:129] Top shape: 128 128 28 24 (11010048)
I0424 12:21:41.715239 15978 net.cpp:137] Memory required for data: 2460747776
I0424 12:21:41.715246 15978 layer_factory.hpp:77] Creating layer conv2_2_dw/scale
I0424 12:21:41.715253 15978 net.cpp:84] Creating Layer conv2_2_dw/scale
I0424 12:21:41.715256 15978 net.cpp:406] conv2_2_dw/scale <- conv2_2_dw
I0424 12:21:41.715263 15978 net.cpp:367] conv2_2_dw/scale -> conv2_2_dw (in-place)
I0424 12:21:41.715304 15978 layer_factory.hpp:77] Creating layer conv2_2_dw/scale
I0424 12:21:41.715418 15978 net.cpp:122] Setting up conv2_2_dw/scale
I0424 12:21:41.715426 15978 net.cpp:129] Top shape: 128 128 28 24 (11010048)
I0424 12:21:41.715430 15978 net.cpp:137] Memory required for data: 2504787968
I0424 12:21:41.715435 15978 layer_factory.hpp:77] Creating layer relu2_2_dw
I0424 12:21:41.715441 15978 net.cpp:84] Creating Layer relu2_2_dw
I0424 12:21:41.715445 15978 net.cpp:406] relu2_2_dw <- conv2_2_dw
I0424 12:21:41.715450 15978 net.cpp:367] relu2_2_dw -> conv2_2_dw (in-place)
I0424 12:21:41.716502 15978 net.cpp:122] Setting up relu2_2_dw
I0424 12:21:41.716518 15978 net.cpp:129] Top shape: 128 128 28 24 (11010048)
I0424 12:21:41.716523 15978 net.cpp:137] Memory required for data: 2548828160
I0424 12:21:41.716529 15978 layer_factory.hpp:77] Creating layer conv2_2_em
I0424 12:21:41.716539 15978 net.cpp:84] Creating Layer conv2_2_em
I0424 12:21:41.716544 15978 net.cpp:406] conv2_2_em <- conv2_2_dw
I0424 12:21:41.716550 15978 net.cpp:380] conv2_2_em -> conv2_2_em
I0424 12:21:41.719215 15978 net.cpp:122] Setting up conv2_2_em
I0424 12:21:41.719233 15978 net.cpp:129] Top shape: 128 64 28 24 (5505024)
I0424 12:21:41.719238 15978 net.cpp:137] Memory required for data: 2570848256
I0424 12:21:41.719243 15978 layer_factory.hpp:77] Creating layer conv2_2_em/bn
I0424 12:21:41.719252 15978 net.cpp:84] Creating Layer conv2_2_em/bn
I0424 12:21:41.719257 15978 net.cpp:406] conv2_2_em/bn <- conv2_2_em
I0424 12:21:41.719264 15978 net.cpp:367] conv2_2_em/bn -> conv2_2_em (in-place)
I0424 12:21:41.719496 15978 net.cpp:122] Setting up conv2_2_em/bn
I0424 12:21:41.719504 15978 net.cpp:129] Top shape: 128 64 28 24 (5505024)
I0424 12:21:41.719507 15978 net.cpp:137] Memory required for data: 2592868352
I0424 12:21:41.719513 15978 layer_factory.hpp:77] Creating layer conv2_2_em/scale
I0424 12:21:41.719521 15978 net.cpp:84] Creating Layer conv2_2_em/scale
I0424 12:21:41.719527 15978 net.cpp:406] conv2_2_em/scale <- conv2_2_em
I0424 12:21:41.719532 15978 net.cpp:367] conv2_2_em/scale -> conv2_2_em (in-place)
I0424 12:21:41.719573 15978 layer_factory.hpp:77] Creating layer conv2_2_em/scale
I0424 12:21:41.719704 15978 net.cpp:122] Setting up conv2_2_em/scale
I0424 12:21:41.719713 15978 net.cpp:129] Top shape: 128 64 28 24 (5505024)
I0424 12:21:41.719717 15978 net.cpp:137] Memory required for data: 2614888448
I0424 12:21:41.719722 15978 layer_factory.hpp:77] Creating layer res2_2
I0424 12:21:41.719730 15978 net.cpp:84] Creating Layer res2_2
I0424 12:21:41.719735 15978 net.cpp:406] res2_2 <- res2_1_res2_1_0_split_1
I0424 12:21:41.719739 15978 net.cpp:406] res2_2 <- conv2_2_em
I0424 12:21:41.719743 15978 net.cpp:380] res2_2 -> res2_2
I0424 12:21:41.719774 15978 net.cpp:122] Setting up res2_2
I0424 12:21:41.719781 15978 net.cpp:129] Top shape: 128 64 28 24 (5505024)
I0424 12:21:41.719784 15978 net.cpp:137] Memory required for data: 2636908544
I0424 12:21:41.719786 15978 layer_factory.hpp:77] Creating layer res2_2_res2_2_0_split
I0424 12:21:41.719791 15978 net.cpp:84] Creating Layer res2_2_res2_2_0_split
I0424 12:21:41.719795 15978 net.cpp:406] res2_2_res2_2_0_split <- res2_2
I0424 12:21:41.719799 15978 net.cpp:380] res2_2_res2_2_0_split -> res2_2_res2_2_0_split_0
I0424 12:21:41.719805 15978 net.cpp:380] res2_2_res2_2_0_split -> res2_2_res2_2_0_split_1
I0424 12:21:41.719848 15978 net.cpp:122] Setting up res2_2_res2_2_0_split
I0424 12:21:41.719856 15978 net.cpp:129] Top shape: 128 64 28 24 (5505024)
I0424 12:21:41.719859 15978 net.cpp:129] Top shape: 128 64 28 24 (5505024)
I0424 12:21:41.719862 15978 net.cpp:137] Memory required for data: 2680948736
I0424 12:21:41.719884 15978 layer_factory.hpp:77] Creating layer conv2_3_ex
I0424 12:21:41.719897 15978 net.cpp:84] Creating Layer conv2_3_ex
I0424 12:21:41.719902 15978 net.cpp:406] conv2_3_ex <- res2_2_res2_2_0_split_0
I0424 12:21:41.719908 15978 net.cpp:380] conv2_3_ex -> conv2_3_ex
I0424 12:21:41.722462 15978 net.cpp:122] Setting up conv2_3_ex
I0424 12:21:41.722481 15978 net.cpp:129] Top shape: 128 128 28 24 (11010048)
I0424 12:21:41.722486 15978 net.cpp:137] Memory required for data: 2724988928
I0424 12:21:41.722492 15978 layer_factory.hpp:77] Creating layer conv2_3_ex/bn
I0424 12:21:41.722498 15978 net.cpp:84] Creating Layer conv2_3_ex/bn
I0424 12:21:41.722503 15978 net.cpp:406] conv2_3_ex/bn <- conv2_3_ex
I0424 12:21:41.722510 15978 net.cpp:367] conv2_3_ex/bn -> conv2_3_ex (in-place)
I0424 12:21:41.722734 15978 net.cpp:122] Setting up conv2_3_ex/bn
I0424 12:21:41.722743 15978 net.cpp:129] Top shape: 128 128 28 24 (11010048)
I0424 12:21:41.722748 15978 net.cpp:137] Memory required for data: 2769029120
I0424 12:21:41.722754 15978 layer_factory.hpp:77] Creating layer conv2_3_ex/scale
I0424 12:21:41.722762 15978 net.cpp:84] Creating Layer conv2_3_ex/scale
I0424 12:21:41.722765 15978 net.cpp:406] conv2_3_ex/scale <- conv2_3_ex
I0424 12:21:41.722770 15978 net.cpp:367] conv2_3_ex/scale -> conv2_3_ex (in-place)
I0424 12:21:41.722811 15978 layer_factory.hpp:77] Creating layer conv2_3_ex/scale
I0424 12:21:41.722935 15978 net.cpp:122] Setting up conv2_3_ex/scale
I0424 12:21:41.722944 15978 net.cpp:129] Top shape: 128 128 28 24 (11010048)
I0424 12:21:41.722947 15978 net.cpp:137] Memory required for data: 2813069312
I0424 12:21:41.722952 15978 layer_factory.hpp:77] Creating layer relu2_3_ex
I0424 12:21:41.722959 15978 net.cpp:84] Creating Layer relu2_3_ex
I0424 12:21:41.722961 15978 net.cpp:406] relu2_3_ex <- conv2_3_ex
I0424 12:21:41.722967 15978 net.cpp:367] relu2_3_ex -> conv2_3_ex (in-place)
I0424 12:21:41.723120 15978 net.cpp:122] Setting up relu2_3_ex
I0424 12:21:41.723129 15978 net.cpp:129] Top shape: 128 128 28 24 (11010048)
I0424 12:21:41.723132 15978 net.cpp:137] Memory required for data: 2857109504
I0424 12:21:41.723137 15978 layer_factory.hpp:77] Creating layer conv2_3_dw
I0424 12:21:41.723146 15978 net.cpp:84] Creating Layer conv2_3_dw
I0424 12:21:41.723151 15978 net.cpp:406] conv2_3_dw <- conv2_3_ex
I0424 12:21:41.723156 15978 net.cpp:380] conv2_3_dw -> conv2_3_dw
I0424 12:21:41.723429 15978 net.cpp:122] Setting up conv2_3_dw
I0424 12:21:41.723438 15978 net.cpp:129] Top shape: 128 128 28 24 (11010048)
I0424 12:21:41.723441 15978 net.cpp:137] Memory required for data: 2901149696
I0424 12:21:41.723446 15978 layer_factory.hpp:77] Creating layer conv2_3_dw/bn
I0424 12:21:41.723454 15978 net.cpp:84] Creating Layer conv2_3_dw/bn
I0424 12:21:41.723459 15978 net.cpp:406] conv2_3_dw/bn <- conv2_3_dw
I0424 12:21:41.723464 15978 net.cpp:367] conv2_3_dw/bn -> conv2_3_dw (in-place)
I0424 12:21:41.723673 15978 net.cpp:122] Setting up conv2_3_dw/bn
I0424 12:21:41.723681 15978 net.cpp:129] Top shape: 128 128 28 24 (11010048)
I0424 12:21:41.723683 15978 net.cpp:137] Memory required for data: 2945189888
I0424 12:21:41.723690 15978 layer_factory.hpp:77] Creating layer conv2_3_dw/scale
I0424 12:21:41.723697 15978 net.cpp:84] Creating Layer conv2_3_dw/scale
I0424 12:21:41.723702 15978 net.cpp:406] conv2_3_dw/scale <- conv2_3_dw
I0424 12:21:41.723706 15978 net.cpp:367] conv2_3_dw/scale -> conv2_3_dw (in-place)
I0424 12:21:41.723745 15978 layer_factory.hpp:77] Creating layer conv2_3_dw/scale
I0424 12:21:41.723867 15978 net.cpp:122] Setting up conv2_3_dw/scale
I0424 12:21:41.723876 15978 net.cpp:129] Top shape: 128 128 28 24 (11010048)
I0424 12:21:41.723878 15978 net.cpp:137] Memory required for data: 2989230080
I0424 12:21:41.723883 15978 layer_factory.hpp:77] Creating layer relu2_3_dw
I0424 12:21:41.723889 15978 net.cpp:84] Creating Layer relu2_3_dw
I0424 12:21:41.723894 15978 net.cpp:406] relu2_3_dw <- conv2_3_dw
I0424 12:21:41.723901 15978 net.cpp:367] relu2_3_dw -> conv2_3_dw (in-place)
I0424 12:21:41.724047 15978 net.cpp:122] Setting up relu2_3_dw
I0424 12:21:41.724074 15978 net.cpp:129] Top shape: 128 128 28 24 (11010048)
I0424 12:21:41.724079 15978 net.cpp:137] Memory required for data: 3033270272
I0424 12:21:41.724084 15978 layer_factory.hpp:77] Creating layer conv2_3_em
I0424 12:21:41.724093 15978 net.cpp:84] Creating Layer conv2_3_em
I0424 12:21:41.724097 15978 net.cpp:406] conv2_3_em <- conv2_3_dw
I0424 12:21:41.724103 15978 net.cpp:380] conv2_3_em -> conv2_3_em
I0424 12:21:41.726687 15978 net.cpp:122] Setting up conv2_3_em
I0424 12:21:41.726704 15978 net.cpp:129] Top shape: 128 64 28 24 (5505024)
I0424 12:21:41.726708 15978 net.cpp:137] Memory required for data: 3055290368
I0424 12:21:41.726714 15978 layer_factory.hpp:77] Creating layer conv2_3_em/bn
I0424 12:21:41.726722 15978 net.cpp:84] Creating Layer conv2_3_em/bn
I0424 12:21:41.726727 15978 net.cpp:406] conv2_3_em/bn <- conv2_3_em
I0424 12:21:41.726732 15978 net.cpp:367] conv2_3_em/bn -> conv2_3_em (in-place)
I0424 12:21:41.726970 15978 net.cpp:122] Setting up conv2_3_em/bn
I0424 12:21:41.726979 15978 net.cpp:129] Top shape: 128 64 28 24 (5505024)
I0424 12:21:41.726981 15978 net.cpp:137] Memory required for data: 3077310464
I0424 12:21:41.726989 15978 layer_factory.hpp:77] Creating layer conv2_3_em/scale
I0424 12:21:41.726996 15978 net.cpp:84] Creating Layer conv2_3_em/scale
I0424 12:21:41.726999 15978 net.cpp:406] conv2_3_em/scale <- conv2_3_em
I0424 12:21:41.727006 15978 net.cpp:367] conv2_3_em/scale -> conv2_3_em (in-place)
I0424 12:21:41.727051 15978 layer_factory.hpp:77] Creating layer conv2_3_em/scale
I0424 12:21:41.727190 15978 net.cpp:122] Setting up conv2_3_em/scale
I0424 12:21:41.727198 15978 net.cpp:129] Top shape: 128 64 28 24 (5505024)
I0424 12:21:41.727200 15978 net.cpp:137] Memory required for data: 3099330560
I0424 12:21:41.727205 15978 layer_factory.hpp:77] Creating layer res2_3
I0424 12:21:41.727212 15978 net.cpp:84] Creating Layer res2_3
I0424 12:21:41.727216 15978 net.cpp:406] res2_3 <- res2_2_res2_2_0_split_1
I0424 12:21:41.727221 15978 net.cpp:406] res2_3 <- conv2_3_em
I0424 12:21:41.727227 15978 net.cpp:380] res2_3 -> res2_3
I0424 12:21:41.727259 15978 net.cpp:122] Setting up res2_3
I0424 12:21:41.727267 15978 net.cpp:129] Top shape: 128 64 28 24 (5505024)
I0424 12:21:41.727268 15978 net.cpp:137] Memory required for data: 3121350656
I0424 12:21:41.727272 15978 layer_factory.hpp:77] Creating layer res2_3_res2_3_0_split
I0424 12:21:41.727277 15978 net.cpp:84] Creating Layer res2_3_res2_3_0_split
I0424 12:21:41.727279 15978 net.cpp:406] res2_3_res2_3_0_split <- res2_3
I0424 12:21:41.727285 15978 net.cpp:380] res2_3_res2_3_0_split -> res2_3_res2_3_0_split_0
I0424 12:21:41.727291 15978 net.cpp:380] res2_3_res2_3_0_split -> res2_3_res2_3_0_split_1
I0424 12:21:41.727334 15978 net.cpp:122] Setting up res2_3_res2_3_0_split
I0424 12:21:41.727341 15978 net.cpp:129] Top shape: 128 64 28 24 (5505024)
I0424 12:21:41.727344 15978 net.cpp:129] Top shape: 128 64 28 24 (5505024)
I0424 12:21:41.727347 15978 net.cpp:137] Memory required for data: 3165390848
I0424 12:21:41.727350 15978 layer_factory.hpp:77] Creating layer conv2_4_ex
I0424 12:21:41.727360 15978 net.cpp:84] Creating Layer conv2_4_ex
I0424 12:21:41.727363 15978 net.cpp:406] conv2_4_ex <- res2_3_res2_3_0_split_0
I0424 12:21:41.727370 15978 net.cpp:380] conv2_4_ex -> conv2_4_ex
I0424 12:21:41.730334 15978 net.cpp:122] Setting up conv2_4_ex
I0424 12:21:41.730351 15978 net.cpp:129] Top shape: 128 128 28 24 (11010048)
I0424 12:21:41.730355 15978 net.cpp:137] Memory required for data: 3209431040
I0424 12:21:41.730361 15978 layer_factory.hpp:77] Creating layer conv2_4_ex/bn
I0424 12:21:41.730370 15978 net.cpp:84] Creating Layer conv2_4_ex/bn
I0424 12:21:41.730376 15978 net.cpp:406] conv2_4_ex/bn <- conv2_4_ex
I0424 12:21:41.730381 15978 net.cpp:367] conv2_4_ex/bn -> conv2_4_ex (in-place)
I0424 12:21:41.730608 15978 net.cpp:122] Setting up conv2_4_ex/bn
I0424 12:21:41.730618 15978 net.cpp:129] Top shape: 128 128 28 24 (11010048)
I0424 12:21:41.730620 15978 net.cpp:137] Memory required for data: 3253471232
I0424 12:21:41.730651 15978 layer_factory.hpp:77] Creating layer conv2_4_ex/scale
I0424 12:21:41.730660 15978 net.cpp:84] Creating Layer conv2_4_ex/scale
I0424 12:21:41.730666 15978 net.cpp:406] conv2_4_ex/scale <- conv2_4_ex
I0424 12:21:41.730672 15978 net.cpp:367] conv2_4_ex/scale -> conv2_4_ex (in-place)
I0424 12:21:41.730718 15978 layer_factory.hpp:77] Creating layer conv2_4_ex/scale
I0424 12:21:41.730844 15978 net.cpp:122] Setting up conv2_4_ex/scale
I0424 12:21:41.730852 15978 net.cpp:129] Top shape: 128 128 28 24 (11010048)
I0424 12:21:41.730855 15978 net.cpp:137] Memory required for data: 3297511424
I0424 12:21:41.730860 15978 layer_factory.hpp:77] Creating layer relu2_4_ex
I0424 12:21:41.730875 15978 net.cpp:84] Creating Layer relu2_4_ex
I0424 12:21:41.730880 15978 net.cpp:406] relu2_4_ex <- conv2_4_ex
I0424 12:21:41.730885 15978 net.cpp:367] relu2_4_ex -> conv2_4_ex (in-place)
I0424 12:21:41.731040 15978 net.cpp:122] Setting up relu2_4_ex
I0424 12:21:41.731050 15978 net.cpp:129] Top shape: 128 128 28 24 (11010048)
I0424 12:21:41.731053 15978 net.cpp:137] Memory required for data: 3341551616
I0424 12:21:41.731058 15978 layer_factory.hpp:77] Creating layer conv2_4_dw
I0424 12:21:41.731066 15978 net.cpp:84] Creating Layer conv2_4_dw
I0424 12:21:41.731071 15978 net.cpp:406] conv2_4_dw <- conv2_4_ex
I0424 12:21:41.731076 15978 net.cpp:380] conv2_4_dw -> conv2_4_dw
I0424 12:21:41.731360 15978 net.cpp:122] Setting up conv2_4_dw
I0424 12:21:41.731369 15978 net.cpp:129] Top shape: 128 128 28 24 (11010048)
I0424 12:21:41.731372 15978 net.cpp:137] Memory required for data: 3385591808
I0424 12:21:41.731379 15978 layer_factory.hpp:77] Creating layer conv2_4_dw/bn
I0424 12:21:41.731386 15978 net.cpp:84] Creating Layer conv2_4_dw/bn
I0424 12:21:41.731390 15978 net.cpp:406] conv2_4_dw/bn <- conv2_4_dw
I0424 12:21:41.731395 15978 net.cpp:367] conv2_4_dw/bn -> conv2_4_dw (in-place)
I0424 12:21:41.731606 15978 net.cpp:122] Setting up conv2_4_dw/bn
I0424 12:21:41.731614 15978 net.cpp:129] Top shape: 128 128 28 24 (11010048)
I0424 12:21:41.731616 15978 net.cpp:137] Memory required for data: 3429632000
I0424 12:21:41.731622 15978 layer_factory.hpp:77] Creating layer conv2_4_dw/scale
I0424 12:21:41.731631 15978 net.cpp:84] Creating Layer conv2_4_dw/scale
I0424 12:21:41.731633 15978 net.cpp:406] conv2_4_dw/scale <- conv2_4_dw
I0424 12:21:41.731637 15978 net.cpp:367] conv2_4_dw/scale -> conv2_4_dw (in-place)
I0424 12:21:41.731678 15978 layer_factory.hpp:77] Creating layer conv2_4_dw/scale
I0424 12:21:41.731803 15978 net.cpp:122] Setting up conv2_4_dw/scale
I0424 12:21:41.731811 15978 net.cpp:129] Top shape: 128 128 28 24 (11010048)
I0424 12:21:41.731813 15978 net.cpp:137] Memory required for data: 3473672192
I0424 12:21:41.731818 15978 layer_factory.hpp:77] Creating layer relu2_4_dw
I0424 12:21:41.731824 15978 net.cpp:84] Creating Layer relu2_4_dw
I0424 12:21:41.731827 15978 net.cpp:406] relu2_4_dw <- conv2_4_dw
I0424 12:21:41.731833 15978 net.cpp:367] relu2_4_dw -> conv2_4_dw (in-place)
I0424 12:21:41.731984 15978 net.cpp:122] Setting up relu2_4_dw
I0424 12:21:41.731993 15978 net.cpp:129] Top shape: 128 128 28 24 (11010048)
I0424 12:21:41.731997 15978 net.cpp:137] Memory required for data: 3517712384
I0424 12:21:41.732000 15978 layer_factory.hpp:77] Creating layer conv2_4_em
I0424 12:21:41.732008 15978 net.cpp:84] Creating Layer conv2_4_em
I0424 12:21:41.732013 15978 net.cpp:406] conv2_4_em <- conv2_4_dw
I0424 12:21:41.732019 15978 net.cpp:380] conv2_4_em -> conv2_4_em
I0424 12:21:41.734622 15978 net.cpp:122] Setting up conv2_4_em
I0424 12:21:41.734638 15978 net.cpp:129] Top shape: 128 64 28 24 (5505024)
I0424 12:21:41.734643 15978 net.cpp:137] Memory required for data: 3539732480
I0424 12:21:41.734649 15978 layer_factory.hpp:77] Creating layer conv2_4_em/bn
I0424 12:21:41.734660 15978 net.cpp:84] Creating Layer conv2_4_em/bn
I0424 12:21:41.734665 15978 net.cpp:406] conv2_4_em/bn <- conv2_4_em
I0424 12:21:41.734673 15978 net.cpp:367] conv2_4_em/bn -> conv2_4_em (in-place)
I0424 12:21:41.734906 15978 net.cpp:122] Setting up conv2_4_em/bn
I0424 12:21:41.734933 15978 net.cpp:129] Top shape: 128 64 28 24 (5505024)
I0424 12:21:41.734938 15978 net.cpp:137] Memory required for data: 3561752576
I0424 12:21:41.734946 15978 layer_factory.hpp:77] Creating layer conv2_4_em/scale
I0424 12:21:41.734956 15978 net.cpp:84] Creating Layer conv2_4_em/scale
I0424 12:21:41.734959 15978 net.cpp:406] conv2_4_em/scale <- conv2_4_em
I0424 12:21:41.734964 15978 net.cpp:367] conv2_4_em/scale -> conv2_4_em (in-place)
I0424 12:21:41.735013 15978 layer_factory.hpp:77] Creating layer conv2_4_em/scale
I0424 12:21:41.735148 15978 net.cpp:122] Setting up conv2_4_em/scale
I0424 12:21:41.735157 15978 net.cpp:129] Top shape: 128 64 28 24 (5505024)
I0424 12:21:41.735159 15978 net.cpp:137] Memory required for data: 3583772672
I0424 12:21:41.735165 15978 layer_factory.hpp:77] Creating layer res2_4
I0424 12:21:41.735173 15978 net.cpp:84] Creating Layer res2_4
I0424 12:21:41.735178 15978 net.cpp:406] res2_4 <- res2_3_res2_3_0_split_1
I0424 12:21:41.735183 15978 net.cpp:406] res2_4 <- conv2_4_em
I0424 12:21:41.735188 15978 net.cpp:380] res2_4 -> res2_4
I0424 12:21:41.735218 15978 net.cpp:122] Setting up res2_4
I0424 12:21:41.735225 15978 net.cpp:129] Top shape: 128 64 28 24 (5505024)
I0424 12:21:41.735227 15978 net.cpp:137] Memory required for data: 3605792768
I0424 12:21:41.735231 15978 layer_factory.hpp:77] Creating layer conv3_ex
I0424 12:21:41.735239 15978 net.cpp:84] Creating Layer conv3_ex
I0424 12:21:41.735244 15978 net.cpp:406] conv3_ex <- res2_4
I0424 12:21:41.735249 15978 net.cpp:380] conv3_ex -> conv3_ex
I0424 12:21:41.738271 15978 net.cpp:122] Setting up conv3_ex
I0424 12:21:41.738288 15978 net.cpp:129] Top shape: 128 256 28 24 (22020096)
I0424 12:21:41.738292 15978 net.cpp:137] Memory required for data: 3693873152
I0424 12:21:41.738298 15978 layer_factory.hpp:77] Creating layer conv3_ex/bn
I0424 12:21:41.738308 15978 net.cpp:84] Creating Layer conv3_ex/bn
I0424 12:21:41.738313 15978 net.cpp:406] conv3_ex/bn <- conv3_ex
I0424 12:21:41.738318 15978 net.cpp:367] conv3_ex/bn -> conv3_ex (in-place)
I0424 12:21:41.738548 15978 net.cpp:122] Setting up conv3_ex/bn
I0424 12:21:41.738559 15978 net.cpp:129] Top shape: 128 256 28 24 (22020096)
I0424 12:21:41.738561 15978 net.cpp:137] Memory required for data: 3781953536
I0424 12:21:41.738567 15978 layer_factory.hpp:77] Creating layer conv3_ex/scale
I0424 12:21:41.738574 15978 net.cpp:84] Creating Layer conv3_ex/scale
I0424 12:21:41.738579 15978 net.cpp:406] conv3_ex/scale <- conv3_ex
I0424 12:21:41.738584 15978 net.cpp:367] conv3_ex/scale -> conv3_ex (in-place)
I0424 12:21:41.738626 15978 layer_factory.hpp:77] Creating layer conv3_ex/scale
I0424 12:21:41.738754 15978 net.cpp:122] Setting up conv3_ex/scale
I0424 12:21:41.738764 15978 net.cpp:129] Top shape: 128 256 28 24 (22020096)
I0424 12:21:41.738766 15978 net.cpp:137] Memory required for data: 3870033920
I0424 12:21:41.738771 15978 layer_factory.hpp:77] Creating layer relu3_ex
I0424 12:21:41.738778 15978 net.cpp:84] Creating Layer relu3_ex
I0424 12:21:41.738783 15978 net.cpp:406] relu3_ex <- conv3_ex
I0424 12:21:41.738787 15978 net.cpp:367] relu3_ex -> conv3_ex (in-place)
I0424 12:21:41.739900 15978 net.cpp:122] Setting up relu3_ex
I0424 12:21:41.739915 15978 net.cpp:129] Top shape: 128 256 28 24 (22020096)
I0424 12:21:41.739920 15978 net.cpp:137] Memory required for data: 3958114304
I0424 12:21:41.739926 15978 layer_factory.hpp:77] Creating layer conv3_dw
I0424 12:21:41.739933 15978 net.cpp:84] Creating Layer conv3_dw
I0424 12:21:41.739938 15978 net.cpp:406] conv3_dw <- conv3_ex
I0424 12:21:41.739946 15978 net.cpp:380] conv3_dw -> conv3_dw
I0424 12:21:41.740238 15978 net.cpp:122] Setting up conv3_dw
I0424 12:21:41.740247 15978 net.cpp:129] Top shape: 128 256 14 12 (5505024)
I0424 12:21:41.740250 15978 net.cpp:137] Memory required for data: 3980134400
I0424 12:21:41.740270 15978 layer_factory.hpp:77] Creating layer conv3_dw/bn
I0424 12:21:41.740278 15978 net.cpp:84] Creating Layer conv3_dw/bn
I0424 12:21:41.740283 15978 net.cpp:406] conv3_dw/bn <- conv3_dw
I0424 12:21:41.740288 15978 net.cpp:367] conv3_dw/bn -> conv3_dw (in-place)
I0424 12:21:41.740527 15978 net.cpp:122] Setting up conv3_dw/bn
I0424 12:21:41.740537 15978 net.cpp:129] Top shape: 128 256 14 12 (5505024)
I0424 12:21:41.740541 15978 net.cpp:137] Memory required for data: 4002154496
I0424 12:21:41.740548 15978 layer_factory.hpp:77] Creating layer conv3_dw/scale
I0424 12:21:41.740556 15978 net.cpp:84] Creating Layer conv3_dw/scale
I0424 12:21:41.740558 15978 net.cpp:406] conv3_dw/scale <- conv3_dw
I0424 12:21:41.740563 15978 net.cpp:367] conv3_dw/scale -> conv3_dw (in-place)
I0424 12:21:41.740607 15978 layer_factory.hpp:77] Creating layer conv3_dw/scale
I0424 12:21:41.740736 15978 net.cpp:122] Setting up conv3_dw/scale
I0424 12:21:41.740743 15978 net.cpp:129] Top shape: 128 256 14 12 (5505024)
I0424 12:21:41.740746 15978 net.cpp:137] Memory required for data: 4024174592
I0424 12:21:41.740751 15978 layer_factory.hpp:77] Creating layer relu3_dw
I0424 12:21:41.740758 15978 net.cpp:84] Creating Layer relu3_dw
I0424 12:21:41.740763 15978 net.cpp:406] relu3_dw <- conv3_dw
I0424 12:21:41.740767 15978 net.cpp:367] relu3_dw -> conv3_dw (in-place)
I0424 12:21:41.741791 15978 net.cpp:122] Setting up relu3_dw
I0424 12:21:41.741806 15978 net.cpp:129] Top shape: 128 256 14 12 (5505024)
I0424 12:21:41.741811 15978 net.cpp:137] Memory required for data: 4046194688
I0424 12:21:41.741816 15978 layer_factory.hpp:77] Creating layer conv3_em
I0424 12:21:41.741824 15978 net.cpp:84] Creating Layer conv3_em
I0424 12:21:41.741829 15978 net.cpp:406] conv3_em <- conv3_dw
I0424 12:21:41.741837 15978 net.cpp:380] conv3_em -> conv3_em
I0424 12:21:41.745157 15978 net.cpp:122] Setting up conv3_em
I0424 12:21:41.745174 15978 net.cpp:129] Top shape: 128 128 14 12 (2752512)
I0424 12:21:41.745179 15978 net.cpp:137] Memory required for data: 4057204736
I0424 12:21:41.745185 15978 layer_factory.hpp:77] Creating layer conv3_em/bn
I0424 12:21:41.745193 15978 net.cpp:84] Creating Layer conv3_em/bn
I0424 12:21:41.745198 15978 net.cpp:406] conv3_em/bn <- conv3_em
I0424 12:21:41.745205 15978 net.cpp:367] conv3_em/bn -> conv3_em (in-place)
I0424 12:21:41.745440 15978 net.cpp:122] Setting up conv3_em/bn
I0424 12:21:41.745450 15978 net.cpp:129] Top shape: 128 128 14 12 (2752512)
I0424 12:21:41.745453 15978 net.cpp:137] Memory required for data: 4068214784
I0424 12:21:41.745460 15978 layer_factory.hpp:77] Creating layer conv3_em/scale
I0424 12:21:41.745468 15978 net.cpp:84] Creating Layer conv3_em/scale
I0424 12:21:41.745472 15978 net.cpp:406] conv3_em/scale <- conv3_em
I0424 12:21:41.745477 15978 net.cpp:367] conv3_em/scale -> conv3_em (in-place)
I0424 12:21:41.745522 15978 layer_factory.hpp:77] Creating layer conv3_em/scale
I0424 12:21:41.745649 15978 net.cpp:122] Setting up conv3_em/scale
I0424 12:21:41.745657 15978 net.cpp:129] Top shape: 128 128 14 12 (2752512)
I0424 12:21:41.745661 15978 net.cpp:137] Memory required for data: 4079224832
I0424 12:21:41.745666 15978 layer_factory.hpp:77] Creating layer conv3_em_conv3_em/scale_0_split
I0424 12:21:41.745672 15978 net.cpp:84] Creating Layer conv3_em_conv3_em/scale_0_split
I0424 12:21:41.745676 15978 net.cpp:406] conv3_em_conv3_em/scale_0_split <- conv3_em
I0424 12:21:41.745682 15978 net.cpp:380] conv3_em_conv3_em/scale_0_split -> conv3_em_conv3_em/scale_0_split_0
I0424 12:21:41.745690 15978 net.cpp:380] conv3_em_conv3_em/scale_0_split -> conv3_em_conv3_em/scale_0_split_1
I0424 12:21:41.745738 15978 net.cpp:122] Setting up conv3_em_conv3_em/scale_0_split
I0424 12:21:41.745746 15978 net.cpp:129] Top shape: 128 128 14 12 (2752512)
I0424 12:21:41.745750 15978 net.cpp:129] Top shape: 128 128 14 12 (2752512)
I0424 12:21:41.745755 15978 net.cpp:137] Memory required for data: 4101244928
I0424 12:21:41.745759 15978 layer_factory.hpp:77] Creating layer conv3_1_ex
I0424 12:21:41.745765 15978 net.cpp:84] Creating Layer conv3_1_ex
I0424 12:21:41.745770 15978 net.cpp:406] conv3_1_ex <- conv3_em_conv3_em/scale_0_split_0
I0424 12:21:41.745776 15978 net.cpp:380] conv3_1_ex -> conv3_1_ex
I0424 12:21:41.748510 15978 net.cpp:122] Setting up conv3_1_ex
I0424 12:21:41.748544 15978 net.cpp:129] Top shape: 128 256 14 12 (5505024)
I0424 12:21:41.748549 15978 net.cpp:137] Memory required for data: 4123265024
I0424 12:21:41.748556 15978 layer_factory.hpp:77] Creating layer conv3_1_ex/bn
I0424 12:21:41.748564 15978 net.cpp:84] Creating Layer conv3_1_ex/bn
I0424 12:21:41.748569 15978 net.cpp:406] conv3_1_ex/bn <- conv3_1_ex
I0424 12:21:41.748575 15978 net.cpp:367] conv3_1_ex/bn -> conv3_1_ex (in-place)
I0424 12:21:41.748809 15978 net.cpp:122] Setting up conv3_1_ex/bn
I0424 12:21:41.748818 15978 net.cpp:129] Top shape: 128 256 14 12 (5505024)
I0424 12:21:41.748821 15978 net.cpp:137] Memory required for data: 4145285120
I0424 12:21:41.748827 15978 layer_factory.hpp:77] Creating layer conv3_1_ex/scale
I0424 12:21:41.748836 15978 net.cpp:84] Creating Layer conv3_1_ex/scale
I0424 12:21:41.748838 15978 net.cpp:406] conv3_1_ex/scale <- conv3_1_ex
I0424 12:21:41.748844 15978 net.cpp:367] conv3_1_ex/scale -> conv3_1_ex (in-place)
I0424 12:21:41.748888 15978 layer_factory.hpp:77] Creating layer conv3_1_ex/scale
I0424 12:21:41.749016 15978 net.cpp:122] Setting up conv3_1_ex/scale
I0424 12:21:41.749024 15978 net.cpp:129] Top shape: 128 256 14 12 (5505024)
I0424 12:21:41.749029 15978 net.cpp:137] Memory required for data: 4167305216
I0424 12:21:41.749034 15978 layer_factory.hpp:77] Creating layer relu3_1_ex
I0424 12:21:41.749039 15978 net.cpp:84] Creating Layer relu3_1_ex
I0424 12:21:41.749042 15978 net.cpp:406] relu3_1_ex <- conv3_1_ex
I0424 12:21:41.749047 15978 net.cpp:367] relu3_1_ex -> conv3_1_ex (in-place)
I0424 12:21:41.749176 15978 net.cpp:122] Setting up relu3_1_ex
I0424 12:21:41.749186 15978 net.cpp:129] Top shape: 128 256 14 12 (5505024)
I0424 12:21:41.749188 15978 net.cpp:137] Memory required for data: 4189325312
I0424 12:21:41.749192 15978 layer_factory.hpp:77] Creating layer conv3_1_dw
I0424 12:21:41.749198 15978 net.cpp:84] Creating Layer conv3_1_dw
I0424 12:21:41.749203 15978 net.cpp:406] conv3_1_dw <- conv3_1_ex
I0424 12:21:41.749209 15978 net.cpp:380] conv3_1_dw -> conv3_1_dw
I0424 12:21:41.749507 15978 net.cpp:122] Setting up conv3_1_dw
I0424 12:21:41.749517 15978 net.cpp:129] Top shape: 128 256 14 12 (5505024)
I0424 12:21:41.749521 15978 net.cpp:137] Memory required for data: 4211345408
I0424 12:21:41.749526 15978 layer_factory.hpp:77] Creating layer conv3_1_dw/bn
I0424 12:21:41.749532 15978 net.cpp:84] Creating Layer conv3_1_dw/bn
I0424 12:21:41.749536 15978 net.cpp:406] conv3_1_dw/bn <- conv3_1_dw
I0424 12:21:41.749541 15978 net.cpp:367] conv3_1_dw/bn -> conv3_1_dw (in-place)
I0424 12:21:41.749754 15978 net.cpp:122] Setting up conv3_1_dw/bn
I0424 12:21:41.749763 15978 net.cpp:129] Top shape: 128 256 14 12 (5505024)
I0424 12:21:41.749764 15978 net.cpp:137] Memory required for data: 4233365504
I0424 12:21:41.749771 15978 layer_factory.hpp:77] Creating layer conv3_1_dw/scale
I0424 12:21:41.749778 15978 net.cpp:84] Creating Layer conv3_1_dw/scale
I0424 12:21:41.749781 15978 net.cpp:406] conv3_1_dw/scale <- conv3_1_dw
I0424 12:21:41.749788 15978 net.cpp:367] conv3_1_dw/scale -> conv3_1_dw (in-place)
I0424 12:21:41.749830 15978 layer_factory.hpp:77] Creating layer conv3_1_dw/scale
I0424 12:21:41.749955 15978 net.cpp:122] Setting up conv3_1_dw/scale
I0424 12:21:41.749963 15978 net.cpp:129] Top shape: 128 256 14 12 (5505024)
I0424 12:21:41.749966 15978 net.cpp:137] Memory required for data: 4255385600
I0424 12:21:41.749972 15978 layer_factory.hpp:77] Creating layer relu3_1_dw
I0424 12:21:41.749979 15978 net.cpp:84] Creating Layer relu3_1_dw
I0424 12:21:41.749982 15978 net.cpp:406] relu3_1_dw <- conv3_1_dw
I0424 12:21:41.749986 15978 net.cpp:367] relu3_1_dw -> conv3_1_dw (in-place)
I0424 12:21:41.750113 15978 net.cpp:122] Setting up relu3_1_dw
I0424 12:21:41.750121 15978 net.cpp:129] Top shape: 128 256 14 12 (5505024)
I0424 12:21:41.750123 15978 net.cpp:137] Memory required for data: 4277405696
I0424 12:21:41.750128 15978 layer_factory.hpp:77] Creating layer conv3_1_em
I0424 12:21:41.750136 15978 net.cpp:84] Creating Layer conv3_1_em
I0424 12:21:41.750140 15978 net.cpp:406] conv3_1_em <- conv3_1_dw
I0424 12:21:41.750164 15978 net.cpp:380] conv3_1_em -> conv3_1_em
I0424 12:21:41.752940 15978 net.cpp:122] Setting up conv3_1_em
I0424 12:21:41.752959 15978 net.cpp:129] Top shape: 128 128 14 12 (2752512)
I0424 12:21:41.752962 15978 net.cpp:137] Memory required for data: 4288415744
I0424 12:21:41.752969 15978 layer_factory.hpp:77] Creating layer conv3_1_em/bn
I0424 12:21:41.752974 15978 net.cpp:84] Creating Layer conv3_1_em/bn
I0424 12:21:41.752979 15978 net.cpp:406] conv3_1_em/bn <- conv3_1_em
I0424 12:21:41.752986 15978 net.cpp:367] conv3_1_em/bn -> conv3_1_em (in-place)
I0424 12:21:41.753226 15978 net.cpp:122] Setting up conv3_1_em/bn
I0424 12:21:41.753237 15978 net.cpp:129] Top shape: 128 128 14 12 (2752512)
I0424 12:21:41.753239 15978 net.cpp:137] Memory required for data: 4299425792
I0424 12:21:41.753247 15978 layer_factory.hpp:77] Creating layer conv3_1_em/scale
I0424 12:21:41.753253 15978 net.cpp:84] Creating Layer conv3_1_em/scale
I0424 12:21:41.753257 15978 net.cpp:406] conv3_1_em/scale <- conv3_1_em
I0424 12:21:41.753264 15978 net.cpp:367] conv3_1_em/scale -> conv3_1_em (in-place)
I0424 12:21:41.753309 15978 layer_factory.hpp:77] Creating layer conv3_1_em/scale
I0424 12:21:41.753437 15978 net.cpp:122] Setting up conv3_1_em/scale
I0424 12:21:41.753446 15978 net.cpp:129] Top shape: 128 128 14 12 (2752512)
I0424 12:21:41.753450 15978 net.cpp:137] Memory required for data: 4310435840
I0424 12:21:41.753456 15978 layer_factory.hpp:77] Creating layer res3_1
I0424 12:21:41.753461 15978 net.cpp:84] Creating Layer res3_1
I0424 12:21:41.753464 15978 net.cpp:406] res3_1 <- conv3_em_conv3_em/scale_0_split_1
I0424 12:21:41.753470 15978 net.cpp:406] res3_1 <- conv3_1_em
I0424 12:21:41.753475 15978 net.cpp:380] res3_1 -> res3_1
I0424 12:21:41.753505 15978 net.cpp:122] Setting up res3_1
I0424 12:21:41.753512 15978 net.cpp:129] Top shape: 128 128 14 12 (2752512)
I0424 12:21:41.753515 15978 net.cpp:137] Memory required for data: 4321445888
I0424 12:21:41.753518 15978 layer_factory.hpp:77] Creating layer res3_1_res3_1_0_split
I0424 12:21:41.753525 15978 net.cpp:84] Creating Layer res3_1_res3_1_0_split
I0424 12:21:41.753528 15978 net.cpp:406] res3_1_res3_1_0_split <- res3_1
I0424 12:21:41.753533 15978 net.cpp:380] res3_1_res3_1_0_split -> res3_1_res3_1_0_split_0
I0424 12:21:41.753540 15978 net.cpp:380] res3_1_res3_1_0_split -> res3_1_res3_1_0_split_1
I0424 12:21:41.753583 15978 net.cpp:122] Setting up res3_1_res3_1_0_split
I0424 12:21:41.753590 15978 net.cpp:129] Top shape: 128 128 14 12 (2752512)
I0424 12:21:41.753594 15978 net.cpp:129] Top shape: 128 128 14 12 (2752512)
I0424 12:21:41.753597 15978 net.cpp:137] Memory required for data: 4343465984
I0424 12:21:41.753599 15978 layer_factory.hpp:77] Creating layer conv3_2_ex
I0424 12:21:41.753608 15978 net.cpp:84] Creating Layer conv3_2_ex
I0424 12:21:41.753614 15978 net.cpp:406] conv3_2_ex <- res3_1_res3_1_0_split_0
I0424 12:21:41.753619 15978 net.cpp:380] conv3_2_ex -> conv3_2_ex
I0424 12:21:41.756661 15978 net.cpp:122] Setting up conv3_2_ex
I0424 12:21:41.756678 15978 net.cpp:129] Top shape: 128 256 14 12 (5505024)
I0424 12:21:41.756683 15978 net.cpp:137] Memory required for data: 4365486080
I0424 12:21:41.756690 15978 layer_factory.hpp:77] Creating layer conv3_2_ex/bn
I0424 12:21:41.756695 15978 net.cpp:84] Creating Layer conv3_2_ex/bn
I0424 12:21:41.756700 15978 net.cpp:406] conv3_2_ex/bn <- conv3_2_ex
I0424 12:21:41.756708 15978 net.cpp:367] conv3_2_ex/bn -> conv3_2_ex (in-place)
I0424 12:21:41.756949 15978 net.cpp:122] Setting up conv3_2_ex/bn
I0424 12:21:41.756958 15978 net.cpp:129] Top shape: 128 256 14 12 (5505024)
I0424 12:21:41.756961 15978 net.cpp:137] Memory required for data: 4387506176
I0424 12:21:41.756970 15978 layer_factory.hpp:77] Creating layer conv3_2_ex/scale
I0424 12:21:41.756978 15978 net.cpp:84] Creating Layer conv3_2_ex/scale
I0424 12:21:41.756981 15978 net.cpp:406] conv3_2_ex/scale <- conv3_2_ex
I0424 12:21:41.756985 15978 net.cpp:367] conv3_2_ex/scale -> conv3_2_ex (in-place)
I0424 12:21:41.757031 15978 layer_factory.hpp:77] Creating layer conv3_2_ex/scale
I0424 12:21:41.757185 15978 net.cpp:122] Setting up conv3_2_ex/scale
I0424 12:21:41.757194 15978 net.cpp:129] Top shape: 128 256 14 12 (5505024)
I0424 12:21:41.757197 15978 net.cpp:137] Memory required for data: 4409526272
I0424 12:21:41.757203 15978 layer_factory.hpp:77] Creating layer relu3_2_ex
I0424 12:21:41.757211 15978 net.cpp:84] Creating Layer relu3_2_ex
I0424 12:21:41.757225 15978 net.cpp:406] relu3_2_ex <- conv3_2_ex
I0424 12:21:41.757231 15978 net.cpp:367] relu3_2_ex -> conv3_2_ex (in-place)
I0424 12:21:41.757371 15978 net.cpp:122] Setting up relu3_2_ex
I0424 12:21:41.757380 15978 net.cpp:129] Top shape: 128 256 14 12 (5505024)
I0424 12:21:41.757383 15978 net.cpp:137] Memory required for data: 4431546368
I0424 12:21:41.757387 15978 layer_factory.hpp:77] Creating layer conv3_2_dw
I0424 12:21:41.757395 15978 net.cpp:84] Creating Layer conv3_2_dw
I0424 12:21:41.757400 15978 net.cpp:406] conv3_2_dw <- conv3_2_ex
I0424 12:21:41.757407 15978 net.cpp:380] conv3_2_dw -> conv3_2_dw
I0424 12:21:41.757702 15978 net.cpp:122] Setting up conv3_2_dw
I0424 12:21:41.757712 15978 net.cpp:129] Top shape: 128 256 14 12 (5505024)
I0424 12:21:41.757714 15978 net.cpp:137] Memory required for data: 4453566464
I0424 12:21:41.757719 15978 layer_factory.hpp:77] Creating layer conv3_2_dw/bn
I0424 12:21:41.757726 15978 net.cpp:84] Creating Layer conv3_2_dw/bn
I0424 12:21:41.757731 15978 net.cpp:406] conv3_2_dw/bn <- conv3_2_dw
I0424 12:21:41.757736 15978 net.cpp:367] conv3_2_dw/bn -> conv3_2_dw (in-place)
I0424 12:21:41.757958 15978 net.cpp:122] Setting up conv3_2_dw/bn
I0424 12:21:41.757966 15978 net.cpp:129] Top shape: 128 256 14 12 (5505024)
I0424 12:21:41.757969 15978 net.cpp:137] Memory required for data: 4475586560
I0424 12:21:41.757975 15978 layer_factory.hpp:77] Creating layer conv3_2_dw/scale
I0424 12:21:41.757983 15978 net.cpp:84] Creating Layer conv3_2_dw/scale
I0424 12:21:41.757988 15978 net.cpp:406] conv3_2_dw/scale <- conv3_2_dw
I0424 12:21:41.757993 15978 net.cpp:367] conv3_2_dw/scale -> conv3_2_dw (in-place)
I0424 12:21:41.758036 15978 layer_factory.hpp:77] Creating layer conv3_2_dw/scale
I0424 12:21:41.758164 15978 net.cpp:122] Setting up conv3_2_dw/scale
I0424 12:21:41.758172 15978 net.cpp:129] Top shape: 128 256 14 12 (5505024)
I0424 12:21:41.758175 15978 net.cpp:137] Memory required for data: 4497606656
I0424 12:21:41.758180 15978 layer_factory.hpp:77] Creating layer relu3_2_dw
I0424 12:21:41.758188 15978 net.cpp:84] Creating Layer relu3_2_dw
I0424 12:21:41.758190 15978 net.cpp:406] relu3_2_dw <- conv3_2_dw
I0424 12:21:41.758198 15978 net.cpp:367] relu3_2_dw -> conv3_2_dw (in-place)
I0424 12:21:41.758324 15978 net.cpp:122] Setting up relu3_2_dw
I0424 12:21:41.758332 15978 net.cpp:129] Top shape: 128 256 14 12 (5505024)
I0424 12:21:41.758335 15978 net.cpp:137] Memory required for data: 4519626752
I0424 12:21:41.758340 15978 layer_factory.hpp:77] Creating layer conv3_2_em
I0424 12:21:41.758348 15978 net.cpp:84] Creating Layer conv3_2_em
I0424 12:21:41.758352 15978 net.cpp:406] conv3_2_em <- conv3_2_dw
I0424 12:21:41.758358 15978 net.cpp:380] conv3_2_em -> conv3_2_em
I0424 12:21:41.761096 15978 net.cpp:122] Setting up conv3_2_em
I0424 12:21:41.761113 15978 net.cpp:129] Top shape: 128 128 14 12 (2752512)
I0424 12:21:41.761117 15978 net.cpp:137] Memory required for data: 4530636800
I0424 12:21:41.761123 15978 layer_factory.hpp:77] Creating layer conv3_2_em/bn
I0424 12:21:41.761131 15978 net.cpp:84] Creating Layer conv3_2_em/bn
I0424 12:21:41.761134 15978 net.cpp:406] conv3_2_em/bn <- conv3_2_em
I0424 12:21:41.761142 15978 net.cpp:367] conv3_2_em/bn -> conv3_2_em (in-place)
I0424 12:21:41.761384 15978 net.cpp:122] Setting up conv3_2_em/bn
I0424 12:21:41.761394 15978 net.cpp:129] Top shape: 128 128 14 12 (2752512)
I0424 12:21:41.761397 15978 net.cpp:137] Memory required for data: 4541646848
I0424 12:21:41.761404 15978 layer_factory.hpp:77] Creating layer conv3_2_em/scale
I0424 12:21:41.761411 15978 net.cpp:84] Creating Layer conv3_2_em/scale
I0424 12:21:41.761416 15978 net.cpp:406] conv3_2_em/scale <- conv3_2_em
I0424 12:21:41.761440 15978 net.cpp:367] conv3_2_em/scale -> conv3_2_em (in-place)
I0424 12:21:41.761490 15978 layer_factory.hpp:77] Creating layer conv3_2_em/scale
I0424 12:21:41.761622 15978 net.cpp:122] Setting up conv3_2_em/scale
I0424 12:21:41.761631 15978 net.cpp:129] Top shape: 128 128 14 12 (2752512)
I0424 12:21:41.761634 15978 net.cpp:137] Memory required for data: 4552656896
I0424 12:21:41.761639 15978 layer_factory.hpp:77] Creating layer res3_2
I0424 12:21:41.761652 15978 net.cpp:84] Creating Layer res3_2
I0424 12:21:41.761657 15978 net.cpp:406] res3_2 <- res3_1_res3_1_0_split_1
I0424 12:21:41.761662 15978 net.cpp:406] res3_2 <- conv3_2_em
I0424 12:21:41.761667 15978 net.cpp:380] res3_2 -> res3_2
I0424 12:21:41.761699 15978 net.cpp:122] Setting up res3_2
I0424 12:21:41.761708 15978 net.cpp:129] Top shape: 128 128 14 12 (2752512)
I0424 12:21:41.761710 15978 net.cpp:137] Memory required for data: 4563666944
I0424 12:21:41.761713 15978 layer_factory.hpp:77] Creating layer res3_2_res3_2_0_split
I0424 12:21:41.761718 15978 net.cpp:84] Creating Layer res3_2_res3_2_0_split
I0424 12:21:41.761721 15978 net.cpp:406] res3_2_res3_2_0_split <- res3_2
I0424 12:21:41.761726 15978 net.cpp:380] res3_2_res3_2_0_split -> res3_2_res3_2_0_split_0
I0424 12:21:41.761731 15978 net.cpp:380] res3_2_res3_2_0_split -> res3_2_res3_2_0_split_1
I0424 12:21:41.761773 15978 net.cpp:122] Setting up res3_2_res3_2_0_split
I0424 12:21:41.761780 15978 net.cpp:129] Top shape: 128 128 14 12 (2752512)
I0424 12:21:41.761785 15978 net.cpp:129] Top shape: 128 128 14 12 (2752512)
I0424 12:21:41.761786 15978 net.cpp:137] Memory required for data: 4585687040
I0424 12:21:41.761790 15978 layer_factory.hpp:77] Creating layer conv3_3_ex
I0424 12:21:41.761797 15978 net.cpp:84] Creating Layer conv3_3_ex
I0424 12:21:41.761801 15978 net.cpp:406] conv3_3_ex <- res3_2_res3_2_0_split_0
I0424 12:21:41.761807 15978 net.cpp:380] conv3_3_ex -> conv3_3_ex
I0424 12:21:41.764928 15978 net.cpp:122] Setting up conv3_3_ex
I0424 12:21:41.764945 15978 net.cpp:129] Top shape: 128 256 14 12 (5505024)
I0424 12:21:41.764950 15978 net.cpp:137] Memory required for data: 4607707136
I0424 12:21:41.764955 15978 layer_factory.hpp:77] Creating layer conv3_3_ex/bn
I0424 12:21:41.764962 15978 net.cpp:84] Creating Layer conv3_3_ex/bn
I0424 12:21:41.764967 15978 net.cpp:406] conv3_3_ex/bn <- conv3_3_ex
I0424 12:21:41.764973 15978 net.cpp:367] conv3_3_ex/bn -> conv3_3_ex (in-place)
I0424 12:21:41.765209 15978 net.cpp:122] Setting up conv3_3_ex/bn
I0424 12:21:41.765224 15978 net.cpp:129] Top shape: 128 256 14 12 (5505024)
I0424 12:21:41.765229 15978 net.cpp:137] Memory required for data: 4629727232
I0424 12:21:41.765236 15978 layer_factory.hpp:77] Creating layer conv3_3_ex/scale
I0424 12:21:41.765242 15978 net.cpp:84] Creating Layer conv3_3_ex/scale
I0424 12:21:41.765246 15978 net.cpp:406] conv3_3_ex/scale <- conv3_3_ex
I0424 12:21:41.765252 15978 net.cpp:367] conv3_3_ex/scale -> conv3_3_ex (in-place)
I0424 12:21:41.765300 15978 layer_factory.hpp:77] Creating layer conv3_3_ex/scale
I0424 12:21:41.765432 15978 net.cpp:122] Setting up conv3_3_ex/scale
I0424 12:21:41.765441 15978 net.cpp:129] Top shape: 128 256 14 12 (5505024)
I0424 12:21:41.765444 15978 net.cpp:137] Memory required for data: 4651747328
I0424 12:21:41.765450 15978 layer_factory.hpp:77] Creating layer relu3_3_ex
I0424 12:21:41.765455 15978 net.cpp:84] Creating Layer relu3_3_ex
I0424 12:21:41.765458 15978 net.cpp:406] relu3_3_ex <- conv3_3_ex
I0424 12:21:41.765465 15978 net.cpp:367] relu3_3_ex -> conv3_3_ex (in-place)
I0424 12:21:41.765594 15978 net.cpp:122] Setting up relu3_3_ex
I0424 12:21:41.765604 15978 net.cpp:129] Top shape: 128 256 14 12 (5505024)
I0424 12:21:41.765606 15978 net.cpp:137] Memory required for data: 4673767424
I0424 12:21:41.765611 15978 layer_factory.hpp:77] Creating layer conv3_3_dw
I0424 12:21:41.765621 15978 net.cpp:84] Creating Layer conv3_3_dw
I0424 12:21:41.765625 15978 net.cpp:406] conv3_3_dw <- conv3_3_ex
I0424 12:21:41.765630 15978 net.cpp:380] conv3_3_dw -> conv3_3_dw
I0424 12:21:41.765923 15978 net.cpp:122] Setting up conv3_3_dw
I0424 12:21:41.765949 15978 net.cpp:129] Top shape: 128 256 14 12 (5505024)
I0424 12:21:41.765954 15978 net.cpp:137] Memory required for data: 4695787520
I0424 12:21:41.765960 15978 layer_factory.hpp:77] Creating layer conv3_3_dw/bn
I0424 12:21:41.765969 15978 net.cpp:84] Creating Layer conv3_3_dw/bn
I0424 12:21:41.765974 15978 net.cpp:406] conv3_3_dw/bn <- conv3_3_dw
I0424 12:21:41.765977 15978 net.cpp:367] conv3_3_dw/bn -> conv3_3_dw (in-place)
I0424 12:21:41.766202 15978 net.cpp:122] Setting up conv3_3_dw/bn
I0424 12:21:41.766211 15978 net.cpp:129] Top shape: 128 256 14 12 (5505024)
I0424 12:21:41.766214 15978 net.cpp:137] Memory required for data: 4717807616
I0424 12:21:41.766221 15978 layer_factory.hpp:77] Creating layer conv3_3_dw/scale
I0424 12:21:41.766228 15978 net.cpp:84] Creating Layer conv3_3_dw/scale
I0424 12:21:41.766233 15978 net.cpp:406] conv3_3_dw/scale <- conv3_3_dw
I0424 12:21:41.766237 15978 net.cpp:367] conv3_3_dw/scale -> conv3_3_dw (in-place)
I0424 12:21:41.766280 15978 layer_factory.hpp:77] Creating layer conv3_3_dw/scale
I0424 12:21:41.766410 15978 net.cpp:122] Setting up conv3_3_dw/scale
I0424 12:21:41.766419 15978 net.cpp:129] Top shape: 128 256 14 12 (5505024)
I0424 12:21:41.766422 15978 net.cpp:137] Memory required for data: 4739827712
I0424 12:21:41.766427 15978 layer_factory.hpp:77] Creating layer relu3_3_dw
I0424 12:21:41.766433 15978 net.cpp:84] Creating Layer relu3_3_dw
I0424 12:21:41.766438 15978 net.cpp:406] relu3_3_dw <- conv3_3_dw
I0424 12:21:41.766441 15978 net.cpp:367] relu3_3_dw -> conv3_3_dw (in-place)
I0424 12:21:41.766572 15978 net.cpp:122] Setting up relu3_3_dw
I0424 12:21:41.766580 15978 net.cpp:129] Top shape: 128 256 14 12 (5505024)
I0424 12:21:41.766583 15978 net.cpp:137] Memory required for data: 4761847808
I0424 12:21:41.766587 15978 layer_factory.hpp:77] Creating layer conv3_3_em
I0424 12:21:41.766595 15978 net.cpp:84] Creating Layer conv3_3_em
I0424 12:21:41.766600 15978 net.cpp:406] conv3_3_em <- conv3_3_dw
I0424 12:21:41.766605 15978 net.cpp:380] conv3_3_em -> conv3_3_em
I0424 12:21:41.770259 15978 net.cpp:122] Setting up conv3_3_em
I0424 12:21:41.770277 15978 net.cpp:129] Top shape: 128 128 14 12 (2752512)
I0424 12:21:41.770280 15978 net.cpp:137] Memory required for data: 4772857856
I0424 12:21:41.770287 15978 layer_factory.hpp:77] Creating layer conv3_3_em/bn
I0424 12:21:41.770298 15978 net.cpp:84] Creating Layer conv3_3_em/bn
I0424 12:21:41.770303 15978 net.cpp:406] conv3_3_em/bn <- conv3_3_em
I0424 12:21:41.770308 15978 net.cpp:367] conv3_3_em/bn -> conv3_3_em (in-place)
I0424 12:21:41.770546 15978 net.cpp:122] Setting up conv3_3_em/bn
I0424 12:21:41.770555 15978 net.cpp:129] Top shape: 128 128 14 12 (2752512)
I0424 12:21:41.770557 15978 net.cpp:137] Memory required for data: 4783867904
I0424 12:21:41.770563 15978 layer_factory.hpp:77] Creating layer conv3_3_em/scale
I0424 12:21:41.770572 15978 net.cpp:84] Creating Layer conv3_3_em/scale
I0424 12:21:41.770577 15978 net.cpp:406] conv3_3_em/scale <- conv3_3_em
I0424 12:21:41.770581 15978 net.cpp:367] conv3_3_em/scale -> conv3_3_em (in-place)
I0424 12:21:41.770627 15978 layer_factory.hpp:77] Creating layer conv3_3_em/scale
I0424 12:21:41.770761 15978 net.cpp:122] Setting up conv3_3_em/scale
I0424 12:21:41.770769 15978 net.cpp:129] Top shape: 128 128 14 12 (2752512)
I0424 12:21:41.770772 15978 net.cpp:137] Memory required for data: 4794877952
I0424 12:21:41.770777 15978 layer_factory.hpp:77] Creating layer res3_3
I0424 12:21:41.770784 15978 net.cpp:84] Creating Layer res3_3
I0424 12:21:41.770788 15978 net.cpp:406] res3_3 <- res3_2_res3_2_0_split_1
I0424 12:21:41.770792 15978 net.cpp:406] res3_3 <- conv3_3_em
I0424 12:21:41.770798 15978 net.cpp:380] res3_3 -> res3_3
I0424 12:21:41.770831 15978 net.cpp:122] Setting up res3_3
I0424 12:21:41.770838 15978 net.cpp:129] Top shape: 128 128 14 12 (2752512)
I0424 12:21:41.770840 15978 net.cpp:137] Memory required for data: 4805888000
I0424 12:21:41.770843 15978 layer_factory.hpp:77] Creating layer res3_3_res3_3_0_split
I0424 12:21:41.770849 15978 net.cpp:84] Creating Layer res3_3_res3_3_0_split
I0424 12:21:41.770871 15978 net.cpp:406] res3_3_res3_3_0_split <- res3_3
I0424 12:21:41.770879 15978 net.cpp:380] res3_3_res3_3_0_split -> res3_3_res3_3_0_split_0
I0424 12:21:41.770887 15978 net.cpp:380] res3_3_res3_3_0_split -> res3_3_res3_3_0_split_1
I0424 12:21:41.770936 15978 net.cpp:122] Setting up res3_3_res3_3_0_split
I0424 12:21:41.770944 15978 net.cpp:129] Top shape: 128 128 14 12 (2752512)
I0424 12:21:41.770947 15978 net.cpp:129] Top shape: 128 128 14 12 (2752512)
I0424 12:21:41.770951 15978 net.cpp:137] Memory required for data: 4827908096
I0424 12:21:41.770953 15978 layer_factory.hpp:77] Creating layer conv3_4_ex
I0424 12:21:41.770962 15978 net.cpp:84] Creating Layer conv3_4_ex
I0424 12:21:41.770967 15978 net.cpp:406] conv3_4_ex <- res3_3_res3_3_0_split_0
I0424 12:21:41.770973 15978 net.cpp:380] conv3_4_ex -> conv3_4_ex
I0424 12:21:41.774332 15978 net.cpp:122] Setting up conv3_4_ex
I0424 12:21:41.774348 15978 net.cpp:129] Top shape: 128 256 14 12 (5505024)
I0424 12:21:41.774353 15978 net.cpp:137] Memory required for data: 4849928192
I0424 12:21:41.774358 15978 layer_factory.hpp:77] Creating layer conv3_4_ex/bn
I0424 12:21:41.774365 15978 net.cpp:84] Creating Layer conv3_4_ex/bn
I0424 12:21:41.774369 15978 net.cpp:406] conv3_4_ex/bn <- conv3_4_ex
I0424 12:21:41.774375 15978 net.cpp:367] conv3_4_ex/bn -> conv3_4_ex (in-place)
I0424 12:21:41.774616 15978 net.cpp:122] Setting up conv3_4_ex/bn
I0424 12:21:41.774626 15978 net.cpp:129] Top shape: 128 256 14 12 (5505024)
I0424 12:21:41.774627 15978 net.cpp:137] Memory required for data: 4871948288
I0424 12:21:41.774634 15978 layer_factory.hpp:77] Creating layer conv3_4_ex/scale
I0424 12:21:41.774641 15978 net.cpp:84] Creating Layer conv3_4_ex/scale
I0424 12:21:41.774646 15978 net.cpp:406] conv3_4_ex/scale <- conv3_4_ex
I0424 12:21:41.774653 15978 net.cpp:367] conv3_4_ex/scale -> conv3_4_ex (in-place)
I0424 12:21:41.774699 15978 layer_factory.hpp:77] Creating layer conv3_4_ex/scale
I0424 12:21:41.774833 15978 net.cpp:122] Setting up conv3_4_ex/scale
I0424 12:21:41.774842 15978 net.cpp:129] Top shape: 128 256 14 12 (5505024)
I0424 12:21:41.774845 15978 net.cpp:137] Memory required for data: 4893968384
I0424 12:21:41.774850 15978 layer_factory.hpp:77] Creating layer relu3_4_ex
I0424 12:21:41.774857 15978 net.cpp:84] Creating Layer relu3_4_ex
I0424 12:21:41.774861 15978 net.cpp:406] relu3_4_ex <- conv3_4_ex
I0424 12:21:41.774865 15978 net.cpp:367] relu3_4_ex -> conv3_4_ex (in-place)
I0424 12:21:41.774997 15978 net.cpp:122] Setting up relu3_4_ex
I0424 12:21:41.775007 15978 net.cpp:129] Top shape: 128 256 14 12 (5505024)
I0424 12:21:41.775009 15978 net.cpp:137] Memory required for data: 4915988480
I0424 12:21:41.775013 15978 layer_factory.hpp:77] Creating layer conv3_4_dw
I0424 12:21:41.775034 15978 net.cpp:84] Creating Layer conv3_4_dw
I0424 12:21:41.775039 15978 net.cpp:406] conv3_4_dw <- conv3_4_ex
I0424 12:21:41.775046 15978 net.cpp:380] conv3_4_dw -> conv3_4_dw
I0424 12:21:41.775355 15978 net.cpp:122] Setting up conv3_4_dw
I0424 12:21:41.775364 15978 net.cpp:129] Top shape: 128 256 14 12 (5505024)
I0424 12:21:41.775367 15978 net.cpp:137] Memory required for data: 4938008576
I0424 12:21:41.775373 15978 layer_factory.hpp:77] Creating layer conv3_4_dw/bn
I0424 12:21:41.775380 15978 net.cpp:84] Creating Layer conv3_4_dw/bn
I0424 12:21:41.775384 15978 net.cpp:406] conv3_4_dw/bn <- conv3_4_dw
I0424 12:21:41.775388 15978 net.cpp:367] conv3_4_dw/bn -> conv3_4_dw (in-place)
I0424 12:21:41.775615 15978 net.cpp:122] Setting up conv3_4_dw/bn
I0424 12:21:41.775624 15978 net.cpp:129] Top shape: 128 256 14 12 (5505024)
I0424 12:21:41.775626 15978 net.cpp:137] Memory required for data: 4960028672
I0424 12:21:41.775632 15978 layer_factory.hpp:77] Creating layer conv3_4_dw/scale
I0424 12:21:41.775640 15978 net.cpp:84] Creating Layer conv3_4_dw/scale
I0424 12:21:41.775645 15978 net.cpp:406] conv3_4_dw/scale <- conv3_4_dw
I0424 12:21:41.775648 15978 net.cpp:367] conv3_4_dw/scale -> conv3_4_dw (in-place)
I0424 12:21:41.775691 15978 layer_factory.hpp:77] Creating layer conv3_4_dw/scale
I0424 12:21:41.775849 15978 net.cpp:122] Setting up conv3_4_dw/scale
I0424 12:21:41.775859 15978 net.cpp:129] Top shape: 128 256 14 12 (5505024)
I0424 12:21:41.775862 15978 net.cpp:137] Memory required for data: 4982048768
I0424 12:21:41.775867 15978 layer_factory.hpp:77] Creating layer relu3_4_dw
I0424 12:21:41.775873 15978 net.cpp:84] Creating Layer relu3_4_dw
I0424 12:21:41.775876 15978 net.cpp:406] relu3_4_dw <- conv3_4_dw
I0424 12:21:41.775882 15978 net.cpp:367] relu3_4_dw -> conv3_4_dw (in-place)
I0424 12:21:41.776016 15978 net.cpp:122] Setting up relu3_4_dw
I0424 12:21:41.776026 15978 net.cpp:129] Top shape: 128 256 14 12 (5505024)
I0424 12:21:41.776028 15978 net.cpp:137] Memory required for data: 5004068864
I0424 12:21:41.776031 15978 layer_factory.hpp:77] Creating layer conv3_4_em
I0424 12:21:41.776038 15978 net.cpp:84] Creating Layer conv3_4_em
I0424 12:21:41.776043 15978 net.cpp:406] conv3_4_em <- conv3_4_dw
I0424 12:21:41.776051 15978 net.cpp:380] conv3_4_em -> conv3_4_em
I0424 12:21:41.778825 15978 net.cpp:122] Setting up conv3_4_em
I0424 12:21:41.778842 15978 net.cpp:129] Top shape: 128 128 14 12 (2752512)
I0424 12:21:41.778847 15978 net.cpp:137] Memory required for data: 5015078912
I0424 12:21:41.778852 15978 layer_factory.hpp:77] Creating layer conv3_4_em/bn
I0424 12:21:41.778861 15978 net.cpp:84] Creating Layer conv3_4_em/bn
I0424 12:21:41.778865 15978 net.cpp:406] conv3_4_em/bn <- conv3_4_em
I0424 12:21:41.778872 15978 net.cpp:367] conv3_4_em/bn -> conv3_4_em (in-place)
I0424 12:21:41.779111 15978 net.cpp:122] Setting up conv3_4_em/bn
I0424 12:21:41.779119 15978 net.cpp:129] Top shape: 128 128 14 12 (2752512)
I0424 12:21:41.779122 15978 net.cpp:137] Memory required for data: 5026088960
I0424 12:21:41.779129 15978 layer_factory.hpp:77] Creating layer conv3_4_em/scale
I0424 12:21:41.779139 15978 net.cpp:84] Creating Layer conv3_4_em/scale
I0424 12:21:41.779142 15978 net.cpp:406] conv3_4_em/scale <- conv3_4_em
I0424 12:21:41.779146 15978 net.cpp:367] conv3_4_em/scale -> conv3_4_em (in-place)
I0424 12:21:41.779191 15978 layer_factory.hpp:77] Creating layer conv3_4_em/scale
I0424 12:21:41.779326 15978 net.cpp:122] Setting up conv3_4_em/scale
I0424 12:21:41.779335 15978 net.cpp:129] Top shape: 128 128 14 12 (2752512)
I0424 12:21:41.779337 15978 net.cpp:137] Memory required for data: 5037099008
I0424 12:21:41.779343 15978 layer_factory.hpp:77] Creating layer res3_4
I0424 12:21:41.779350 15978 net.cpp:84] Creating Layer res3_4
I0424 12:21:41.779353 15978 net.cpp:406] res3_4 <- res3_3_res3_3_0_split_1
I0424 12:21:41.779357 15978 net.cpp:406] res3_4 <- conv3_4_em
I0424 12:21:41.779363 15978 net.cpp:380] res3_4 -> res3_4
I0424 12:21:41.779397 15978 net.cpp:122] Setting up res3_4
I0424 12:21:41.779403 15978 net.cpp:129] Top shape: 128 128 14 12 (2752512)
I0424 12:21:41.779407 15978 net.cpp:137] Memory required for data: 5048109056
I0424 12:21:41.779409 15978 layer_factory.hpp:77] Creating layer res3_4_res3_4_0_split
I0424 12:21:41.779414 15978 net.cpp:84] Creating Layer res3_4_res3_4_0_split
I0424 12:21:41.779417 15978 net.cpp:406] res3_4_res3_4_0_split <- res3_4
I0424 12:21:41.779423 15978 net.cpp:380] res3_4_res3_4_0_split -> res3_4_res3_4_0_split_0
I0424 12:21:41.779431 15978 net.cpp:380] res3_4_res3_4_0_split -> res3_4_res3_4_0_split_1
I0424 12:21:41.779474 15978 net.cpp:122] Setting up res3_4_res3_4_0_split
I0424 12:21:41.779481 15978 net.cpp:129] Top shape: 128 128 14 12 (2752512)
I0424 12:21:41.779484 15978 net.cpp:129] Top shape: 128 128 14 12 (2752512)
I0424 12:21:41.779487 15978 net.cpp:137] Memory required for data: 5070129152
I0424 12:21:41.779490 15978 layer_factory.hpp:77] Creating layer conv3_5_ex
I0424 12:21:41.779500 15978 net.cpp:84] Creating Layer conv3_5_ex
I0424 12:21:41.779505 15978 net.cpp:406] conv3_5_ex <- res3_4_res3_4_0_split_0
I0424 12:21:41.779510 15978 net.cpp:380] conv3_5_ex -> conv3_5_ex
I0424 12:21:41.782356 15978 net.cpp:122] Setting up conv3_5_ex
I0424 12:21:41.782372 15978 net.cpp:129] Top shape: 128 256 14 12 (5505024)
I0424 12:21:41.782394 15978 net.cpp:137] Memory required for data: 5092149248
I0424 12:21:41.782402 15978 layer_factory.hpp:77] Creating layer conv3_5_ex/bn
I0424 12:21:41.782410 15978 net.cpp:84] Creating Layer conv3_5_ex/bn
I0424 12:21:41.782415 15978 net.cpp:406] conv3_5_ex/bn <- conv3_5_ex
I0424 12:21:41.782420 15978 net.cpp:367] conv3_5_ex/bn -> conv3_5_ex (in-place)
I0424 12:21:41.782667 15978 net.cpp:122] Setting up conv3_5_ex/bn
I0424 12:21:41.782675 15978 net.cpp:129] Top shape: 128 256 14 12 (5505024)
I0424 12:21:41.782678 15978 net.cpp:137] Memory required for data: 5114169344
I0424 12:21:41.782685 15978 layer_factory.hpp:77] Creating layer conv3_5_ex/scale
I0424 12:21:41.782694 15978 net.cpp:84] Creating Layer conv3_5_ex/scale
I0424 12:21:41.782698 15978 net.cpp:406] conv3_5_ex/scale <- conv3_5_ex
I0424 12:21:41.782702 15978 net.cpp:367] conv3_5_ex/scale -> conv3_5_ex (in-place)
I0424 12:21:41.782750 15978 layer_factory.hpp:77] Creating layer conv3_5_ex/scale
I0424 12:21:41.782886 15978 net.cpp:122] Setting up conv3_5_ex/scale
I0424 12:21:41.782894 15978 net.cpp:129] Top shape: 128 256 14 12 (5505024)
I0424 12:21:41.782897 15978 net.cpp:137] Memory required for data: 5136189440
I0424 12:21:41.782902 15978 layer_factory.hpp:77] Creating layer relu3_5_ex
I0424 12:21:41.782910 15978 net.cpp:84] Creating Layer relu3_5_ex
I0424 12:21:41.782913 15978 net.cpp:406] relu3_5_ex <- conv3_5_ex
I0424 12:21:41.782918 15978 net.cpp:367] relu3_5_ex -> conv3_5_ex (in-place)
I0424 12:21:41.783054 15978 net.cpp:122] Setting up relu3_5_ex
I0424 12:21:41.783063 15978 net.cpp:129] Top shape: 128 256 14 12 (5505024)
I0424 12:21:41.783066 15978 net.cpp:137] Memory required for data: 5158209536
I0424 12:21:41.783069 15978 layer_factory.hpp:77] Creating layer conv3_5_dw
I0424 12:21:41.783077 15978 net.cpp:84] Creating Layer conv3_5_dw
I0424 12:21:41.783082 15978 net.cpp:406] conv3_5_dw <- conv3_5_ex
I0424 12:21:41.783087 15978 net.cpp:380] conv3_5_dw -> conv3_5_dw
I0424 12:21:41.783397 15978 net.cpp:122] Setting up conv3_5_dw
I0424 12:21:41.783406 15978 net.cpp:129] Top shape: 128 256 14 12 (5505024)
I0424 12:21:41.783411 15978 net.cpp:137] Memory required for data: 5180229632
I0424 12:21:41.783416 15978 layer_factory.hpp:77] Creating layer conv3_5_dw/bn
I0424 12:21:41.783423 15978 net.cpp:84] Creating Layer conv3_5_dw/bn
I0424 12:21:41.783427 15978 net.cpp:406] conv3_5_dw/bn <- conv3_5_dw
I0424 12:21:41.783433 15978 net.cpp:367] conv3_5_dw/bn -> conv3_5_dw (in-place)
I0424 12:21:41.783668 15978 net.cpp:122] Setting up conv3_5_dw/bn
I0424 12:21:41.783675 15978 net.cpp:129] Top shape: 128 256 14 12 (5505024)
I0424 12:21:41.783679 15978 net.cpp:137] Memory required for data: 5202249728
I0424 12:21:41.783684 15978 layer_factory.hpp:77] Creating layer conv3_5_dw/scale
I0424 12:21:41.783692 15978 net.cpp:84] Creating Layer conv3_5_dw/scale
I0424 12:21:41.783697 15978 net.cpp:406] conv3_5_dw/scale <- conv3_5_dw
I0424 12:21:41.783701 15978 net.cpp:367] conv3_5_dw/scale -> conv3_5_dw (in-place)
I0424 12:21:41.783746 15978 layer_factory.hpp:77] Creating layer conv3_5_dw/scale
I0424 12:21:41.783880 15978 net.cpp:122] Setting up conv3_5_dw/scale
I0424 12:21:41.783888 15978 net.cpp:129] Top shape: 128 256 14 12 (5505024)
I0424 12:21:41.783891 15978 net.cpp:137] Memory required for data: 5224269824
I0424 12:21:41.783897 15978 layer_factory.hpp:77] Creating layer relu3_5_dw
I0424 12:21:41.783902 15978 net.cpp:84] Creating Layer relu3_5_dw
I0424 12:21:41.783905 15978 net.cpp:406] relu3_5_dw <- conv3_5_dw
I0424 12:21:41.783910 15978 net.cpp:367] relu3_5_dw -> conv3_5_dw (in-place)
I0424 12:21:41.784047 15978 net.cpp:122] Setting up relu3_5_dw
I0424 12:21:41.784055 15978 net.cpp:129] Top shape: 128 256 14 12 (5505024)
I0424 12:21:41.784057 15978 net.cpp:137] Memory required for data: 5246289920
I0424 12:21:41.784061 15978 layer_factory.hpp:77] Creating layer conv3_5_em
I0424 12:21:41.784070 15978 net.cpp:84] Creating Layer conv3_5_em
I0424 12:21:41.784073 15978 net.cpp:406] conv3_5_em <- conv3_5_dw
I0424 12:21:41.784080 15978 net.cpp:380] conv3_5_em -> conv3_5_em
I0424 12:21:41.787669 15978 net.cpp:122] Setting up conv3_5_em
I0424 12:21:41.787688 15978 net.cpp:129] Top shape: 128 128 14 12 (2752512)
I0424 12:21:41.787693 15978 net.cpp:137] Memory required for data: 5257299968
I0424 12:21:41.787698 15978 layer_factory.hpp:77] Creating layer conv3_5_em/bn
I0424 12:21:41.787705 15978 net.cpp:84] Creating Layer conv3_5_em/bn
I0424 12:21:41.787710 15978 net.cpp:406] conv3_5_em/bn <- conv3_5_em
I0424 12:21:41.787717 15978 net.cpp:367] conv3_5_em/bn -> conv3_5_em (in-place)
I0424 12:21:41.787966 15978 net.cpp:122] Setting up conv3_5_em/bn
I0424 12:21:41.787973 15978 net.cpp:129] Top shape: 128 128 14 12 (2752512)
I0424 12:21:41.787977 15978 net.cpp:137] Memory required for data: 5268310016
I0424 12:21:41.787983 15978 layer_factory.hpp:77] Creating layer conv3_5_em/scale
I0424 12:21:41.787992 15978 net.cpp:84] Creating Layer conv3_5_em/scale
I0424 12:21:41.787997 15978 net.cpp:406] conv3_5_em/scale <- conv3_5_em
I0424 12:21:41.788002 15978 net.cpp:367] conv3_5_em/scale -> conv3_5_em (in-place)
I0424 12:21:41.788049 15978 layer_factory.hpp:77] Creating layer conv3_5_em/scale
I0424 12:21:41.788187 15978 net.cpp:122] Setting up conv3_5_em/scale
I0424 12:21:41.788195 15978 net.cpp:129] Top shape: 128 128 14 12 (2752512)
I0424 12:21:41.788198 15978 net.cpp:137] Memory required for data: 5279320064
I0424 12:21:41.788204 15978 layer_factory.hpp:77] Creating layer res3_5
I0424 12:21:41.788211 15978 net.cpp:84] Creating Layer res3_5
I0424 12:21:41.788216 15978 net.cpp:406] res3_5 <- res3_4_res3_4_0_split_1
I0424 12:21:41.788221 15978 net.cpp:406] res3_5 <- conv3_5_em
I0424 12:21:41.788226 15978 net.cpp:380] res3_5 -> res3_5
I0424 12:21:41.788259 15978 net.cpp:122] Setting up res3_5
I0424 12:21:41.788266 15978 net.cpp:129] Top shape: 128 128 14 12 (2752512)
I0424 12:21:41.788269 15978 net.cpp:137] Memory required for data: 5290330112
I0424 12:21:41.788272 15978 layer_factory.hpp:77] Creating layer res3_5_res3_5_0_split
I0424 12:21:41.788277 15978 net.cpp:84] Creating Layer res3_5_res3_5_0_split
I0424 12:21:41.788280 15978 net.cpp:406] res3_5_res3_5_0_split <- res3_5
I0424 12:21:41.788286 15978 net.cpp:380] res3_5_res3_5_0_split -> res3_5_res3_5_0_split_0
I0424 12:21:41.788295 15978 net.cpp:380] res3_5_res3_5_0_split -> res3_5_res3_5_0_split_1
I0424 12:21:41.788341 15978 net.cpp:122] Setting up res3_5_res3_5_0_split
I0424 12:21:41.788347 15978 net.cpp:129] Top shape: 128 128 14 12 (2752512)
I0424 12:21:41.788352 15978 net.cpp:129] Top shape: 128 128 14 12 (2752512)
I0424 12:21:41.788354 15978 net.cpp:137] Memory required for data: 5312350208
I0424 12:21:41.788357 15978 layer_factory.hpp:77] Creating layer conv3_6_ex
I0424 12:21:41.788364 15978 net.cpp:84] Creating Layer conv3_6_ex
I0424 12:21:41.788368 15978 net.cpp:406] conv3_6_ex <- res3_5_res3_5_0_split_0
I0424 12:21:41.788373 15978 net.cpp:380] conv3_6_ex -> conv3_6_ex
I0424 12:21:41.791148 15978 net.cpp:122] Setting up conv3_6_ex
I0424 12:21:41.791165 15978 net.cpp:129] Top shape: 128 256 14 12 (5505024)
I0424 12:21:41.791170 15978 net.cpp:137] Memory required for data: 5334370304
I0424 12:21:41.791177 15978 layer_factory.hpp:77] Creating layer conv3_6_ex/bn
I0424 12:21:41.791182 15978 net.cpp:84] Creating Layer conv3_6_ex/bn
I0424 12:21:41.791188 15978 net.cpp:406] conv3_6_ex/bn <- conv3_6_ex
I0424 12:21:41.791196 15978 net.cpp:367] conv3_6_ex/bn -> conv3_6_ex (in-place)
I0424 12:21:41.791442 15978 net.cpp:122] Setting up conv3_6_ex/bn
I0424 12:21:41.791450 15978 net.cpp:129] Top shape: 128 256 14 12 (5505024)
I0424 12:21:41.791453 15978 net.cpp:137] Memory required for data: 5356390400
I0424 12:21:41.791460 15978 layer_factory.hpp:77] Creating layer conv3_6_ex/scale
I0424 12:21:41.791468 15978 net.cpp:84] Creating Layer conv3_6_ex/scale
I0424 12:21:41.791473 15978 net.cpp:406] conv3_6_ex/scale <- conv3_6_ex
I0424 12:21:41.791477 15978 net.cpp:367] conv3_6_ex/scale -> conv3_6_ex (in-place)
I0424 12:21:41.791527 15978 layer_factory.hpp:77] Creating layer conv3_6_ex/scale
I0424 12:21:41.791669 15978 net.cpp:122] Setting up conv3_6_ex/scale
I0424 12:21:41.791695 15978 net.cpp:129] Top shape: 128 256 14 12 (5505024)
I0424 12:21:41.791700 15978 net.cpp:137] Memory required for data: 5378410496
I0424 12:21:41.791707 15978 layer_factory.hpp:77] Creating layer relu3_6_ex
I0424 12:21:41.791715 15978 net.cpp:84] Creating Layer relu3_6_ex
I0424 12:21:41.791718 15978 net.cpp:406] relu3_6_ex <- conv3_6_ex
I0424 12:21:41.791723 15978 net.cpp:367] relu3_6_ex -> conv3_6_ex (in-place)
I0424 12:21:41.791865 15978 net.cpp:122] Setting up relu3_6_ex
I0424 12:21:41.791873 15978 net.cpp:129] Top shape: 128 256 14 12 (5505024)
I0424 12:21:41.791877 15978 net.cpp:137] Memory required for data: 5400430592
I0424 12:21:41.791880 15978 layer_factory.hpp:77] Creating layer conv3_6_dw
I0424 12:21:41.791888 15978 net.cpp:84] Creating Layer conv3_6_dw
I0424 12:21:41.791893 15978 net.cpp:406] conv3_6_dw <- conv3_6_ex
I0424 12:21:41.791898 15978 net.cpp:380] conv3_6_dw -> conv3_6_dw
I0424 12:21:41.792207 15978 net.cpp:122] Setting up conv3_6_dw
I0424 12:21:41.792215 15978 net.cpp:129] Top shape: 128 256 14 12 (5505024)
I0424 12:21:41.792218 15978 net.cpp:137] Memory required for data: 5422450688
I0424 12:21:41.792223 15978 layer_factory.hpp:77] Creating layer conv3_6_dw/bn
I0424 12:21:41.792232 15978 net.cpp:84] Creating Layer conv3_6_dw/bn
I0424 12:21:41.792237 15978 net.cpp:406] conv3_6_dw/bn <- conv3_6_dw
I0424 12:21:41.792243 15978 net.cpp:367] conv3_6_dw/bn -> conv3_6_dw (in-place)
I0424 12:21:41.792475 15978 net.cpp:122] Setting up conv3_6_dw/bn
I0424 12:21:41.792484 15978 net.cpp:129] Top shape: 128 256 14 12 (5505024)
I0424 12:21:41.792486 15978 net.cpp:137] Memory required for data: 5444470784
I0424 12:21:41.792513 15978 layer_factory.hpp:77] Creating layer conv3_6_dw/scale
I0424 12:21:41.792521 15978 net.cpp:84] Creating Layer conv3_6_dw/scale
I0424 12:21:41.792524 15978 net.cpp:406] conv3_6_dw/scale <- conv3_6_dw
I0424 12:21:41.792531 15978 net.cpp:367] conv3_6_dw/scale -> conv3_6_dw (in-place)
I0424 12:21:41.792580 15978 layer_factory.hpp:77] Creating layer conv3_6_dw/scale
I0424 12:21:41.792718 15978 net.cpp:122] Setting up conv3_6_dw/scale
I0424 12:21:41.792726 15978 net.cpp:129] Top shape: 128 256 14 12 (5505024)
I0424 12:21:41.792729 15978 net.cpp:137] Memory required for data: 5466490880
I0424 12:21:41.792734 15978 layer_factory.hpp:77] Creating layer relu3_6_dw
I0424 12:21:41.792742 15978 net.cpp:84] Creating Layer relu3_6_dw
I0424 12:21:41.792743 15978 net.cpp:406] relu3_6_dw <- conv3_6_dw
I0424 12:21:41.792752 15978 net.cpp:367] relu3_6_dw -> conv3_6_dw (in-place)
I0424 12:21:41.792888 15978 net.cpp:122] Setting up relu3_6_dw
I0424 12:21:41.792896 15978 net.cpp:129] Top shape: 128 256 14 12 (5505024)
I0424 12:21:41.792898 15978 net.cpp:137] Memory required for data: 5488510976
I0424 12:21:41.792903 15978 layer_factory.hpp:77] Creating layer conv3_6_em
I0424 12:21:41.792912 15978 net.cpp:84] Creating Layer conv3_6_em
I0424 12:21:41.792915 15978 net.cpp:406] conv3_6_em <- conv3_6_dw
I0424 12:21:41.792920 15978 net.cpp:380] conv3_6_em -> conv3_6_em
I0424 12:21:41.795738 15978 net.cpp:122] Setting up conv3_6_em
I0424 12:21:41.795755 15978 net.cpp:129] Top shape: 128 128 14 12 (2752512)
I0424 12:21:41.795759 15978 net.cpp:137] Memory required for data: 5499521024
I0424 12:21:41.795765 15978 layer_factory.hpp:77] Creating layer conv3_6_em/bn
I0424 12:21:41.795773 15978 net.cpp:84] Creating Layer conv3_6_em/bn
I0424 12:21:41.795776 15978 net.cpp:406] conv3_6_em/bn <- conv3_6_em
I0424 12:21:41.795784 15978 net.cpp:367] conv3_6_em/bn -> conv3_6_em (in-place)
I0424 12:21:41.796030 15978 net.cpp:122] Setting up conv3_6_em/bn
I0424 12:21:41.796039 15978 net.cpp:129] Top shape: 128 128 14 12 (2752512)
I0424 12:21:41.796042 15978 net.cpp:137] Memory required for data: 5510531072
I0424 12:21:41.796049 15978 layer_factory.hpp:77] Creating layer conv3_6_em/scale
I0424 12:21:41.796057 15978 net.cpp:84] Creating Layer conv3_6_em/scale
I0424 12:21:41.796062 15978 net.cpp:406] conv3_6_em/scale <- conv3_6_em
I0424 12:21:41.796066 15978 net.cpp:367] conv3_6_em/scale -> conv3_6_em (in-place)
I0424 12:21:41.796138 15978 layer_factory.hpp:77] Creating layer conv3_6_em/scale
I0424 12:21:41.796278 15978 net.cpp:122] Setting up conv3_6_em/scale
I0424 12:21:41.796288 15978 net.cpp:129] Top shape: 128 128 14 12 (2752512)
I0424 12:21:41.796290 15978 net.cpp:137] Memory required for data: 5521541120
I0424 12:21:41.796295 15978 layer_factory.hpp:77] Creating layer res3_6
I0424 12:21:41.796303 15978 net.cpp:84] Creating Layer res3_6
I0424 12:21:41.796308 15978 net.cpp:406] res3_6 <- res3_5_res3_5_0_split_1
I0424 12:21:41.796314 15978 net.cpp:406] res3_6 <- conv3_6_em
I0424 12:21:41.796317 15978 net.cpp:380] res3_6 -> res3_6
I0424 12:21:41.796350 15978 net.cpp:122] Setting up res3_6
I0424 12:21:41.796358 15978 net.cpp:129] Top shape: 128 128 14 12 (2752512)
I0424 12:21:41.796361 15978 net.cpp:137] Memory required for data: 5532551168
I0424 12:21:41.796365 15978 layer_factory.hpp:77] Creating layer conv4_ex
I0424 12:21:41.796372 15978 net.cpp:84] Creating Layer conv4_ex
I0424 12:21:41.796377 15978 net.cpp:406] conv4_ex <- res3_6
I0424 12:21:41.796383 15978 net.cpp:380] conv4_ex -> conv4_ex
I0424 12:21:41.800631 15978 net.cpp:122] Setting up conv4_ex
I0424 12:21:41.800648 15978 net.cpp:129] Top shape: 128 512 14 12 (11010048)
I0424 12:21:41.800653 15978 net.cpp:137] Memory required for data: 5576591360
I0424 12:21:41.800659 15978 layer_factory.hpp:77] Creating layer conv4_ex/bn
I0424 12:21:41.800668 15978 net.cpp:84] Creating Layer conv4_ex/bn
I0424 12:21:41.800673 15978 net.cpp:406] conv4_ex/bn <- conv4_ex
I0424 12:21:41.800678 15978 net.cpp:367] conv4_ex/bn -> conv4_ex (in-place)
I0424 12:21:41.800938 15978 net.cpp:122] Setting up conv4_ex/bn
I0424 12:21:41.800947 15978 net.cpp:129] Top shape: 128 512 14 12 (11010048)
I0424 12:21:41.800951 15978 net.cpp:137] Memory required for data: 5620631552
I0424 12:21:41.800959 15978 layer_factory.hpp:77] Creating layer conv4_ex/scale
I0424 12:21:41.800966 15978 net.cpp:84] Creating Layer conv4_ex/scale
I0424 12:21:41.800969 15978 net.cpp:406] conv4_ex/scale <- conv4_ex
I0424 12:21:41.800974 15978 net.cpp:367] conv4_ex/scale -> conv4_ex (in-place)
I0424 12:21:41.801018 15978 layer_factory.hpp:77] Creating layer conv4_ex/scale
I0424 12:21:41.801165 15978 net.cpp:122] Setting up conv4_ex/scale
I0424 12:21:41.801173 15978 net.cpp:129] Top shape: 128 512 14 12 (11010048)
I0424 12:21:41.801177 15978 net.cpp:137] Memory required for data: 5664671744
I0424 12:21:41.801182 15978 layer_factory.hpp:77] Creating layer relu4_ex
I0424 12:21:41.801188 15978 net.cpp:84] Creating Layer relu4_ex
I0424 12:21:41.801192 15978 net.cpp:406] relu4_ex <- conv4_ex
I0424 12:21:41.801198 15978 net.cpp:367] relu4_ex -> conv4_ex (in-place)
I0424 12:21:41.801374 15978 net.cpp:122] Setting up relu4_ex
I0424 12:21:41.801385 15978 net.cpp:129] Top shape: 128 512 14 12 (11010048)
I0424 12:21:41.801388 15978 net.cpp:137] Memory required for data: 5708711936
I0424 12:21:41.801393 15978 layer_factory.hpp:77] Creating layer conv4_dw
I0424 12:21:41.801400 15978 net.cpp:84] Creating Layer conv4_dw
I0424 12:21:41.801405 15978 net.cpp:406] conv4_dw <- conv4_ex
I0424 12:21:41.801410 15978 net.cpp:380] conv4_dw -> conv4_dw
I0424 12:21:41.801739 15978 net.cpp:122] Setting up conv4_dw
I0424 12:21:41.801749 15978 net.cpp:129] Top shape: 128 512 7 6 (2752512)
I0424 12:21:41.801751 15978 net.cpp:137] Memory required for data: 5719721984
I0424 12:21:41.801757 15978 layer_factory.hpp:77] Creating layer conv4_dw/bn
I0424 12:21:41.801764 15978 net.cpp:84] Creating Layer conv4_dw/bn
I0424 12:21:41.801769 15978 net.cpp:406] conv4_dw/bn <- conv4_dw
I0424 12:21:41.801774 15978 net.cpp:367] conv4_dw/bn -> conv4_dw (in-place)
I0424 12:21:41.802013 15978 net.cpp:122] Setting up conv4_dw/bn
I0424 12:21:41.802021 15978 net.cpp:129] Top shape: 128 512 7 6 (2752512)
I0424 12:21:41.802024 15978 net.cpp:137] Memory required for data: 5730732032
I0424 12:21:41.802031 15978 layer_factory.hpp:77] Creating layer conv4_dw/scale
I0424 12:21:41.802037 15978 net.cpp:84] Creating Layer conv4_dw/scale
I0424 12:21:41.802039 15978 net.cpp:406] conv4_dw/scale <- conv4_dw
I0424 12:21:41.802063 15978 net.cpp:367] conv4_dw/scale -> conv4_dw (in-place)
I0424 12:21:41.802110 15978 layer_factory.hpp:77] Creating layer conv4_dw/scale
I0424 12:21:41.802261 15978 net.cpp:122] Setting up conv4_dw/scale
I0424 12:21:41.802269 15978 net.cpp:129] Top shape: 128 512 7 6 (2752512)
I0424 12:21:41.802273 15978 net.cpp:137] Memory required for data: 5741742080
I0424 12:21:41.802278 15978 layer_factory.hpp:77] Creating layer relu4_dw
I0424 12:21:41.802284 15978 net.cpp:84] Creating Layer relu4_dw
I0424 12:21:41.802286 15978 net.cpp:406] relu4_dw <- conv4_dw
I0424 12:21:41.802294 15978 net.cpp:367] relu4_dw -> conv4_dw (in-place)
I0424 12:21:41.802404 15978 net.cpp:122] Setting up relu4_dw
I0424 12:21:41.802412 15978 net.cpp:129] Top shape: 128 512 7 6 (2752512)
I0424 12:21:41.802415 15978 net.cpp:137] Memory required for data: 5752752128
I0424 12:21:41.802420 15978 layer_factory.hpp:77] Creating layer conv4_em
I0424 12:21:41.802428 15978 net.cpp:84] Creating Layer conv4_em
I0424 12:21:41.802433 15978 net.cpp:406] conv4_em <- conv4_dw
I0424 12:21:41.802438 15978 net.cpp:380] conv4_em -> conv4_em
I0424 12:21:41.805688 15978 net.cpp:122] Setting up conv4_em
I0424 12:21:41.805706 15978 net.cpp:129] Top shape: 128 128 7 6 (688128)
I0424 12:21:41.805711 15978 net.cpp:137] Memory required for data: 5755504640
I0424 12:21:41.805716 15978 layer_factory.hpp:77] Creating layer conv4_em/bn
I0424 12:21:41.805727 15978 net.cpp:84] Creating Layer conv4_em/bn
I0424 12:21:41.805732 15978 net.cpp:406] conv4_em/bn <- conv4_em
I0424 12:21:41.805737 15978 net.cpp:367] conv4_em/bn -> conv4_em (in-place)
I0424 12:21:41.805991 15978 net.cpp:122] Setting up conv4_em/bn
I0424 12:21:41.806001 15978 net.cpp:129] Top shape: 128 128 7 6 (688128)
I0424 12:21:41.806004 15978 net.cpp:137] Memory required for data: 5758257152
I0424 12:21:41.806010 15978 layer_factory.hpp:77] Creating layer conv4_em/scale
I0424 12:21:41.806017 15978 net.cpp:84] Creating Layer conv4_em/scale
I0424 12:21:41.806021 15978 net.cpp:406] conv4_em/scale <- conv4_em
I0424 12:21:41.806028 15978 net.cpp:367] conv4_em/scale -> conv4_em (in-place)
I0424 12:21:41.806072 15978 layer_factory.hpp:77] Creating layer conv4_em/scale
I0424 12:21:41.806213 15978 net.cpp:122] Setting up conv4_em/scale
I0424 12:21:41.806222 15978 net.cpp:129] Top shape: 128 128 7 6 (688128)
I0424 12:21:41.806226 15978 net.cpp:137] Memory required for data: 5761009664
I0424 12:21:41.806231 15978 layer_factory.hpp:77] Creating layer conv4_em_conv4_em/scale_0_split
I0424 12:21:41.806237 15978 net.cpp:84] Creating Layer conv4_em_conv4_em/scale_0_split
I0424 12:21:41.806241 15978 net.cpp:406] conv4_em_conv4_em/scale_0_split <- conv4_em
I0424 12:21:41.806248 15978 net.cpp:380] conv4_em_conv4_em/scale_0_split -> conv4_em_conv4_em/scale_0_split_0
I0424 12:21:41.806257 15978 net.cpp:380] conv4_em_conv4_em/scale_0_split -> conv4_em_conv4_em/scale_0_split_1
I0424 12:21:41.806301 15978 net.cpp:122] Setting up conv4_em_conv4_em/scale_0_split
I0424 12:21:41.806310 15978 net.cpp:129] Top shape: 128 128 7 6 (688128)
I0424 12:21:41.806313 15978 net.cpp:129] Top shape: 128 128 7 6 (688128)
I0424 12:21:41.806318 15978 net.cpp:137] Memory required for data: 5766514688
I0424 12:21:41.806320 15978 layer_factory.hpp:77] Creating layer conv4_1_ex
I0424 12:21:41.806330 15978 net.cpp:84] Creating Layer conv4_1_ex
I0424 12:21:41.806334 15978 net.cpp:406] conv4_1_ex <- conv4_em_conv4_em/scale_0_split_0
I0424 12:21:41.806340 15978 net.cpp:380] conv4_1_ex -> conv4_1_ex
I0424 12:21:41.809144 15978 net.cpp:122] Setting up conv4_1_ex
I0424 12:21:41.809164 15978 net.cpp:129] Top shape: 128 256 7 6 (1376256)
I0424 12:21:41.809167 15978 net.cpp:137] Memory required for data: 5772019712
I0424 12:21:41.809173 15978 layer_factory.hpp:77] Creating layer conv4_1_ex/bn
I0424 12:21:41.809180 15978 net.cpp:84] Creating Layer conv4_1_ex/bn
I0424 12:21:41.809185 15978 net.cpp:406] conv4_1_ex/bn <- conv4_1_ex
I0424 12:21:41.809192 15978 net.cpp:367] conv4_1_ex/bn -> conv4_1_ex (in-place)
I0424 12:21:41.809458 15978 net.cpp:122] Setting up conv4_1_ex/bn
I0424 12:21:41.809485 15978 net.cpp:129] Top shape: 128 256 7 6 (1376256)
I0424 12:21:41.809490 15978 net.cpp:137] Memory required for data: 5777524736
I0424 12:21:41.809499 15978 layer_factory.hpp:77] Creating layer conv4_1_ex/scale
I0424 12:21:41.809505 15978 net.cpp:84] Creating Layer conv4_1_ex/scale
I0424 12:21:41.809509 15978 net.cpp:406] conv4_1_ex/scale <- conv4_1_ex
I0424 12:21:41.809514 15978 net.cpp:367] conv4_1_ex/scale -> conv4_1_ex (in-place)
I0424 12:21:41.809566 15978 layer_factory.hpp:77] Creating layer conv4_1_ex/scale
I0424 12:21:41.809710 15978 net.cpp:122] Setting up conv4_1_ex/scale
I0424 12:21:41.809717 15978 net.cpp:129] Top shape: 128 256 7 6 (1376256)
I0424 12:21:41.809720 15978 net.cpp:137] Memory required for data: 5783029760
I0424 12:21:41.809725 15978 layer_factory.hpp:77] Creating layer relu4_1_ex
I0424 12:21:41.809731 15978 net.cpp:84] Creating Layer relu4_1_ex
I0424 12:21:41.809733 15978 net.cpp:406] relu4_1_ex <- conv4_1_ex
I0424 12:21:41.809739 15978 net.cpp:367] relu4_1_ex -> conv4_1_ex (in-place)
I0424 12:21:41.809847 15978 net.cpp:122] Setting up relu4_1_ex
I0424 12:21:41.809855 15978 net.cpp:129] Top shape: 128 256 7 6 (1376256)
I0424 12:21:41.809859 15978 net.cpp:137] Memory required for data: 5788534784
I0424 12:21:41.809862 15978 layer_factory.hpp:77] Creating layer conv4_1_dw
I0424 12:21:41.809872 15978 net.cpp:84] Creating Layer conv4_1_dw
I0424 12:21:41.809875 15978 net.cpp:406] conv4_1_dw <- conv4_1_ex
I0424 12:21:41.809881 15978 net.cpp:380] conv4_1_dw -> conv4_1_dw
I0424 12:21:41.810201 15978 net.cpp:122] Setting up conv4_1_dw
I0424 12:21:41.810210 15978 net.cpp:129] Top shape: 128 256 7 6 (1376256)
I0424 12:21:41.810214 15978 net.cpp:137] Memory required for data: 5794039808
I0424 12:21:41.810219 15978 layer_factory.hpp:77] Creating layer conv4_1_dw/bn
I0424 12:21:41.810225 15978 net.cpp:84] Creating Layer conv4_1_dw/bn
I0424 12:21:41.810228 15978 net.cpp:406] conv4_1_dw/bn <- conv4_1_dw
I0424 12:21:41.810232 15978 net.cpp:367] conv4_1_dw/bn -> conv4_1_dw (in-place)
I0424 12:21:41.810472 15978 net.cpp:122] Setting up conv4_1_dw/bn
I0424 12:21:41.810480 15978 net.cpp:129] Top shape: 128 256 7 6 (1376256)
I0424 12:21:41.810483 15978 net.cpp:137] Memory required for data: 5799544832
I0424 12:21:41.810489 15978 layer_factory.hpp:77] Creating layer conv4_1_dw/scale
I0424 12:21:41.810495 15978 net.cpp:84] Creating Layer conv4_1_dw/scale
I0424 12:21:41.810499 15978 net.cpp:406] conv4_1_dw/scale <- conv4_1_dw
I0424 12:21:41.810503 15978 net.cpp:367] conv4_1_dw/scale -> conv4_1_dw (in-place)
I0424 12:21:41.810550 15978 layer_factory.hpp:77] Creating layer conv4_1_dw/scale
I0424 12:21:41.810694 15978 net.cpp:122] Setting up conv4_1_dw/scale
I0424 12:21:41.810703 15978 net.cpp:129] Top shape: 128 256 7 6 (1376256)
I0424 12:21:41.810706 15978 net.cpp:137] Memory required for data: 5805049856
I0424 12:21:41.810710 15978 layer_factory.hpp:77] Creating layer relu4_1_dw
I0424 12:21:41.810716 15978 net.cpp:84] Creating Layer relu4_1_dw
I0424 12:21:41.810720 15978 net.cpp:406] relu4_1_dw <- conv4_1_dw
I0424 12:21:41.810724 15978 net.cpp:367] relu4_1_dw -> conv4_1_dw (in-place)
I0424 12:21:41.810830 15978 net.cpp:122] Setting up relu4_1_dw
I0424 12:21:41.810838 15978 net.cpp:129] Top shape: 128 256 7 6 (1376256)
I0424 12:21:41.810842 15978 net.cpp:137] Memory required for data: 5810554880
I0424 12:21:41.810845 15978 layer_factory.hpp:77] Creating layer conv4_1_em
I0424 12:21:41.810853 15978 net.cpp:84] Creating Layer conv4_1_em
I0424 12:21:41.810856 15978 net.cpp:406] conv4_1_em <- conv4_1_dw
I0424 12:21:41.810861 15978 net.cpp:380] conv4_1_em -> conv4_1_em
I0424 12:21:41.813659 15978 net.cpp:122] Setting up conv4_1_em
I0424 12:21:41.813676 15978 net.cpp:129] Top shape: 128 128 7 6 (688128)
I0424 12:21:41.813680 15978 net.cpp:137] Memory required for data: 5813307392
I0424 12:21:41.813686 15978 layer_factory.hpp:77] Creating layer conv4_1_em/bn
I0424 12:21:41.813694 15978 net.cpp:84] Creating Layer conv4_1_em/bn
I0424 12:21:41.813696 15978 net.cpp:406] conv4_1_em/bn <- conv4_1_em
I0424 12:21:41.813726 15978 net.cpp:367] conv4_1_em/bn -> conv4_1_em (in-place)
I0424 12:21:41.813983 15978 net.cpp:122] Setting up conv4_1_em/bn
I0424 12:21:41.813992 15978 net.cpp:129] Top shape: 128 128 7 6 (688128)
I0424 12:21:41.813994 15978 net.cpp:137] Memory required for data: 5816059904
I0424 12:21:41.814002 15978 layer_factory.hpp:77] Creating layer conv4_1_em/scale
I0424 12:21:41.814009 15978 net.cpp:84] Creating Layer conv4_1_em/scale
I0424 12:21:41.814013 15978 net.cpp:406] conv4_1_em/scale <- conv4_1_em
I0424 12:21:41.814016 15978 net.cpp:367] conv4_1_em/scale -> conv4_1_em (in-place)
I0424 12:21:41.814064 15978 layer_factory.hpp:77] Creating layer conv4_1_em/scale
I0424 12:21:41.814208 15978 net.cpp:122] Setting up conv4_1_em/scale
I0424 12:21:41.814215 15978 net.cpp:129] Top shape: 128 128 7 6 (688128)
I0424 12:21:41.814218 15978 net.cpp:137] Memory required for data: 5818812416
I0424 12:21:41.814222 15978 layer_factory.hpp:77] Creating layer res4_1
I0424 12:21:41.814229 15978 net.cpp:84] Creating Layer res4_1
I0424 12:21:41.814234 15978 net.cpp:406] res4_1 <- conv4_em_conv4_em/scale_0_split_1
I0424 12:21:41.814237 15978 net.cpp:406] res4_1 <- conv4_1_em
I0424 12:21:41.814241 15978 net.cpp:380] res4_1 -> res4_1
I0424 12:21:41.814272 15978 net.cpp:122] Setting up res4_1
I0424 12:21:41.814280 15978 net.cpp:129] Top shape: 128 128 7 6 (688128)
I0424 12:21:41.814282 15978 net.cpp:137] Memory required for data: 5821564928
I0424 12:21:41.814285 15978 layer_factory.hpp:77] Creating layer res4_1_res4_1_0_split
I0424 12:21:41.814291 15978 net.cpp:84] Creating Layer res4_1_res4_1_0_split
I0424 12:21:41.814293 15978 net.cpp:406] res4_1_res4_1_0_split <- res4_1
I0424 12:21:41.814299 15978 net.cpp:380] res4_1_res4_1_0_split -> res4_1_res4_1_0_split_0
I0424 12:21:41.814306 15978 net.cpp:380] res4_1_res4_1_0_split -> res4_1_res4_1_0_split_1
I0424 12:21:41.814352 15978 net.cpp:122] Setting up res4_1_res4_1_0_split
I0424 12:21:41.814359 15978 net.cpp:129] Top shape: 128 128 7 6 (688128)
I0424 12:21:41.814363 15978 net.cpp:129] Top shape: 128 128 7 6 (688128)
I0424 12:21:41.814365 15978 net.cpp:137] Memory required for data: 5827069952
I0424 12:21:41.814368 15978 layer_factory.hpp:77] Creating layer conv4_2_ex
I0424 12:21:41.814378 15978 net.cpp:84] Creating Layer conv4_2_ex
I0424 12:21:41.814381 15978 net.cpp:406] conv4_2_ex <- res4_1_res4_1_0_split_0
I0424 12:21:41.814386 15978 net.cpp:380] conv4_2_ex -> conv4_2_ex
I0424 12:21:41.817549 15978 net.cpp:122] Setting up conv4_2_ex
I0424 12:21:41.817566 15978 net.cpp:129] Top shape: 128 256 7 6 (1376256)
I0424 12:21:41.817569 15978 net.cpp:137] Memory required for data: 5832574976
I0424 12:21:41.817575 15978 layer_factory.hpp:77] Creating layer conv4_2_ex/bn
I0424 12:21:41.817582 15978 net.cpp:84] Creating Layer conv4_2_ex/bn
I0424 12:21:41.817585 15978 net.cpp:406] conv4_2_ex/bn <- conv4_2_ex
I0424 12:21:41.817592 15978 net.cpp:367] conv4_2_ex/bn -> conv4_2_ex (in-place)
I0424 12:21:41.817844 15978 net.cpp:122] Setting up conv4_2_ex/bn
I0424 12:21:41.817853 15978 net.cpp:129] Top shape: 128 256 7 6 (1376256)
I0424 12:21:41.817857 15978 net.cpp:137] Memory required for data: 5838080000
I0424 12:21:41.817863 15978 layer_factory.hpp:77] Creating layer conv4_2_ex/scale
I0424 12:21:41.817878 15978 net.cpp:84] Creating Layer conv4_2_ex/scale
I0424 12:21:41.817884 15978 net.cpp:406] conv4_2_ex/scale <- conv4_2_ex
I0424 12:21:41.817890 15978 net.cpp:367] conv4_2_ex/scale -> conv4_2_ex (in-place)
I0424 12:21:41.817939 15978 layer_factory.hpp:77] Creating layer conv4_2_ex/scale
I0424 12:21:41.818081 15978 net.cpp:122] Setting up conv4_2_ex/scale
I0424 12:21:41.818090 15978 net.cpp:129] Top shape: 128 256 7 6 (1376256)
I0424 12:21:41.818094 15978 net.cpp:137] Memory required for data: 5843585024
I0424 12:21:41.818099 15978 layer_factory.hpp:77] Creating layer relu4_2_ex
I0424 12:21:41.818104 15978 net.cpp:84] Creating Layer relu4_2_ex
I0424 12:21:41.818106 15978 net.cpp:406] relu4_2_ex <- conv4_2_ex
I0424 12:21:41.818111 15978 net.cpp:367] relu4_2_ex -> conv4_2_ex (in-place)
I0424 12:21:41.818245 15978 net.cpp:122] Setting up relu4_2_ex
I0424 12:21:41.818254 15978 net.cpp:129] Top shape: 128 256 7 6 (1376256)
I0424 12:21:41.818259 15978 net.cpp:137] Memory required for data: 5849090048
I0424 12:21:41.818262 15978 layer_factory.hpp:77] Creating layer conv4_2_dw
I0424 12:21:41.818269 15978 net.cpp:84] Creating Layer conv4_2_dw
I0424 12:21:41.818271 15978 net.cpp:406] conv4_2_dw <- conv4_2_ex
I0424 12:21:41.818279 15978 net.cpp:380] conv4_2_dw -> conv4_2_dw
I0424 12:21:41.818599 15978 net.cpp:122] Setting up conv4_2_dw
I0424 12:21:41.818608 15978 net.cpp:129] Top shape: 128 256 7 6 (1376256)
I0424 12:21:41.818611 15978 net.cpp:137] Memory required for data: 5854595072
I0424 12:21:41.818617 15978 layer_factory.hpp:77] Creating layer conv4_2_dw/bn
I0424 12:21:41.818624 15978 net.cpp:84] Creating Layer conv4_2_dw/bn
I0424 12:21:41.818626 15978 net.cpp:406] conv4_2_dw/bn <- conv4_2_dw
I0424 12:21:41.818630 15978 net.cpp:367] conv4_2_dw/bn -> conv4_2_dw (in-place)
I0424 12:21:41.818868 15978 net.cpp:122] Setting up conv4_2_dw/bn
I0424 12:21:41.818876 15978 net.cpp:129] Top shape: 128 256 7 6 (1376256)
I0424 12:21:41.818878 15978 net.cpp:137] Memory required for data: 5860100096
I0424 12:21:41.818886 15978 layer_factory.hpp:77] Creating layer conv4_2_dw/scale
I0424 12:21:41.818891 15978 net.cpp:84] Creating Layer conv4_2_dw/scale
I0424 12:21:41.818893 15978 net.cpp:406] conv4_2_dw/scale <- conv4_2_dw
I0424 12:21:41.818899 15978 net.cpp:367] conv4_2_dw/scale -> conv4_2_dw (in-place)
I0424 12:21:41.818943 15978 layer_factory.hpp:77] Creating layer conv4_2_dw/scale
I0424 12:21:41.819085 15978 net.cpp:122] Setting up conv4_2_dw/scale
I0424 12:21:41.819094 15978 net.cpp:129] Top shape: 128 256 7 6 (1376256)
I0424 12:21:41.819097 15978 net.cpp:137] Memory required for data: 5865605120
I0424 12:21:41.819102 15978 layer_factory.hpp:77] Creating layer relu4_2_dw
I0424 12:21:41.819106 15978 net.cpp:84] Creating Layer relu4_2_dw
I0424 12:21:41.819109 15978 net.cpp:406] relu4_2_dw <- conv4_2_dw
I0424 12:21:41.819115 15978 net.cpp:367] relu4_2_dw -> conv4_2_dw (in-place)
I0424 12:21:41.819224 15978 net.cpp:122] Setting up relu4_2_dw
I0424 12:21:41.819233 15978 net.cpp:129] Top shape: 128 256 7 6 (1376256)
I0424 12:21:41.819236 15978 net.cpp:137] Memory required for data: 5871110144
I0424 12:21:41.819241 15978 layer_factory.hpp:77] Creating layer conv4_2_em
I0424 12:21:41.819247 15978 net.cpp:84] Creating Layer conv4_2_em
I0424 12:21:41.819252 15978 net.cpp:406] conv4_2_em <- conv4_2_dw
I0424 12:21:41.819257 15978 net.cpp:380] conv4_2_em -> conv4_2_em
I0424 12:21:41.822082 15978 net.cpp:122] Setting up conv4_2_em
I0424 12:21:41.822098 15978 net.cpp:129] Top shape: 128 128 7 6 (688128)
I0424 12:21:41.822103 15978 net.cpp:137] Memory required for data: 5873862656
I0424 12:21:41.822108 15978 layer_factory.hpp:77] Creating layer conv4_2_em/bn
I0424 12:21:41.822114 15978 net.cpp:84] Creating Layer conv4_2_em/bn
I0424 12:21:41.822118 15978 net.cpp:406] conv4_2_em/bn <- conv4_2_em
I0424 12:21:41.822124 15978 net.cpp:367] conv4_2_em/bn -> conv4_2_em (in-place)
I0424 12:21:41.822376 15978 net.cpp:122] Setting up conv4_2_em/bn
I0424 12:21:41.822384 15978 net.cpp:129] Top shape: 128 128 7 6 (688128)
I0424 12:21:41.822387 15978 net.cpp:137] Memory required for data: 5876615168
I0424 12:21:41.822396 15978 layer_factory.hpp:77] Creating layer conv4_2_em/scale
I0424 12:21:41.822401 15978 net.cpp:84] Creating Layer conv4_2_em/scale
I0424 12:21:41.822403 15978 net.cpp:406] conv4_2_em/scale <- conv4_2_em
I0424 12:21:41.822409 15978 net.cpp:367] conv4_2_em/scale -> conv4_2_em (in-place)
I0424 12:21:41.822456 15978 layer_factory.hpp:77] Creating layer conv4_2_em/scale
I0424 12:21:41.822599 15978 net.cpp:122] Setting up conv4_2_em/scale
I0424 12:21:41.822608 15978 net.cpp:129] Top shape: 128 128 7 6 (688128)
I0424 12:21:41.822610 15978 net.cpp:137] Memory required for data: 5879367680
I0424 12:21:41.822618 15978 layer_factory.hpp:77] Creating layer res4_2
I0424 12:21:41.822623 15978 net.cpp:84] Creating Layer res4_2
I0424 12:21:41.822645 15978 net.cpp:406] res4_2 <- res4_1_res4_1_0_split_1
I0424 12:21:41.822651 15978 net.cpp:406] res4_2 <- conv4_2_em
I0424 12:21:41.822657 15978 net.cpp:380] res4_2 -> res4_2
I0424 12:21:41.822690 15978 net.cpp:122] Setting up res4_2
I0424 12:21:41.822696 15978 net.cpp:129] Top shape: 128 128 7 6 (688128)
I0424 12:21:41.822700 15978 net.cpp:137] Memory required for data: 5882120192
I0424 12:21:41.822703 15978 layer_factory.hpp:77] Creating layer conv5_ex
I0424 12:21:41.822711 15978 net.cpp:84] Creating Layer conv5_ex
I0424 12:21:41.822715 15978 net.cpp:406] conv5_ex <- res4_2
I0424 12:21:41.822721 15978 net.cpp:380] conv5_ex -> conv5_ex
I0424 12:21:41.825667 15978 net.cpp:122] Setting up conv5_ex
I0424 12:21:41.825685 15978 net.cpp:129] Top shape: 128 512 7 6 (2752512)
I0424 12:21:41.825688 15978 net.cpp:137] Memory required for data: 5893130240
I0424 12:21:41.825693 15978 layer_factory.hpp:77] Creating layer conv5_ex/bn
I0424 12:21:41.825700 15978 net.cpp:84] Creating Layer conv5_ex/bn
I0424 12:21:41.825704 15978 net.cpp:406] conv5_ex/bn <- conv5_ex
I0424 12:21:41.825711 15978 net.cpp:367] conv5_ex/bn -> conv5_ex (in-place)
I0424 12:21:41.825965 15978 net.cpp:122] Setting up conv5_ex/bn
I0424 12:21:41.825975 15978 net.cpp:129] Top shape: 128 512 7 6 (2752512)
I0424 12:21:41.825978 15978 net.cpp:137] Memory required for data: 5904140288
I0424 12:21:41.825986 15978 layer_factory.hpp:77] Creating layer conv5_ex/scale
I0424 12:21:41.825995 15978 net.cpp:84] Creating Layer conv5_ex/scale
I0424 12:21:41.825999 15978 net.cpp:406] conv5_ex/scale <- conv5_ex
I0424 12:21:41.826004 15978 net.cpp:367] conv5_ex/scale -> conv5_ex (in-place)
I0424 12:21:41.826045 15978 layer_factory.hpp:77] Creating layer conv5_ex/scale
I0424 12:21:41.826196 15978 net.cpp:122] Setting up conv5_ex/scale
I0424 12:21:41.826206 15978 net.cpp:129] Top shape: 128 512 7 6 (2752512)
I0424 12:21:41.826210 15978 net.cpp:137] Memory required for data: 5915150336
I0424 12:21:41.826215 15978 layer_factory.hpp:77] Creating layer relu5_ex
I0424 12:21:41.826220 15978 net.cpp:84] Creating Layer relu5_ex
I0424 12:21:41.826225 15978 net.cpp:406] relu5_ex <- conv5_ex
I0424 12:21:41.826228 15978 net.cpp:367] relu5_ex -> conv5_ex (in-place)
I0424 12:21:41.826346 15978 net.cpp:122] Setting up relu5_ex
I0424 12:21:41.826354 15978 net.cpp:129] Top shape: 128 512 7 6 (2752512)
I0424 12:21:41.826359 15978 net.cpp:137] Memory required for data: 5926160384
I0424 12:21:41.826362 15978 layer_factory.hpp:77] Creating layer conv5_dw
I0424 12:21:41.826369 15978 net.cpp:84] Creating Layer conv5_dw
I0424 12:21:41.826371 15978 net.cpp:406] conv5_dw <- conv5_ex
I0424 12:21:41.826378 15978 net.cpp:380] conv5_dw -> conv5_dw
I0424 12:21:41.826794 15978 net.cpp:122] Setting up conv5_dw
I0424 12:21:41.826804 15978 net.cpp:129] Top shape: 128 512 1 1 (65536)
I0424 12:21:41.826807 15978 net.cpp:137] Memory required for data: 5926422528
I0424 12:21:41.826812 15978 layer_factory.hpp:77] Creating layer conv5_dw/bn
I0424 12:21:41.826818 15978 net.cpp:84] Creating Layer conv5_dw/bn
I0424 12:21:41.826822 15978 net.cpp:406] conv5_dw/bn <- conv5_dw
I0424 12:21:41.826825 15978 net.cpp:367] conv5_dw/bn -> conv5_dw (in-place)
I0424 12:21:41.827061 15978 net.cpp:122] Setting up conv5_dw/bn
I0424 12:21:41.827069 15978 net.cpp:129] Top shape: 128 512 1 1 (65536)
I0424 12:21:41.827072 15978 net.cpp:137] Memory required for data: 5926684672
I0424 12:21:41.827078 15978 layer_factory.hpp:77] Creating layer conv5_dw/scale
I0424 12:21:41.827085 15978 net.cpp:84] Creating Layer conv5_dw/scale
I0424 12:21:41.827087 15978 net.cpp:406] conv5_dw/scale <- conv5_dw
I0424 12:21:41.827092 15978 net.cpp:367] conv5_dw/scale -> conv5_dw (in-place)
I0424 12:21:41.827131 15978 layer_factory.hpp:77] Creating layer conv5_dw/scale
I0424 12:21:41.827275 15978 net.cpp:122] Setting up conv5_dw/scale
I0424 12:21:41.827283 15978 net.cpp:129] Top shape: 128 512 1 1 (65536)
I0424 12:21:41.827286 15978 net.cpp:137] Memory required for data: 5926946816
I0424 12:21:41.827291 15978 layer_factory.hpp:77] Creating layer fc5
I0424 12:21:41.827317 15978 net.cpp:84] Creating Layer fc5
I0424 12:21:41.827322 15978 net.cpp:406] fc5 <- conv5_dw
I0424 12:21:41.827328 15978 net.cpp:380] fc5 -> fc5
I0424 12:21:41.827754 15978 net.cpp:122] Setting up fc5
I0424 12:21:41.827764 15978 net.cpp:129] Top shape: 128 128 (16384)
I0424 12:21:41.827765 15978 net.cpp:137] Memory required for data: 5927012352
I0424 12:21:41.827769 15978 layer_factory.hpp:77] Creating layer fc5/bn
I0424 12:21:41.827775 15978 net.cpp:84] Creating Layer fc5/bn
I0424 12:21:41.827778 15978 net.cpp:406] fc5/bn <- fc5
I0424 12:21:41.827782 15978 net.cpp:367] fc5/bn -> fc5 (in-place)
I0424 12:21:41.828016 15978 net.cpp:122] Setting up fc5/bn
I0424 12:21:41.828022 15978 net.cpp:129] Top shape: 128 128 (16384)
I0424 12:21:41.828025 15978 net.cpp:137] Memory required for data: 5927077888
I0424 12:21:41.828032 15978 layer_factory.hpp:77] Creating layer norm1
I0424 12:21:41.828037 15978 net.cpp:84] Creating Layer norm1
I0424 12:21:41.828040 15978 net.cpp:406] norm1 <- fc5
I0424 12:21:41.828045 15978 net.cpp:380] norm1 -> norm1
I0424 12:21:41.828109 15978 net.cpp:122] Setting up norm1
I0424 12:21:41.828115 15978 net.cpp:129] Top shape: 128 128 1 1 (16384)
I0424 12:21:41.828119 15978 net.cpp:137] Memory required for data: 5927143424
I0424 12:21:41.828122 15978 layer_factory.hpp:77] Creating layer fc6_l2
I0424 12:21:41.828127 15978 net.cpp:84] Creating Layer fc6_l2
I0424 12:21:41.828130 15978 net.cpp:406] fc6_l2 <- norm1
I0424 12:21:41.828136 15978 net.cpp:380] fc6_l2 -> fc6
I0424 12:21:41.837198 15978 net.cpp:122] Setting up fc6_l2
I0424 12:21:41.837213 15978 net.cpp:129] Top shape: 128 10575 (1353600)
I0424 12:21:41.837220 15978 net.cpp:137] Memory required for data: 5932557824
I0424 12:21:41.837226 15978 layer_factory.hpp:77] Creating layer label_specific_margin
I0424 12:21:41.837234 15978 net.cpp:84] Creating Layer label_specific_margin
I0424 12:21:41.837239 15978 net.cpp:406] label_specific_margin <- fc6
I0424 12:21:41.837242 15978 net.cpp:406] label_specific_margin <- label_data_1_split_0
I0424 12:21:41.837249 15978 net.cpp:380] label_specific_margin -> fc6_margin
I0424 12:21:41.837292 15978 net.cpp:122] Setting up label_specific_margin
I0424 12:21:41.837301 15978 net.cpp:129] Top shape: 128 10575 (1353600)
I0424 12:21:41.837303 15978 net.cpp:137] Memory required for data: 5937972224
I0424 12:21:41.837306 15978 layer_factory.hpp:77] Creating layer fc6_margin_label_specific_margin_0_split
I0424 12:21:41.837312 15978 net.cpp:84] Creating Layer fc6_margin_label_specific_margin_0_split
I0424 12:21:41.837316 15978 net.cpp:406] fc6_margin_label_specific_margin_0_split <- fc6_margin
I0424 12:21:41.837321 15978 net.cpp:380] fc6_margin_label_specific_margin_0_split -> fc6_margin_label_specific_margin_0_split_0
I0424 12:21:41.837327 15978 net.cpp:380] fc6_margin_label_specific_margin_0_split -> fc6_margin_label_specific_margin_0_split_1
I0424 12:21:41.837376 15978 net.cpp:122] Setting up fc6_margin_label_specific_margin_0_split
I0424 12:21:41.837384 15978 net.cpp:129] Top shape: 128 10575 (1353600)
I0424 12:21:41.837388 15978 net.cpp:129] Top shape: 128 10575 (1353600)
I0424 12:21:41.837390 15978 net.cpp:137] Memory required for data: 5948801024
I0424 12:21:41.837393 15978 layer_factory.hpp:77] Creating layer fc6_margin_scale
I0424 12:21:41.837401 15978 net.cpp:84] Creating Layer fc6_margin_scale
I0424 12:21:41.837405 15978 net.cpp:406] fc6_margin_scale <- fc6_margin_label_specific_margin_0_split_0
I0424 12:21:41.837411 15978 net.cpp:380] fc6_margin_scale -> fc6_margin_scale
I0424 12:21:41.837548 15978 net.cpp:122] Setting up fc6_margin_scale
I0424 12:21:41.837556 15978 net.cpp:129] Top shape: 128 10575 (1353600)
I0424 12:21:41.837559 15978 net.cpp:137] Memory required for data: 5954215424
I0424 12:21:41.837564 15978 layer_factory.hpp:77] Creating layer softmax_loss
I0424 12:21:41.837571 15978 net.cpp:84] Creating Layer softmax_loss
I0424 12:21:41.837575 15978 net.cpp:406] softmax_loss <- fc6_margin_scale
I0424 12:21:41.837579 15978 net.cpp:406] softmax_loss <- label_data_1_split_1
I0424 12:21:41.837584 15978 net.cpp:380] softmax_loss -> softmax_loss
…
