…
I0423 22:44:02.435070 21205 upgrade_proto.cpp:82] Successfully upgraded batch norm layers using deprecated params.
I0423 22:44:02.436460 21205 net.cpp:51] Initializing net from parameters: 
name: "MobileFaceNet"
state {
  phase: TRAIN
  level: 0
  stage: ""
}
layer {
  name: "data"
  type: "Data"
  top: "data"
  top: "label"
  include {
    phase: TRAIN
  }
  transform_param {
    scale: 0.0078125
    mirror: true
    mean_value: 127.5
  }
  data_param {
    source: "/raid/face_dataset/CASIA-Webface_lmdb/"
    batch_size: 128
    backend: LMDB
  }
}
layer {
  name: "conv1"
  type: "Convolution"
  bottom: "data"
  top: "conv1"
  param {
    lr_mult: 1
    decay_mult: 1
  }
  param {
    lr_mult: 2
    decay_mult: 0
  }
  convolution_param {
    num_output: 64
    pad: 1
    kernel_size: 3
    stride: 2
    weight_filler {
      type: "xavier"
    }
    bias_filler {
      type: "constant"
      value: 0
    }
  }
}
layer {
  name: "conv1/bn"
  type: "BatchNorm"
  bottom: "conv1"
  top: "conv1"
  param {
    lr_mult: 0
    decay_mult: 0
  }
  param {
    lr_mult: 0
    decay_mult: 0
  }
  param {
    lr_mult: 0
    decay_mult: 0
  }
}
layer {
  name: "conv1/scale"
  type: "Scale"
  bottom: "conv1"
  top: "conv1"
  param {
    lr_mult: 1
    decay_mult: 0
  }
  param {
    lr_mult: 1
    decay_mult: 0
  }
  scale_param {
    bias_term: true
  }
}
layer {
  name: "relu1"
  type: "PReLU"
  bottom: "conv1"
  top: "conv1"
}
layer {
  name: "conv1_dw"
  type: "Convolution"
  bottom: "conv1"
  top: "conv1_dw"
  param {
    lr_mult: 1
    decay_mult: 1
  }
  param {
    lr_mult: 0
    decay_mult: 0
  }
  convolution_param {
    num_output: 64
    pad: 1
    kernel_size: 3
    stride: 1
    weight_filler {
      type: "xavier"
    }
    bias_filler {
      type: "constant"
      value: 0
    }
  }
}
layer {
  name: "conv1_dw/bn"
  type: "BatchNorm"
  bottom: "conv1_dw"
  top: "conv1_dw"
  param {
    lr_mult: 0
    decay_mult: 0
  }
  param {
    lr_mult: 0
    decay_mult: 0
  }
  param {
    lr_mult: 0
    decay_mult: 0
  }
}
layer {
  name: "conv1_dw/scale"
  type: "Scale"
  bottom: "conv1_dw"
  top: "conv1_dw"
  param {
    lr_mult: 1
    decay_mult: 0
  }
  param {
    lr_mult: 1
    decay_mult: 0
  }
  scale_param {
    bias_term: true
  }
}
layer {
  name: "relu1_dw"
  type: "PReLU"
  bottom: "conv1_dw"
  top: "conv1_dw"
}
layer {
  name: "conv2_ex"
  type: "Convolution"
  bottom: "conv1_dw"
  top: "conv2_ex"
  param {
    lr_mult: 1
    decay_mult: 1
  }
  convolution_param {
    num_output: 128
    bias_term: false
    pad: 0
    kernel_size: 1
    stride: 1
    weight_filler {
      type: "xavier"
    }
  }
}
layer {
  name: "conv2_ex/bn"
  type: "BatchNorm"
  bottom: "conv2_ex"
  top: "conv2_ex"
  param {
    lr_mult: 0
    decay_mult: 0
  }
  param {
    lr_mult: 0
    decay_mult: 0
  }
  param {
    lr_mult: 0
    decay_mult: 0
  }
}
layer {
  name: "conv2_ex/scale"
  type: "Scale"
  bottom: "conv2_ex"
  top: "conv2_ex"
  param {
    lr_mult: 1
    decay_mult: 0
  }
  param {
    lr_mult: 1
    decay_mult: 0
  }
  scale_param {
    bias_term: true
  }
}
layer {
  name: "relu2_ex"
  type: "PReLU"
  bottom: "conv2_ex"
  top: "conv2_ex"
}
layer {
  name: "conv2_dw"
  type: "DepthwiseConvolution"
  bottom: "conv2_ex"
  top: "conv2_dw"
  param {
    lr_mult: 1
    decay_mult: 1
  }
  param {
    lr_mult: 0
    decay_mult: 0
  }
  convolution_param {
    num_output: 128
    pad: 1
    kernel_size: 3
    group: 128
    stride: 2
    weight_filler {
      type: "xavier"
    }
    bias_filler {
      type: "constant"
      value: 0
    }
    engine: CAFFE
  }
}
layer {
  name: "conv2_dw/bn"
  type: "BatchNorm"
  bottom: "conv2_dw"
  top: "conv2_dw"
  param {
    lr_mult: 0
    decay_mult: 0
  }
  param {
    lr_mult: 0
    decay_mult: 0
  }
  param {
    lr_mult: 0
    decay_mult: 0
  }
}
layer {
  name: "conv2_dw/scale"
  type: "Scale"
  bottom: "conv2_dw"
  top: "conv2_dw"
  param {
    lr_mult: 1
    decay_mult: 0
  }
  param {
    lr_mult: 1
    decay_mult: 0
  }
  scale_param {
    bias_term: true
  }
}
layer {
  name: "relu2_dw"
  type: "PReLU"
  bottom: "conv2_dw"
  top: "conv2_dw"
}
layer {
  name: "conv2_em"
  type: "Convolution"
  bottom: "conv2_dw"
  top: "conv2_em"
  param {
    lr_mult: 1
    decay_mult: 1
  }
  convolution_param {
    num_output: 64
    bias_term: false
    pad: 0
    kernel_size: 1
    stride: 1
    weight_filler {
      type: "xavier"
    }
  }
}
layer {
  name: "conv2_em/bn"
  type: "BatchNorm"
  bottom: "conv2_em"
  top: "conv2_em"
  param {
    lr_mult: 0
    decay_mult: 0
  }
  param {
    lr_mult: 0
    decay_mult: 0
  }
  param {
    lr_mult: 0
    decay_mult: 0
  }
}
layer {
  name: "conv2_em/scale"
  type: "Scale"
  bottom: "conv2_em"
  top: "conv2_em"
  param {
    lr_mult: 1
    decay_mult: 0
  }
  param {
    lr_mult: 1
    decay_mult: 0
  }
  scale_param {
    bias_term: true
  }
}
layer {
  name: "conv2_1_ex"
  type: "Convolution"
  bottom: "conv2_em"
  top: "conv2_1_ex"
  param {
    lr_mult: 1
    decay_mult: 1
  }
  convolution_param {
    num_output: 128
    bias_term: false
    pad: 0
    kernel_size: 1
    stride: 1
    weight_filler {
      type: "xavier"
    }
  }
}
layer {
  name: "conv2_1_ex/bn"
  type: "BatchNorm"
  bottom: "conv2_1_ex"
  top: "conv2_1_ex"
  param {
    lr_mult: 0
    decay_mult: 0
  }
  param {
    lr_mult: 0
    decay_mult: 0
  }
  param {
    lr_mult: 0
    decay_mult: 0
  }
}
layer {
  name: "conv2_1_ex/scale"
  type: "Scale"
  bottom: "conv2_1_ex"
  top: "conv2_1_ex"
  param {
    lr_mult: 1
    decay_mult: 0
  }
  param {
    lr_mult: 1
    decay_mult: 0
  }
  scale_param {
    bias_term: true
  }
}
layer {
  name: "relu2_1_ex"
  type: "PReLU"
  bottom: "conv2_1_ex"
  top: "conv2_1_ex"
}
layer {
  name: "conv2_1_dw"
  type: "DepthwiseConvolution"
  bottom: "conv2_1_ex"
  top: "conv2_1_dw"
  param {
    lr_mult: 1
    decay_mult: 1
  }
  param {
    lr_mult: 0
    decay_mult: 0
  }
  convolution_param {
    num_output: 128
    pad: 1
    kernel_size: 3
    group: 128
    stride: 1
    weight_filler {
      type: "xavier"
    }
    bias_filler {
      type: "constant"
      value: 0
    }
    engine: CAFFE
  }
}
layer {
  name: "conv2_1_dw/bn"
  type: "BatchNorm"
  bottom: "conv2_1_dw"
  top: "conv2_1_dw"
  param {
    lr_mult: 0
    decay_mult: 0
  }
  param {
    lr_mult: 0
    decay_mult: 0
  }
  param {
    lr_mult: 0
    decay_mult: 0
  }
}
layer {
  name: "conv2_1_dw/scale"
  type: "Scale"
  bottom: "conv2_1_dw"
  top: "conv2_1_dw"
  param {
    lr_mult: 1
    decay_mult: 0
  }
  param {
    lr_mult: 1
    decay_mult: 0
  }
  scale_param {
    bias_term: true
  }
}
layer {
  name: "relu2_1_dw"
  type: "PReLU"
  bottom: "conv2_1_dw"
  top: "conv2_1_dw"
}
layer {
  name: "conv2_1_em"
  type: "Convolution"
  bottom: "conv2_1_dw"
  top: "conv2_1_em"
  param {
    lr_mult: 1
    decay_mult: 1
  }
  convolution_param {
    num_output: 64
    bias_term: false
    pad: 0
    kernel_size: 1
    stride: 1
    weight_filler {
      type: "xavier"
    }
  }
}
layer {
  name: "conv2_1_em/bn"
  type: "BatchNorm"
  bottom: "conv2_1_em"
  top: "conv2_1_em"
  param {
    lr_mult: 0
    decay_mult: 0
  }
  param {
    lr_mult: 0
    decay_mult: 0
  }
  param {
    lr_mult: 0
    decay_mult: 0
  }
}
layer {
  name: "conv2_1_em/scale"
  type: "Scale"
  bottom: "conv2_1_em"
  top: "conv2_1_em"
  param {
    lr_mult: 1
    decay_mult: 0
  }
  param {
    lr_mult: 1
    decay_mult: 0
  }
  scale_param {
    bias_term: true
  }
}
layer {
  name: "res2_1"
  type: "Eltwise"
  bottom: "conv2_em"
  bottom: "conv2_1_em"
  top: "res2_1"
}
layer {
  name: "conv2_2_ex"
  type: "Convolution"
  bottom: "res2_1"
  top: "conv2_2_ex"
  param {
    lr_mult: 1
    decay_mult: 1
  }
  convolution_param {
    num_output: 128
    bias_term: false
    pad: 0
    kernel_size: 1
    stride: 1
    weight_filler {
      type: "xavier"
    }
  }
}
layer {
  name: "conv2_2_ex/bn"
  type: "BatchNorm"
  bottom: "conv2_2_ex"
  top: "conv2_2_ex"
  param {
    lr_mult: 0
    decay_mult: 0
  }
  param {
    lr_mult: 0
    decay_mult: 0
  }
  param {
    lr_mult: 0
    decay_mult: 0
  }
}
layer {
  name: "conv2_2_ex/scale"
  type: "Scale"
  bottom: "conv2_2_ex"
  top: "conv2_2_ex"
  param {
    lr_mult: 1
    decay_mult: 0
  }
  param {
    lr_mult: 1
    decay_mult: 0
  }
  scale_param {
    bias_term: true
  }
}
layer {
  name: "relu2_2_ex"
  type: "PReLU"
  bottom: "conv2_2_ex"
  top: "conv2_2_ex"
}
layer {
  name: "conv2_2_dw"
  type: "DepthwiseConvolution"
  bottom: "conv2_2_ex"
  top: "conv2_2_dw"
  param {
    lr_mult: 1
    decay_mult: 1
  }
  param {
    lr_mult: 0
    decay_mult: 0
  }
  convolution_param {
    num_output: 128
    pad: 1
    kernel_size: 3
    group: 128
    stride: 1
    weight_filler {
      type: "xavier"
    }
    bias_filler {
      type: "constant"
      value: 0
    }
    engine: CAFFE
  }
}
layer {
  name: "conv2_2_dw/bn"
  type: "BatchNorm"
  bottom: "conv2_2_dw"
  top: "conv2_2_dw"
  param {
    lr_mult: 0
    decay_mult: 0
  }
  param {
    lr_mult: 0
    decay_mult: 0
  }
  param {
    lr_mult: 0
    decay_mult: 0
  }
}
layer {
  name: "conv2_2_dw/scale"
  type: "Scale"
  bottom: "conv2_2_dw"
  top: "conv2_2_dw"
  param {
    lr_mult: 1
    decay_mult: 0
  }
  param {
    lr_mult: 1
    decay_mult: 0
  }
  scale_param {
    bias_term: true
  }
}
layer {
  name: "relu2_2_dw"
  type: "PReLU"
  bottom: "conv2_2_dw"
  top: "conv2_2_dw"
}
layer {
  name: "conv2_2_em"
  type: "Convolution"
  bottom: "conv2_2_dw"
  top: "conv2_2_em"
  param {
    lr_mult: 1
    decay_mult: 1
  }
  convolution_param {
    num_output: 64
    bias_term: false
    pad: 0
    kernel_size: 1
    stride: 1
    weight_filler {
      type: "xavier"
    }
  }
}
layer {
  name: "conv2_2_em/bn"
  type: "BatchNorm"
  bottom: "conv2_2_em"
  top: "conv2_2_em"
  param {
    lr_mult: 0
    decay_mult: 0
  }
  param {
    lr_mult: 0
    decay_mult: 0
  }
  param {
    lr_mult: 0
    decay_mult: 0
  }
}
layer {
  name: "conv2_2_em/scale"
  type: "Scale"
  bottom: "conv2_2_em"
  top: "conv2_2_em"
  param {
    lr_mult: 1
    decay_mult: 0
  }
  param {
    lr_mult: 1
    decay_mult: 0
  }
  scale_param {
    bias_term: true
  }
}
layer {
  name: "res2_2"
  type: "Eltwise"
  bottom: "res2_1"
  bottom: "conv2_2_em"
  top: "res2_2"
}
layer {
  name: "conv2_3_ex"
  type: "Convolution"
  bottom: "res2_2"
  top: "conv2_3_ex"
  param {
    lr_mult: 1
    decay_mult: 1
  }
  convolution_param {
    num_output: 128
    bias_term: false
    pad: 0
    kernel_size: 1
    stride: 1
    weight_filler {
      type: "xavier"
    }
  }
}
layer {
  name: "conv2_3_ex/bn"
  type: "BatchNorm"
  bottom: "conv2_3_ex"
  top: "conv2_3_ex"
  param {
    lr_mult: 0
    decay_mult: 0
  }
  param {
    lr_mult: 0
    decay_mult: 0
  }
  param {
    lr_mult: 0
    decay_mult: 0
  }
}
layer {
  name: "conv2_3_ex/scale"
  type: "Scale"
  bottom: "conv2_3_ex"
  top: "conv2_3_ex"
  param {
    lr_mult: 1
    decay_mult: 0
  }
  param {
    lr_mult: 1
    decay_mult: 0
  }
  scale_param {
    bias_term: true
  }
}
layer {
  name: "relu2_3_ex"
  type: "PReLU"
  bottom: "conv2_3_ex"
  top: "conv2_3_ex"
}
layer {
  name: "conv2_3_dw"
  type: "DepthwiseConvolution"
  bottom: "conv2_3_ex"
  top: "conv2_3_dw"
  param {
    lr_mult: 1
    decay_mult: 1
  }
  param {
    lr_mult: 0
    decay_mult: 0
  }
  convolution_param {
    num_output: 128
    pad: 1
    kernel_size: 3
    group: 128
    stride: 1
    weight_filler {
      type: "xavier"
    }
    bias_filler {
      type: "constant"
      value: 0
    }
    engine: CAFFE
  }
}
layer {
  name: "conv2_3_dw/bn"
  type: "BatchNorm"
  bottom: "conv2_3_dw"
  top: "conv2_3_dw"
  param {
    lr_mult: 0
    decay_mult: 0
  }
  param {
    lr_mult: 0
    decay_mult: 0
  }
  param {
    lr_mult: 0
    decay_mult: 0
  }
}
layer {
  name: "conv2_3_dw/scale"
  type: "Scale"
  bottom: "conv2_3_dw"
  top: "conv2_3_dw"
  param {
    lr_mult: 1
    decay_mult: 0
  }
  param {
    lr_mult: 1
    decay_mult: 0
  }
  scale_param {
    bias_term: true
  }
}
layer {
  name: "relu2_3_dw"
  type: "PReLU"
  bottom: "conv2_3_dw"
  top: "conv2_3_dw"
}
layer {
  name: "conv2_3_em"
  type: "Convolution"
  bottom: "conv2_3_dw"
  top: "conv2_3_em"
  param {
    lr_mult: 1
    decay_mult: 1
  }
  convolution_param {
    num_output: 64
    bias_term: false
    pad: 0
    kernel_size: 1
    stride: 1
    weight_filler {
      type: "xavier"
    }
  }
}
layer {
  name: "conv2_3_em/bn"
  type: "BatchNorm"
  bottom: "conv2_3_em"
  top: "conv2_3_em"
  param {
    lr_mult: 0
    decay_mult: 0
  }
  param {
    lr_mult: 0
    decay_mult: 0
  }
  param {
    lr_mult: 0
    decay_mult: 0
  }
}
layer {
  name: "conv2_3_em/scale"
  type: "Scale"
  bottom: "conv2_3_em"
  top: "conv2_3_em"
  param {
    lr_mult: 1
    decay_mult: 0
  }
  param {
    lr_mult: 1
    decay_mult: 0
  }
  scale_param {
    bias_term: true
  }
}
layer {
  name: "res2_3"
  type: "Eltwise"
  bottom: "res2_2"
  bottom: "conv2_3_em"
  top: "res2_3"
}
layer {
  name: "conv2_4_ex"
  type: "Convolution"
  bottom: "res2_3"
  top: "conv2_4_ex"
  param {
    lr_mult: 1
    decay_mult: 1
  }
  convolution_param {
    num_output: 128
    bias_term: false
    pad: 0
    kernel_size: 1
    stride: 1
    weight_filler {
      type: "xavier"
    }
  }
}
layer {
  name: "conv2_4_ex/bn"
  type: "BatchNorm"
  bottom: "conv2_4_ex"
  top: "conv2_4_ex"
  param {
    lr_mult: 0
    decay_mult: 0
  }
  param {
    lr_mult: 0
    decay_mult: 0
  }
  param {
    lr_mult: 0
    decay_mult: 0
  }
}
layer {
  name: "conv2_4_ex/scale"
  type: "Scale"
  bottom: "conv2_4_ex"
  top: "conv2_4_ex"
  param {
    lr_mult: 1
    decay_mult: 0
  }
  param {
    lr_mult: 1
    decay_mult: 0
  }
  scale_param {
    bias_term: true
  }
}
layer {
  name: "relu2_4_ex"
  type: "PReLU"
  bottom: "conv2_4_ex"
  top: "conv2_4_ex"
}
layer {
  name: "conv2_4_dw"
  type: "DepthwiseConvolution"
  bottom: "conv2_4_ex"
  top: "conv2_4_dw"
  param {
    lr_mult: 1
    decay_mult: 1
  }
  param {
    lr_mult: 0
    decay_mult: 0
  }
  convolution_param {
    num_output: 128
    pad: 1
    kernel_size: 3
    group: 128
    stride: 1
    weight_filler {
      type: "xavier"
    }
    bias_filler {
      type: "constant"
      value: 0
    }
    engine: CAFFE
  }
}
layer {
  name: "conv2_4_dw/bn"
  type: "BatchNorm"
  bottom: "conv2_4_dw"
  top: "conv2_4_dw"
  param {
    lr_mult: 0
    decay_mult: 0
  }
  param {
    lr_mult: 0
    decay_mult: 0
  }
  param {
    lr_mult: 0
    decay_mult: 0
  }
}
layer {
  name: "conv2_4_dw/scale"
  type: "Scale"
  bottom: "conv2_4_dw"
  top: "conv2_4_dw"
  param {
    lr_mult: 1
    decay_mult: 0
  }
  param {
    lr_mult: 1
    decay_mult: 0
  }
  scale_param {
    bias_term: true
  }
}
layer {
  name: "relu2_4_dw"
  type: "PReLU"
  bottom: "conv2_4_dw"
  top: "conv2_4_dw"
}
layer {
  name: "conv2_4_em"
  type: "Convolution"
  bottom: "conv2_4_dw"
  top: "conv2_4_em"
  param {
    lr_mult: 1
    decay_mult: 1
  }
  convolution_param {
    num_output: 64
    bias_term: false
    pad: 0
    kernel_size: 1
    stride: 1
    weight_filler {
      type: "xavier"
    }
  }
}
layer {
  name: "conv2_4_em/bn"
  type: "BatchNorm"
  bottom: "conv2_4_em"
  top: "conv2_4_em"
  param {
    lr_mult: 0
    decay_mult: 0
  }
  param {
    lr_mult: 0
    decay_mult: 0
  }
  param {
    lr_mult: 0
    decay_mult: 0
  }
}
layer {
  name: "conv2_4_em/scale"
  type: "Scale"
  bottom: "conv2_4_em"
  top: "conv2_4_em"
  param {
    lr_mult: 1
    decay_mult: 0
  }
  param {
    lr_mult: 1
    decay_mult: 0
  }
  scale_param {
    bias_term: true
  }
}
layer {
  name: "res2_4"
  type: "Eltwise"
  bottom: "res2_3"
  bottom: "conv2_4_em"
  top: "res2_4"
}
layer {
  name: "conv3_ex"
  type: "Convolution"
  bottom: "res2_4"
  top: "conv3_ex"
  param {
    lr_mult: 1
    decay_mult: 1
  }
  convolution_param {
    num_output: 256
    bias_term: false
    pad: 0
    kernel_size: 1
    stride: 1
    weight_filler {
      type: "xavier"
    }
  }
}
layer {
  name: "conv3_ex/bn"
  type: "BatchNorm"
  bottom: "conv3_ex"
  top: "conv3_ex"
  param {
    lr_mult: 0
    decay_mult: 0
  }
  param {
    lr_mult: 0
    decay_mult: 0
  }
  param {
    lr_mult: 0
    decay_mult: 0
  }
}
layer {
  name: "conv3_ex/scale"
  type: "Scale"
  bottom: "conv3_ex"
  top: "conv3_ex"
  param {
    lr_mult: 1
    decay_mult: 0
  }
  param {
    lr_mult: 1
    decay_mult: 0
  }
  scale_param {
    bias_term: true
  }
}
layer {
  name: "relu3_ex"
  type: "PReLU"
  bottom: "conv3_ex"
  top: "conv3_ex"
}
layer {
  name: "conv3_dw"
  type: "DepthwiseConvolution"
  bottom: "conv3_ex"
  top: "conv3_dw"
  param {
    lr_mult: 1
    decay_mult: 1
  }
  param {
    lr_mult: 0
    decay_mult: 0
  }
  convolution_param {
    num_output: 256
    pad: 1
    kernel_size: 3
    group: 256
    stride: 2
    weight_filler {
      type: "xavier"
    }
    bias_filler {
      type: "constant"
      value: 0
    }
    engine: CAFFE
  }
}
layer {
  name: "conv3_dw/bn"
  type: "BatchNorm"
  bottom: "conv3_dw"
  top: "conv3_dw"
  param {
    lr_mult: 0
    decay_mult: 0
  }
  param {
    lr_mult: 0
    decay_mult: 0
  }
  param {
    lr_mult: 0
    decay_mult: 0
  }
}
layer {
  name: "conv3_dw/scale"
  type: "Scale"
  bottom: "conv3_dw"
  top: "conv3_dw"
  param {
    lr_mult: 1
    decay_mult: 0
  }
  param {
    lr_mult: 1
    decay_mult: 0
  }
  scale_param {
    bias_term: true
  }
}
layer {
  name: "relu3_dw"
  type: "PReLU"
  bottom: "conv3_dw"
  top: "conv3_dw"
}
layer {
  name: "conv3_em"
  type: "Convolution"
  bottom: "conv3_dw"
  top: "conv3_em"
  param {
    lr_mult: 1
    decay_mult: 1
  }
  convolution_param {
    num_output: 128
    bias_term: false
    pad: 0
    kernel_size: 1
    stride: 1
    weight_filler {
      type: "xavier"
    }
  }
}
layer {
  name: "conv3_em/bn"
  type: "BatchNorm"
  bottom: "conv3_em"
  top: "conv3_em"
  param {
    lr_mult: 0
    decay_mult: 0
  }
  param {
    lr_mult: 0
    decay_mult: 0
  }
  param {
    lr_mult: 0
    decay_mult: 0
  }
}
layer {
  name: "conv3_em/scale"
  type: "Scale"
  bottom: "conv3_em"
  top: "conv3_em"
  param {
    lr_mult: 1
    decay_mult: 0
  }
  param {
    lr_mult: 1
    decay_mult: 0
  }
  scale_param {
    bias_term: true
  }
}
layer {
  name: "conv3_1_ex"
  type: "Convolution"
  bottom: "conv3_em"
  top: "conv3_1_ex"
  param {
    lr_mult: 1
    decay_mult: 1
  }
  convolution_param {
    num_output: 256
    bias_term: false
    pad: 0
    kernel_size: 1
    stride: 1
    weight_filler {
      type: "xavier"
    }
  }
}
layer {
  name: "conv3_1_ex/bn"
  type: "BatchNorm"
  bottom: "conv3_1_ex"
  top: "conv3_1_ex"
  param {
    lr_mult: 0
    decay_mult: 0
  }
  param {
    lr_mult: 0
    decay_mult: 0
  }
  param {
    lr_mult: 0
    decay_mult: 0
  }
}
layer {
  name: "conv3_1_ex/scale"
  type: "Scale"
  bottom: "conv3_1_ex"
  top: "conv3_1_ex"
  param {
    lr_mult: 1
    decay_mult: 0
  }
  param {
    lr_mult: 1
    decay_mult: 0
  }
  scale_param {
    bias_term: true
  }
}
layer {
  name: "relu3_1_ex"
  type: "PReLU"
  bottom: "conv3_1_ex"
  top: "conv3_1_ex"
}
layer {
  name: "conv3_1_dw"
  type: "DepthwiseConvolution"
  bottom: "conv3_1_ex"
  top: "conv3_1_dw"
  param {
    lr_mult: 1
    decay_mult: 1
  }
  param {
    lr_mult: 0
    decay_mult: 0
  }
  convolution_param {
    num_output: 256
    pad: 1
    kernel_size: 3
    group: 256
    stride: 1
    weight_filler {
      type: "xavier"
    }
    bias_filler {
      type: "constant"
      value: 0
    }
    engine: CAFFE
  }
}
layer {
  name: "conv3_1_dw/bn"
  type: "BatchNorm"
  bottom: "conv3_1_dw"
  top: "conv3_1_dw"
  param {
    lr_mult: 0
    decay_mult: 0
  }
  param {
    lr_mult: 0
    decay_mult: 0
  }
  param {
    lr_mult: 0
    decay_mult: 0
  }
}
layer {
  name: "conv3_1_dw/scale"
  type: "Scale"
  bottom: "conv3_1_dw"
  top: "conv3_1_dw"
  param {
    lr_mult: 1
    decay_mult: 0
  }
  param {
    lr_mult: 1
    decay_mult: 0
  }
  scale_param {
    bias_term: true
  }
}
layer {
  name: "relu3_1_dw"
  type: "PReLU"
  bottom: "conv3_1_dw"
  top: "conv3_1_dw"
}
layer {
  name: "conv3_1_em"
  type: "Convolution"
  bottom: "conv3_1_dw"
  top: "conv3_1_em"
  param {
    lr_mult: 1
    decay_mult: 1
  }
  convolution_param {
    num_output: 128
    bias_term: false
    pad: 0
    kernel_size: 1
    stride: 1
    weight_filler {
      type: "xavier"
    }
  }
}
layer {
  name: "conv3_1_em/bn"
  type: "BatchNorm"
  bottom: "conv3_1_em"
  top: "conv3_1_em"
  param {
    lr_mult: 0
    decay_mult: 0
  }
  param {
    lr_mult: 0
    decay_mult: 0
  }
  param {
    lr_mult: 0
    decay_mult: 0
  }
}
layer {
  name: "conv3_1_em/scale"
  type: "Scale"
  bottom: "conv3_1_em"
  top: "conv3_1_em"
  param {
    lr_mult: 1
    decay_mult: 0
  }
  param {
    lr_mult: 1
    decay_mult: 0
  }
  scale_param {
    bias_term: true
  }
}
layer {
  name: "res3_1"
  type: "Eltwise"
  bottom: "conv3_em"
  bottom: "conv3_1_em"
  top: "res3_1"
}
layer {
  name: "conv3_2_ex"
  type: "Convolution"
  bottom: "res3_1"
  top: "conv3_2_ex"
  param {
    lr_mult: 1
    decay_mult: 1
  }
  convolution_param {
    num_output: 256
    bias_term: false
    pad: 0
    kernel_size: 1
    stride: 1
    weight_filler {
      type: "xavier"
    }
  }
}
layer {
  name: "conv3_2_ex/bn"
  type: "BatchNorm"
  bottom: "conv3_2_ex"
  top: "conv3_2_ex"
  param {
    lr_mult: 0
    decay_mult: 0
  }
  param {
    lr_mult: 0
    decay_mult: 0
  }
  param {
    lr_mult: 0
    decay_mult: 0
  }
}
layer {
  name: "conv3_2_ex/scale"
  type: "Scale"
  bottom: "conv3_2_ex"
  top: "conv3_2_ex"
  param {
    lr_mult: 1
    decay_mult: 0
  }
  param {
    lr_mult: 1
    decay_mult: 0
  }
  scale_param {
    bias_term: true
  }
}
layer {
  name: "relu3_2_ex"
  type: "PReLU"
  bottom: "conv3_2_ex"
  top: "conv3_2_ex"
}
layer {
  name: "conv3_2_dw"
  type: "DepthwiseConvolution"
  bottom: "conv3_2_ex"
  top: "conv3_2_dw"
  param {
    lr_mult: 1
    decay_mult: 1
  }
  param {
    lr_mult: 0
    decay_mult: 0
  }
  convolution_param {
    num_output: 256
    pad: 1
    kernel_size: 3
    group: 256
    stride: 1
    weight_filler {
      type: "xavier"
    }
    bias_filler {
      type: "constant"
      value: 0
    }
    engine: CAFFE
  }
}
layer {
  name: "conv3_2_dw/bn"
  type: "BatchNorm"
  bottom: "conv3_2_dw"
  top: "conv3_2_dw"
  param {
    lr_mult: 0
    decay_mult: 0
  }
  param {
    lr_mult: 0
    decay_mult: 0
  }
  param {
    lr_mult: 0
    decay_mult: 0
  }
}
layer {
  name: "conv3_2_dw/scale"
  type: "Scale"
  bottom: "conv3_2_dw"
  top: "conv3_2_dw"
  param {
    lr_mult: 1
    decay_mult: 0
  }
  param {
    lr_mult: 1
    decay_mult: 0
  }
  scale_param {
    bias_term: true
  }
}
layer {
  name: "relu3_2_dw"
  type: "PReLU"
  bottom: "conv3_2_dw"
  top: "conv3_2_dw"
}
layer {
  name: "conv3_2_em"
  type: "Convolution"
  bottom: "conv3_2_dw"
  top: "conv3_2_em"
  param {
    lr_mult: 1
    decay_mult: 1
  }
  convolution_param {
    num_output: 128
    bias_term: false
    pad: 0
    kernel_size: 1
    stride: 1
    weight_filler {
      type: "xavier"
    }
  }
}
layer {
  name: "conv3_2_em/bn"
  type: "BatchNorm"
  bottom: "conv3_2_em"
  top: "conv3_2_em"
  param {
    lr_mult: 0
    decay_mult: 0
  }
  param {
    lr_mult: 0
    decay_mult: 0
  }
  param {
    lr_mult: 0
    decay_mult: 0
  }
}
layer {
  name: "conv3_2_em/scale"
  type: "Scale"
  bottom: "conv3_2_em"
  top: "conv3_2_em"
  param {
    lr_mult: 1
    decay_mult: 0
  }
  param {
    lr_mult: 1
    decay_mult: 0
  }
  scale_param {
    bias_term: true
  }
}
layer {
  name: "res3_2"
  type: "Eltwise"
  bottom: "res3_1"
  bottom: "conv3_2_em"
  top: "res3_2"
}
layer {
  name: "conv3_3_ex"
  type: "Convolution"
  bottom: "res3_2"
  top: "conv3_3_ex"
  param {
    lr_mult: 1
    decay_mult: 1
  }
  convolution_param {
    num_output: 256
    bias_term: false
    pad: 0
    kernel_size: 1
    stride: 1
    weight_filler {
      type: "xavier"
    }
  }
}
layer {
  name: "conv3_3_ex/bn"
  type: "BatchNorm"
  bottom: "conv3_3_ex"
  top: "conv3_3_ex"
  param {
    lr_mult: 0
    decay_mult: 0
  }
  param {
    lr_mult: 0
    decay_mult: 0
  }
  param {
    lr_mult: 0
    decay_mult: 0
  }
}
layer {
  name: "conv3_3_ex/scale"
  type: "Scale"
  bottom: "conv3_3_ex"
  top: "conv3_3_ex"
  param {
    lr_mult: 1
    decay_mult: 0
  }
  param {
    lr_mult: 1
    decay_mult: 0
  }
  scale_param {
    bias_term: true
  }
}
layer {
  name: "relu3_3_ex"
  type: "PReLU"
  bottom: "conv3_3_ex"
  top: "conv3_3_ex"
}
layer {
  name: "conv3_3_dw"
  type: "DepthwiseConvolution"
  bottom: "conv3_3_ex"
  top: "conv3_3_dw"
  param {
    lr_mult: 1
    decay_mult: 1
  }
  param {
    lr_mult: 0
    decay_mult: 0
  }
  convolution_param {
    num_output: 256
    pad: 1
    kernel_size: 3
    group: 256
    stride: 1
    weight_filler {
      type: "xavier"
    }
    bias_filler {
      type: "constant"
      value: 0
    }
    engine: CAFFE
  }
}
layer {
  name: "conv3_3_dw/bn"
  type: "BatchNorm"
  bottom: "conv3_3_dw"
  top: "conv3_3_dw"
  param {
    lr_mult: 0
    decay_mult: 0
  }
  param {
    lr_mult: 0
    decay_mult: 0
  }
  param {
    lr_mult: 0
    decay_mult: 0
  }
}
layer {
  name: "conv3_3_dw/scale"
  type: "Scale"
  bottom: "conv3_3_dw"
  top: "conv3_3_dw"
  param {
    lr_mult: 1
    decay_mult: 0
  }
  param {
    lr_mult: 1
    decay_mult: 0
  }
  scale_param {
    bias_term: true
  }
}
layer {
  name: "relu3_3_dw"
  type: "PReLU"
  bottom: "conv3_3_dw"
  top: "conv3_3_dw"
}
layer {
  name: "conv3_3_em"
  type: "Convolution"
  bottom: "conv3_3_dw"
  top: "conv3_3_em"
  param {
    lr_mult: 1
    decay_mult: 1
  }
  convolution_param {
    num_output: 128
    bias_term: false
    pad: 0
    kernel_size: 1
    stride: 1
    weight_filler {
      type: "xavier"
    }
  }
}
layer {
  name: "conv3_3_em/bn"
  type: "BatchNorm"
  bottom: "conv3_3_em"
  top: "conv3_3_em"
  param {
    lr_mult: 0
    decay_mult: 0
  }
  param {
    lr_mult: 0
    decay_mult: 0
  }
  param {
    lr_mult: 0
    decay_mult: 0
  }
}
layer {
  name: "conv3_3_em/scale"
  type: "Scale"
  bottom: "conv3_3_em"
  top: "conv3_3_em"
  param {
    lr_mult: 1
    decay_mult: 0
  }
  param {
    lr_mult: 1
    decay_mult: 0
  }
  scale_param {
    bias_term: true
  }
}
layer {
  name: "res3_3"
  type: "Eltwise"
  bottom: "res3_2"
  bottom: "conv3_3_em"
  top: "res3_3"
}
layer {
  name: "conv3_4_ex"
  type: "Convolution"
  bottom: "res3_3"
  top: "conv3_4_ex"
  param {
    lr_mult: 1
    decay_mult: 1
  }
  convolution_param {
    num_output: 256
    bias_term: false
    pad: 0
    kernel_size: 1
    stride: 1
    weight_filler {
      type: "xavier"
    }
  }
}
layer {
  name: "conv3_4_ex/bn"
  type: "BatchNorm"
  bottom: "conv3_4_ex"
  top: "conv3_4_ex"
  param {
    lr_mult: 0
    decay_mult: 0
  }
  param {
    lr_mult: 0
    decay_mult: 0
  }
  param {
    lr_mult: 0
    decay_mult: 0
  }
}
layer {
  name: "conv3_4_ex/scale"
  type: "Scale"
  bottom: "conv3_4_ex"
  top: "conv3_4_ex"
  param {
    lr_mult: 1
    decay_mult: 0
  }
  param {
    lr_mult: 1
    decay_mult: 0
  }
  scale_param {
    bias_term: true
  }
}
layer {
  name: "relu3_4_ex"
  type: "PReLU"
  bottom: "conv3_4_ex"
  top: "conv3_4_ex"
}
layer {
  name: "conv3_4_dw"
  type: "DepthwiseConvolution"
  bottom: "conv3_4_ex"
  top: "conv3_4_dw"
  param {
    lr_mult: 1
    decay_mult: 1
  }
  param {
    lr_mult: 0
    decay_mult: 0
  }
  convolution_param {
    num_output: 256
    pad: 1
    kernel_size: 3
    group: 256
    stride: 1
    weight_filler {
      type: "xavier"
    }
    bias_filler {
      type: "constant"
      value: 0
    }
    engine: CAFFE
  }
}
layer {
  name: "conv3_4_dw/bn"
  type: "BatchNorm"
  bottom: "conv3_4_dw"
  top: "conv3_4_dw"
  param {
    lr_mult: 0
    decay_mult: 0
  }
  param {
    lr_mult: 0
    decay_mult: 0
  }
  param {
    lr_mult: 0
    decay_mult: 0
  }
}
layer {
  name: "conv3_4_dw/scale"
  type: "Scale"
  bottom: "conv3_4_dw"
  top: "conv3_4_dw"
  param {
    lr_mult: 1
    decay_mult: 0
  }
  param {
    lr_mult: 1
    decay_mult: 0
  }
  scale_param {
    bias_term: true
  }
}
layer {
  name: "relu3_4_dw"
  type: "PReLU"
  bottom: "conv3_4_dw"
  top: "conv3_4_dw"
}
layer {
  name: "conv3_4_em"
  type: "Convolution"
  bottom: "conv3_4_dw"
  top: "conv3_4_em"
  param {
    lr_mult: 1
    decay_mult: 1
  }
  convolution_param {
    num_output: 128
    bias_term: false
    pad: 0
    kernel_size: 1
    stride: 1
    weight_filler {
      type: "xavier"
    }
  }
}
layer {
  name: "conv3_4_em/bn"
  type: "BatchNorm"
  bottom: "conv3_4_em"
  top: "conv3_4_em"
  param {
    lr_mult: 0
    decay_mult: 0
  }
  param {
    lr_mult: 0
    decay_mult: 0
  }
  param {
    lr_mult: 0
    decay_mult: 0
  }
}
layer {
  name: "conv3_4_em/scale"
  type: "Scale"
  bottom: "conv3_4_em"
  top: "conv3_4_em"
  param {
    lr_mult: 1
    decay_mult: 0
  }
  param {
    lr_mult: 1
    decay_mult: 0
  }
  scale_param {
    bias_term: true
  }
}
layer {
  name: "res3_4"
  type: "Eltwise"
  bottom: "res3_3"
  bottom: "conv3_4_em"
  top: "res3_4"
}
layer {
  name: "conv3_5_ex"
  type: "Convolution"
  bottom: "res3_4"
  top: "conv3_5_ex"
  param {
    lr_mult: 1
    decay_mult: 1
  }
  convolution_param {
    num_output: 256
    bias_term: false
    pad: 0
    kernel_size: 1
    stride: 1
    weight_filler {
      type: "xavier"
    }
  }
}
layer {
  name: "conv3_5_ex/bn"
  type: "BatchNorm"
  bottom: "conv3_5_ex"
  top: "conv3_5_ex"
  param {
    lr_mult: 0
    decay_mult: 0
  }
  param {
    lr_mult: 0
    decay_mult: 0
  }
  param {
    lr_mult: 0
    decay_mult: 0
  }
}
layer {
  name: "conv3_5_ex/scale"
  type: "Scale"
  bottom: "conv3_5_ex"
  top: "conv3_5_ex"
  param {
    lr_mult: 1
    decay_mult: 0
  }
  param {
    lr_mult: 1
    decay_mult: 0
  }
  scale_param {
    bias_term: true
  }
}
layer {
  name: "relu3_5_ex"
  type: "PReLU"
  bottom: "conv3_5_ex"
  top: "conv3_5_ex"
}
layer {
  name: "conv3_5_dw"
  type: "DepthwiseConvolution"
  botto
I0423 22:44:02.437227 21205 layer_factory.hpp:77] Creating layer data
I0423 22:44:02.437340 21205 db_lmdb.cpp:35] Opened lmdb /raid/face_dataset/CASIA-Webface_lmdb/
I0423 22:44:02.437373 21205 net.cpp:84] Creating Layer data
I0423 22:44:02.437381 21205 net.cpp:380] data -> data
I0423 22:44:02.437412 21205 net.cpp:380] data -> label
I0423 22:44:02.438849 21205 data_layer.cpp:45] output data size: 128,3,112,96
I0423 22:44:02.467597 21205 net.cpp:122] Setting up data
I0423 22:44:02.467627 21205 net.cpp:129] Top shape: 128 3 112 96 (4128768)
I0423 22:44:02.467631 21205 net.cpp:129] Top shape: 128 (128)
I0423 22:44:02.467633 21205 net.cpp:137] Memory required for data: 16515584
I0423 22:44:02.467643 21205 layer_factory.hpp:77] Creating layer label_data_1_split
I0423 22:44:02.467655 21205 net.cpp:84] Creating Layer label_data_1_split
I0423 22:44:02.467663 21205 net.cpp:406] label_data_1_split <- label
I0423 22:44:02.467675 21205 net.cpp:380] label_data_1_split -> label_data_1_split_0
I0423 22:44:02.467686 21205 net.cpp:380] label_data_1_split -> label_data_1_split_1
I0423 22:44:02.467692 21205 net.cpp:380] label_data_1_split -> label_data_1_split_2
I0423 22:44:02.467746 21205 net.cpp:122] Setting up label_data_1_split
I0423 22:44:02.467753 21205 net.cpp:129] Top shape: 128 (128)
I0423 22:44:02.467756 21205 net.cpp:129] Top shape: 128 (128)
I0423 22:44:02.467761 21205 net.cpp:129] Top shape: 128 (128)
I0423 22:44:02.467762 21205 net.cpp:137] Memory required for data: 16517120
I0423 22:44:02.467766 21205 layer_factory.hpp:77] Creating layer conv1
I0423 22:44:02.467784 21205 net.cpp:84] Creating Layer conv1
I0423 22:44:02.467795 21205 net.cpp:406] conv1 <- data
I0423 22:44:02.467803 21205 net.cpp:380] conv1 -> conv1
I0423 22:44:03.245367 21205 net.cpp:122] Setting up conv1
I0423 22:44:03.245429 21205 net.cpp:129] Top shape: 128 64 56 48 (22020096)
I0423 22:44:03.245434 21205 net.cpp:137] Memory required for data: 104597504
I0423 22:44:03.245453 21205 layer_factory.hpp:77] Creating layer conv1/bn
I0423 22:44:03.245465 21205 net.cpp:84] Creating Layer conv1/bn
I0423 22:44:03.245471 21205 net.cpp:406] conv1/bn <- conv1
I0423 22:44:03.245478 21205 net.cpp:367] conv1/bn -> conv1 (in-place)
I0423 22:44:03.245684 21205 net.cpp:122] Setting up conv1/bn
I0423 22:44:03.245692 21205 net.cpp:129] Top shape: 128 64 56 48 (22020096)
I0423 22:44:03.245695 21205 net.cpp:137] Memory required for data: 192677888
I0423 22:44:03.245705 21205 layer_factory.hpp:77] Creating layer conv1/scale
I0423 22:44:03.245717 21205 net.cpp:84] Creating Layer conv1/scale
I0423 22:44:03.245719 21205 net.cpp:406] conv1/scale <- conv1
I0423 22:44:03.245724 21205 net.cpp:367] conv1/scale -> conv1 (in-place)
I0423 22:44:03.245766 21205 layer_factory.hpp:77] Creating layer conv1/scale
I0423 22:44:03.245884 21205 net.cpp:122] Setting up conv1/scale
I0423 22:44:03.245892 21205 net.cpp:129] Top shape: 128 64 56 48 (22020096)
I0423 22:44:03.245894 21205 net.cpp:137] Memory required for data: 280758272
I0423 22:44:03.245900 21205 layer_factory.hpp:77] Creating layer relu1
I0423 22:44:03.245904 21205 net.cpp:84] Creating Layer relu1
I0423 22:44:03.245908 21205 net.cpp:406] relu1 <- conv1
I0423 22:44:03.245911 21205 net.cpp:367] relu1 -> conv1 (in-place)
I0423 22:44:03.247018 21205 net.cpp:122] Setting up relu1
I0423 22:44:03.247033 21205 net.cpp:129] Top shape: 128 64 56 48 (22020096)
I0423 22:44:03.247036 21205 net.cpp:137] Memory required for data: 368838656
I0423 22:44:03.247041 21205 layer_factory.hpp:77] Creating layer conv1_dw
I0423 22:44:03.247053 21205 net.cpp:84] Creating Layer conv1_dw
I0423 22:44:03.247057 21205 net.cpp:406] conv1_dw <- conv1
I0423 22:44:03.247062 21205 net.cpp:380] conv1_dw -> conv1_dw
I0423 22:44:03.251330 21205 net.cpp:122] Setting up conv1_dw
I0423 22:44:03.251348 21205 net.cpp:129] Top shape: 128 64 56 48 (22020096)
I0423 22:44:03.251350 21205 net.cpp:137] Memory required for data: 456919040
I0423 22:44:03.251360 21205 layer_factory.hpp:77] Creating layer conv1_dw/bn
I0423 22:44:03.251368 21205 net.cpp:84] Creating Layer conv1_dw/bn
I0423 22:44:03.251372 21205 net.cpp:406] conv1_dw/bn <- conv1_dw
I0423 22:44:03.251377 21205 net.cpp:367] conv1_dw/bn -> conv1_dw (in-place)
I0423 22:44:03.251580 21205 net.cpp:122] Setting up conv1_dw/bn
I0423 22:44:03.251588 21205 net.cpp:129] Top shape: 128 64 56 48 (22020096)
I0423 22:44:03.251591 21205 net.cpp:137] Memory required for data: 544999424
I0423 22:44:03.251598 21205 layer_factory.hpp:77] Creating layer conv1_dw/scale
I0423 22:44:03.251605 21205 net.cpp:84] Creating Layer conv1_dw/scale
I0423 22:44:03.251608 21205 net.cpp:406] conv1_dw/scale <- conv1_dw
I0423 22:44:03.251613 21205 net.cpp:367] conv1_dw/scale -> conv1_dw (in-place)
I0423 22:44:03.251649 21205 layer_factory.hpp:77] Creating layer conv1_dw/scale
I0423 22:44:03.251762 21205 net.cpp:122] Setting up conv1_dw/scale
I0423 22:44:03.251770 21205 net.cpp:129] Top shape: 128 64 56 48 (22020096)
I0423 22:44:03.251772 21205 net.cpp:137] Memory required for data: 633079808
I0423 22:44:03.251777 21205 layer_factory.hpp:77] Creating layer relu1_dw
I0423 22:44:03.251782 21205 net.cpp:84] Creating Layer relu1_dw
I0423 22:44:03.251785 21205 net.cpp:406] relu1_dw <- conv1_dw
I0423 22:44:03.251790 21205 net.cpp:367] relu1_dw -> conv1_dw (in-place)
I0423 22:44:03.251981 21205 net.cpp:122] Setting up relu1_dw
I0423 22:44:03.251987 21205 net.cpp:129] Top shape: 128 64 56 48 (22020096)
I0423 22:44:03.251991 21205 net.cpp:137] Memory required for data: 721160192
I0423 22:44:03.251996 21205 layer_factory.hpp:77] Creating layer conv2_ex
I0423 22:44:03.252002 21205 net.cpp:84] Creating Layer conv2_ex
I0423 22:44:03.252005 21205 net.cpp:406] conv2_ex <- conv1_dw
I0423 22:44:03.252010 21205 net.cpp:380] conv2_ex -> conv2_ex
I0423 22:44:03.255585 21205 net.cpp:122] Setting up conv2_ex
I0423 22:44:03.255620 21205 net.cpp:129] Top shape: 128 128 56 48 (44040192)
I0423 22:44:03.255625 21205 net.cpp:137] Memory required for data: 897320960
I0423 22:44:03.255633 21205 layer_factory.hpp:77] Creating layer conv2_ex/bn
I0423 22:44:03.255640 21205 net.cpp:84] Creating Layer conv2_ex/bn
I0423 22:44:03.255645 21205 net.cpp:406] conv2_ex/bn <- conv2_ex
I0423 22:44:03.255650 21205 net.cpp:367] conv2_ex/bn -> conv2_ex (in-place)
I0423 22:44:03.255846 21205 net.cpp:122] Setting up conv2_ex/bn
I0423 22:44:03.255854 21205 net.cpp:129] Top shape: 128 128 56 48 (44040192)
I0423 22:44:03.255856 21205 net.cpp:137] Memory required for data: 1073481728
I0423 22:44:03.255864 21205 layer_factory.hpp:77] Creating layer conv2_ex/scale
I0423 22:44:03.255869 21205 net.cpp:84] Creating Layer conv2_ex/scale
I0423 22:44:03.255873 21205 net.cpp:406] conv2_ex/scale <- conv2_ex
I0423 22:44:03.255877 21205 net.cpp:367] conv2_ex/scale -> conv2_ex (in-place)
I0423 22:44:03.255913 21205 layer_factory.hpp:77] Creating layer conv2_ex/scale
I0423 22:44:03.256019 21205 net.cpp:122] Setting up conv2_ex/scale
I0423 22:44:03.256027 21205 net.cpp:129] Top shape: 128 128 56 48 (44040192)
I0423 22:44:03.256029 21205 net.cpp:137] Memory required for data: 1249642496
I0423 22:44:03.256036 21205 layer_factory.hpp:77] Creating layer relu2_ex
I0423 22:44:03.256039 21205 net.cpp:84] Creating Layer relu2_ex
I0423 22:44:03.256043 21205 net.cpp:406] relu2_ex <- conv2_ex
I0423 22:44:03.256047 21205 net.cpp:367] relu2_ex -> conv2_ex (in-place)
I0423 22:44:03.257231 21205 net.cpp:122] Setting up relu2_ex
I0423 22:44:03.257246 21205 net.cpp:129] Top shape: 128 128 56 48 (44040192)
I0423 22:44:03.257251 21205 net.cpp:137] Memory required for data: 1425803264
I0423 22:44:03.257256 21205 layer_factory.hpp:77] Creating layer conv2_dw
I0423 22:44:03.257264 21205 net.cpp:84] Creating Layer conv2_dw
I0423 22:44:03.257269 21205 net.cpp:406] conv2_dw <- conv2_ex
I0423 22:44:03.257275 21205 net.cpp:380] conv2_dw -> conv2_dw
I0423 22:44:03.258375 21205 net.cpp:122] Setting up conv2_dw
I0423 22:44:03.258390 21205 net.cpp:129] Top shape: 128 128 28 24 (11010048)
I0423 22:44:03.258394 21205 net.cpp:137] Memory required for data: 1469843456
I0423 22:44:03.258401 21205 layer_factory.hpp:77] Creating layer conv2_dw/bn
I0423 22:44:03.258407 21205 net.cpp:84] Creating Layer conv2_dw/bn
I0423 22:44:03.258410 21205 net.cpp:406] conv2_dw/bn <- conv2_dw
I0423 22:44:03.258415 21205 net.cpp:367] conv2_dw/bn -> conv2_dw (in-place)
I0423 22:44:03.258613 21205 net.cpp:122] Setting up conv2_dw/bn
I0423 22:44:03.258621 21205 net.cpp:129] Top shape: 128 128 28 24 (11010048)
I0423 22:44:03.258625 21205 net.cpp:137] Memory required for data: 1513883648
I0423 22:44:03.258630 21205 layer_factory.hpp:77] Creating layer conv2_dw/scale
I0423 22:44:03.258638 21205 net.cpp:84] Creating Layer conv2_dw/scale
I0423 22:44:03.258641 21205 net.cpp:406] conv2_dw/scale <- conv2_dw
I0423 22:44:03.258646 21205 net.cpp:367] conv2_dw/scale -> conv2_dw (in-place)
I0423 22:44:03.258682 21205 layer_factory.hpp:77] Creating layer conv2_dw/scale
I0423 22:44:03.258786 21205 net.cpp:122] Setting up conv2_dw/scale
I0423 22:44:03.258793 21205 net.cpp:129] Top shape: 128 128 28 24 (11010048)
I0423 22:44:03.258795 21205 net.cpp:137] Memory required for data: 1557923840
I0423 22:44:03.258801 21205 layer_factory.hpp:77] Creating layer relu2_dw
I0423 22:44:03.258805 21205 net.cpp:84] Creating Layer relu2_dw
I0423 22:44:03.258808 21205 net.cpp:406] relu2_dw <- conv2_dw
I0423 22:44:03.258812 21205 net.cpp:367] relu2_dw -> conv2_dw (in-place)
I0423 22:44:03.258949 21205 net.cpp:122] Setting up relu2_dw
I0423 22:44:03.258957 21205 net.cpp:129] Top shape: 128 128 28 24 (11010048)
I0423 22:44:03.258960 21205 net.cpp:137] Memory required for data: 1601964032
I0423 22:44:03.258965 21205 layer_factory.hpp:77] Creating layer conv2_em
I0423 22:44:03.258971 21205 net.cpp:84] Creating Layer conv2_em
I0423 22:44:03.258975 21205 net.cpp:406] conv2_em <- conv2_dw
I0423 22:44:03.258980 21205 net.cpp:380] conv2_em -> conv2_em
I0423 22:44:03.261431 21205 net.cpp:122] Setting up conv2_em
I0423 22:44:03.261466 21205 net.cpp:129] Top shape: 128 64 28 24 (5505024)
I0423 22:44:03.261471 21205 net.cpp:137] Memory required for data: 1623984128
I0423 22:44:03.261477 21205 layer_factory.hpp:77] Creating layer conv2_em/bn
I0423 22:44:03.261483 21205 net.cpp:84] Creating Layer conv2_em/bn
I0423 22:44:03.261487 21205 net.cpp:406] conv2_em/bn <- conv2_em
I0423 22:44:03.261492 21205 net.cpp:367] conv2_em/bn -> conv2_em (in-place)
I0423 22:44:03.261699 21205 net.cpp:122] Setting up conv2_em/bn
I0423 22:44:03.261708 21205 net.cpp:129] Top shape: 128 64 28 24 (5505024)
I0423 22:44:03.261710 21205 net.cpp:137] Memory required for data: 1646004224
I0423 22:44:03.261721 21205 layer_factory.hpp:77] Creating layer conv2_em/scale
I0423 22:44:03.261729 21205 net.cpp:84] Creating Layer conv2_em/scale
I0423 22:44:03.261732 21205 net.cpp:406] conv2_em/scale <- conv2_em
I0423 22:44:03.261736 21205 net.cpp:367] conv2_em/scale -> conv2_em (in-place)
I0423 22:44:03.261775 21205 layer_factory.hpp:77] Creating layer conv2_em/scale
I0423 22:44:03.261889 21205 net.cpp:122] Setting up conv2_em/scale
I0423 22:44:03.261898 21205 net.cpp:129] Top shape: 128 64 28 24 (5505024)
I0423 22:44:03.261899 21205 net.cpp:137] Memory required for data: 1668024320
I0423 22:44:03.261905 21205 layer_factory.hpp:77] Creating layer conv2_em_conv2_em/scale_0_split
I0423 22:44:03.261910 21205 net.cpp:84] Creating Layer conv2_em_conv2_em/scale_0_split
I0423 22:44:03.261914 21205 net.cpp:406] conv2_em_conv2_em/scale_0_split <- conv2_em
I0423 22:44:03.261917 21205 net.cpp:380] conv2_em_conv2_em/scale_0_split -> conv2_em_conv2_em/scale_0_split_0
I0423 22:44:03.261924 21205 net.cpp:380] conv2_em_conv2_em/scale_0_split -> conv2_em_conv2_em/scale_0_split_1
I0423 22:44:03.261962 21205 net.cpp:122] Setting up conv2_em_conv2_em/scale_0_split
I0423 22:44:03.261970 21205 net.cpp:129] Top shape: 128 64 28 24 (5505024)
I0423 22:44:03.261973 21205 net.cpp:129] Top shape: 128 64 28 24 (5505024)
I0423 22:44:03.261976 21205 net.cpp:137] Memory required for data: 1712064512
I0423 22:44:03.261978 21205 layer_factory.hpp:77] Creating layer conv2_1_ex
I0423 22:44:03.261986 21205 net.cpp:84] Creating Layer conv2_1_ex
I0423 22:44:03.261989 21205 net.cpp:406] conv2_1_ex <- conv2_em_conv2_em/scale_0_split_0
I0423 22:44:03.261994 21205 net.cpp:380] conv2_1_ex -> conv2_1_ex
I0423 22:44:03.264420 21205 net.cpp:122] Setting up conv2_1_ex
I0423 22:44:03.264434 21205 net.cpp:129] Top shape: 128 128 28 24 (11010048)
I0423 22:44:03.264437 21205 net.cpp:137] Memory required for data: 1756104704
I0423 22:44:03.264444 21205 layer_factory.hpp:77] Creating layer conv2_1_ex/bn
I0423 22:44:03.264451 21205 net.cpp:84] Creating Layer conv2_1_ex/bn
I0423 22:44:03.264453 21205 net.cpp:406] conv2_1_ex/bn <- conv2_1_ex
I0423 22:44:03.264458 21205 net.cpp:367] conv2_1_ex/bn -> conv2_1_ex (in-place)
I0423 22:44:03.264658 21205 net.cpp:122] Setting up conv2_1_ex/bn
I0423 22:44:03.264667 21205 net.cpp:129] Top shape: 128 128 28 24 (11010048)
I0423 22:44:03.264669 21205 net.cpp:137] Memory required for data: 1800144896
I0423 22:44:03.264677 21205 layer_factory.hpp:77] Creating layer conv2_1_ex/scale
I0423 22:44:03.264683 21205 net.cpp:84] Creating Layer conv2_1_ex/scale
I0423 22:44:03.264686 21205 net.cpp:406] conv2_1_ex/scale <- conv2_1_ex
I0423 22:44:03.264690 21205 net.cpp:367] conv2_1_ex/scale -> conv2_1_ex (in-place)
I0423 22:44:03.264727 21205 layer_factory.hpp:77] Creating layer conv2_1_ex/scale
I0423 22:44:03.264837 21205 net.cpp:122] Setting up conv2_1_ex/scale
I0423 22:44:03.264845 21205 net.cpp:129] Top shape: 128 128 28 24 (11010048)
I0423 22:44:03.264847 21205 net.cpp:137] Memory required for data: 1844185088
I0423 22:44:03.264853 21205 layer_factory.hpp:77] Creating layer relu2_1_ex
I0423 22:44:03.264858 21205 net.cpp:84] Creating Layer relu2_1_ex
I0423 22:44:03.264860 21205 net.cpp:406] relu2_1_ex <- conv2_1_ex
I0423 22:44:03.264864 21205 net.cpp:367] relu2_1_ex -> conv2_1_ex (in-place)
I0423 22:44:03.265004 21205 net.cpp:122] Setting up relu2_1_ex
I0423 22:44:03.265030 21205 net.cpp:129] Top shape: 128 128 28 24 (11010048)
I0423 22:44:03.265033 21205 net.cpp:137] Memory required for data: 1888225280
I0423 22:44:03.265038 21205 layer_factory.hpp:77] Creating layer conv2_1_dw
I0423 22:44:03.265045 21205 net.cpp:84] Creating Layer conv2_1_dw
I0423 22:44:03.265048 21205 net.cpp:406] conv2_1_dw <- conv2_1_ex
I0423 22:44:03.265053 21205 net.cpp:380] conv2_1_dw -> conv2_1_dw
I0423 22:44:03.265316 21205 net.cpp:122] Setting up conv2_1_dw
I0423 22:44:03.265326 21205 net.cpp:129] Top shape: 128 128 28 24 (11010048)
I0423 22:44:03.265328 21205 net.cpp:137] Memory required for data: 1932265472
I0423 22:44:03.265334 21205 layer_factory.hpp:77] Creating layer conv2_1_dw/bn
I0423 22:44:03.265339 21205 net.cpp:84] Creating Layer conv2_1_dw/bn
I0423 22:44:03.265342 21205 net.cpp:406] conv2_1_dw/bn <- conv2_1_dw
I0423 22:44:03.265348 21205 net.cpp:367] conv2_1_dw/bn -> conv2_1_dw (in-place)
I0423 22:44:03.265539 21205 net.cpp:122] Setting up conv2_1_dw/bn
I0423 22:44:03.265547 21205 net.cpp:129] Top shape: 128 128 28 24 (11010048)
I0423 22:44:03.265549 21205 net.cpp:137] Memory required for data: 1976305664
I0423 22:44:03.265556 21205 layer_factory.hpp:77] Creating layer conv2_1_dw/scale
I0423 22:44:03.265561 21205 net.cpp:84] Creating Layer conv2_1_dw/scale
I0423 22:44:03.265564 21205 net.cpp:406] conv2_1_dw/scale <- conv2_1_dw
I0423 22:44:03.265568 21205 net.cpp:367] conv2_1_dw/scale -> conv2_1_dw (in-place)
I0423 22:44:03.265604 21205 layer_factory.hpp:77] Creating layer conv2_1_dw/scale
I0423 22:44:03.265712 21205 net.cpp:122] Setting up conv2_1_dw/scale
I0423 22:44:03.265718 21205 net.cpp:129] Top shape: 128 128 28 24 (11010048)
I0423 22:44:03.265720 21205 net.cpp:137] Memory required for data: 2020345856
I0423 22:44:03.265727 21205 layer_factory.hpp:77] Creating layer relu2_1_dw
I0423 22:44:03.265730 21205 net.cpp:84] Creating Layer relu2_1_dw
I0423 22:44:03.265733 21205 net.cpp:406] relu2_1_dw <- conv2_1_dw
I0423 22:44:03.265738 21205 net.cpp:367] relu2_1_dw -> conv2_1_dw (in-place)
I0423 22:44:03.265877 21205 net.cpp:122] Setting up relu2_1_dw
I0423 22:44:03.265885 21205 net.cpp:129] Top shape: 128 128 28 24 (11010048)
I0423 22:44:03.265888 21205 net.cpp:137] Memory required for data: 2064386048
I0423 22:44:03.265892 21205 layer_factory.hpp:77] Creating layer conv2_1_em
I0423 22:44:03.265900 21205 net.cpp:84] Creating Layer conv2_1_em
I0423 22:44:03.265902 21205 net.cpp:406] conv2_1_em <- conv2_1_dw
I0423 22:44:03.265908 21205 net.cpp:380] conv2_1_em -> conv2_1_em
I0423 22:44:03.268656 21205 net.cpp:122] Setting up conv2_1_em
I0423 22:44:03.268673 21205 net.cpp:129] Top shape: 128 64 28 24 (5505024)
I0423 22:44:03.268676 21205 net.cpp:137] Memory required for data: 2086406144
I0423 22:44:03.268682 21205 layer_factory.hpp:77] Creating layer conv2_1_em/bn
I0423 22:44:03.268688 21205 net.cpp:84] Creating Layer conv2_1_em/bn
I0423 22:44:03.268692 21205 net.cpp:406] conv2_1_em/bn <- conv2_1_em
I0423 22:44:03.268697 21205 net.cpp:367] conv2_1_em/bn -> conv2_1_em (in-place)
I0423 22:44:03.268908 21205 net.cpp:122] Setting up conv2_1_em/bn
I0423 22:44:03.268916 21205 net.cpp:129] Top shape: 128 64 28 24 (5505024)
I0423 22:44:03.268919 21205 net.cpp:137] Memory required for data: 2108426240
I0423 22:44:03.268926 21205 layer_factory.hpp:77] Creating layer conv2_1_em/scale
I0423 22:44:03.268934 21205 net.cpp:84] Creating Layer conv2_1_em/scale
I0423 22:44:03.268939 21205 net.cpp:406] conv2_1_em/scale <- conv2_1_em
I0423 22:44:03.268944 21205 net.cpp:367] conv2_1_em/scale -> conv2_1_em (in-place)
I0423 22:44:03.268982 21205 layer_factory.hpp:77] Creating layer conv2_1_em/scale
I0423 22:44:03.269101 21205 net.cpp:122] Setting up conv2_1_em/scale
I0423 22:44:03.269109 21205 net.cpp:129] Top shape: 128 64 28 24 (5505024)
I0423 22:44:03.269111 21205 net.cpp:137] Memory required for data: 2130446336
I0423 22:44:03.269117 21205 layer_factory.hpp:77] Creating layer res2_1
I0423 22:44:03.269122 21205 net.cpp:84] Creating Layer res2_1
I0423 22:44:03.269125 21205 net.cpp:406] res2_1 <- conv2_em_conv2_em/scale_0_split_1
I0423 22:44:03.269150 21205 net.cpp:406] res2_1 <- conv2_1_em
I0423 22:44:03.269155 21205 net.cpp:380] res2_1 -> res2_1
I0423 22:44:03.269186 21205 net.cpp:122] Setting up res2_1
I0423 22:44:03.269193 21205 net.cpp:129] Top shape: 128 64 28 24 (5505024)
I0423 22:44:03.269196 21205 net.cpp:137] Memory required for data: 2152466432
I0423 22:44:03.269199 21205 layer_factory.hpp:77] Creating layer res2_1_res2_1_0_split
I0423 22:44:03.269204 21205 net.cpp:84] Creating Layer res2_1_res2_1_0_split
I0423 22:44:03.269207 21205 net.cpp:406] res2_1_res2_1_0_split <- res2_1
I0423 22:44:03.269212 21205 net.cpp:380] res2_1_res2_1_0_split -> res2_1_res2_1_0_split_0
I0423 22:44:03.269230 21205 net.cpp:380] res2_1_res2_1_0_split -> res2_1_res2_1_0_split_1
I0423 22:44:03.269273 21205 net.cpp:122] Setting up res2_1_res2_1_0_split
I0423 22:44:03.269279 21205 net.cpp:129] Top shape: 128 64 28 24 (5505024)
I0423 22:44:03.269284 21205 net.cpp:129] Top shape: 128 64 28 24 (5505024)
I0423 22:44:03.269287 21205 net.cpp:137] Memory required for data: 2196506624
I0423 22:44:03.269290 21205 layer_factory.hpp:77] Creating layer conv2_2_ex
I0423 22:44:03.269299 21205 net.cpp:84] Creating Layer conv2_2_ex
I0423 22:44:03.269302 21205 net.cpp:406] conv2_2_ex <- res2_1_res2_1_0_split_0
I0423 22:44:03.269309 21205 net.cpp:380] conv2_2_ex -> conv2_2_ex
I0423 22:44:03.271854 21205 net.cpp:122] Setting up conv2_2_ex
I0423 22:44:03.271869 21205 net.cpp:129] Top shape: 128 128 28 24 (11010048)
I0423 22:44:03.271873 21205 net.cpp:137] Memory required for data: 2240546816
I0423 22:44:03.271879 21205 layer_factory.hpp:77] Creating layer conv2_2_ex/bn
I0423 22:44:03.271885 21205 net.cpp:84] Creating Layer conv2_2_ex/bn
I0423 22:44:03.271889 21205 net.cpp:406] conv2_2_ex/bn <- conv2_2_ex
I0423 22:44:03.271894 21205 net.cpp:367] conv2_2_ex/bn -> conv2_2_ex (in-place)
I0423 22:44:03.272100 21205 net.cpp:122] Setting up conv2_2_ex/bn
I0423 22:44:03.272109 21205 net.cpp:129] Top shape: 128 128 28 24 (11010048)
I0423 22:44:03.272111 21205 net.cpp:137] Memory required for data: 2284587008
I0423 22:44:03.272119 21205 layer_factory.hpp:77] Creating layer conv2_2_ex/scale
I0423 22:44:03.272125 21205 net.cpp:84] Creating Layer conv2_2_ex/scale
I0423 22:44:03.272128 21205 net.cpp:406] conv2_2_ex/scale <- conv2_2_ex
I0423 22:44:03.272132 21205 net.cpp:367] conv2_2_ex/scale -> conv2_2_ex (in-place)
I0423 22:44:03.272169 21205 layer_factory.hpp:77] Creating layer conv2_2_ex/scale
I0423 22:44:03.272282 21205 net.cpp:122] Setting up conv2_2_ex/scale
I0423 22:44:03.272289 21205 net.cpp:129] Top shape: 128 128 28 24 (11010048)
I0423 22:44:03.272292 21205 net.cpp:137] Memory required for data: 2328627200
I0423 22:44:03.272298 21205 layer_factory.hpp:77] Creating layer relu2_2_ex
I0423 22:44:03.272302 21205 net.cpp:84] Creating Layer relu2_2_ex
I0423 22:44:03.272305 21205 net.cpp:406] relu2_2_ex <- conv2_2_ex
I0423 22:44:03.272310 21205 net.cpp:367] relu2_2_ex -> conv2_2_ex (in-place)
I0423 22:44:03.272454 21205 net.cpp:122] Setting up relu2_2_ex
I0423 22:44:03.272461 21205 net.cpp:129] Top shape: 128 128 28 24 (11010048)
I0423 22:44:03.272464 21205 net.cpp:137] Memory required for data: 2372667392
I0423 22:44:03.272473 21205 layer_factory.hpp:77] Creating layer conv2_2_dw
I0423 22:44:03.272481 21205 net.cpp:84] Creating Layer conv2_2_dw
I0423 22:44:03.272485 21205 net.cpp:406] conv2_2_dw <- conv2_2_ex
I0423 22:44:03.272490 21205 net.cpp:380] conv2_2_dw -> conv2_2_dw
I0423 22:44:03.272740 21205 net.cpp:122] Setting up conv2_2_dw
I0423 22:44:03.272749 21205 net.cpp:129] Top shape: 128 128 28 24 (11010048)
I0423 22:44:03.272752 21205 net.cpp:137] Memory required for data: 2416707584
I0423 22:44:03.272758 21205 layer_factory.hpp:77] Creating layer conv2_2_dw/bn
I0423 22:44:03.272763 21205 net.cpp:84] Creating Layer conv2_2_dw/bn
I0423 22:44:03.272765 21205 net.cpp:406] conv2_2_dw/bn <- conv2_2_dw
I0423 22:44:03.272769 21205 net.cpp:367] conv2_2_dw/bn -> conv2_2_dw (in-place)
I0423 22:44:03.272960 21205 net.cpp:122] Setting up conv2_2_dw/bn
I0423 22:44:03.272967 21205 net.cpp:129] Top shape: 128 128 28 24 (11010048)
I0423 22:44:03.272989 21205 net.cpp:137] Memory required for data: 2460747776
I0423 22:44:03.272996 21205 layer_factory.hpp:77] Creating layer conv2_2_dw/scale
I0423 22:44:03.273001 21205 net.cpp:84] Creating Layer conv2_2_dw/scale
I0423 22:44:03.273005 21205 net.cpp:406] conv2_2_dw/scale <- conv2_2_dw
I0423 22:44:03.273010 21205 net.cpp:367] conv2_2_dw/scale -> conv2_2_dw (in-place)
I0423 22:44:03.273049 21205 layer_factory.hpp:77] Creating layer conv2_2_dw/scale
I0423 22:44:03.273160 21205 net.cpp:122] Setting up conv2_2_dw/scale
I0423 22:44:03.273167 21205 net.cpp:129] Top shape: 128 128 28 24 (11010048)
I0423 22:44:03.273170 21205 net.cpp:137] Memory required for data: 2504787968
I0423 22:44:03.273175 21205 layer_factory.hpp:77] Creating layer relu2_2_dw
I0423 22:44:03.273180 21205 net.cpp:84] Creating Layer relu2_2_dw
I0423 22:44:03.273182 21205 net.cpp:406] relu2_2_dw <- conv2_2_dw
I0423 22:44:03.273187 21205 net.cpp:367] relu2_2_dw -> conv2_2_dw (in-place)
I0423 22:44:03.274212 21205 net.cpp:122] Setting up relu2_2_dw
I0423 22:44:03.274227 21205 net.cpp:129] Top shape: 128 128 28 24 (11010048)
I0423 22:44:03.274230 21205 net.cpp:137] Memory required for data: 2548828160
I0423 22:44:03.274236 21205 layer_factory.hpp:77] Creating layer conv2_2_em
I0423 22:44:03.274245 21205 net.cpp:84] Creating Layer conv2_2_em
I0423 22:44:03.274248 21205 net.cpp:406] conv2_2_em <- conv2_2_dw
I0423 22:44:03.274253 21205 net.cpp:380] conv2_2_em -> conv2_2_em
I0423 22:44:03.276527 21205 net.cpp:122] Setting up conv2_2_em
I0423 22:44:03.276543 21205 net.cpp:129] Top shape: 128 64 28 24 (5505024)
I0423 22:44:03.276546 21205 net.cpp:137] Memory required for data: 2570848256
I0423 22:44:03.276552 21205 layer_factory.hpp:77] Creating layer conv2_2_em/bn
I0423 22:44:03.276559 21205 net.cpp:84] Creating Layer conv2_2_em/bn
I0423 22:44:03.276563 21205 net.cpp:406] conv2_2_em/bn <- conv2_2_em
I0423 22:44:03.276568 21205 net.cpp:367] conv2_2_em/bn -> conv2_2_em (in-place)
I0423 22:44:03.276782 21205 net.cpp:122] Setting up conv2_2_em/bn
I0423 22:44:03.276792 21205 net.cpp:129] Top shape: 128 64 28 24 (5505024)
I0423 22:44:03.276793 21205 net.cpp:137] Memory required for data: 2592868352
I0423 22:44:03.276800 21205 layer_factory.hpp:77] Creating layer conv2_2_em/scale
I0423 22:44:03.276806 21205 net.cpp:84] Creating Layer conv2_2_em/scale
I0423 22:44:03.276811 21205 net.cpp:406] conv2_2_em/scale <- conv2_2_em
I0423 22:44:03.276815 21205 net.cpp:367] conv2_2_em/scale -> conv2_2_em (in-place)
I0423 22:44:03.276854 21205 layer_factory.hpp:77] Creating layer conv2_2_em/scale
I0423 22:44:03.276974 21205 net.cpp:122] Setting up conv2_2_em/scale
I0423 22:44:03.276983 21205 net.cpp:129] Top shape: 128 64 28 24 (5505024)
I0423 22:44:03.276984 21205 net.cpp:137] Memory required for data: 2614888448
I0423 22:44:03.276990 21205 layer_factory.hpp:77] Creating layer res2_2
I0423 22:44:03.276995 21205 net.cpp:84] Creating Layer res2_2
I0423 22:44:03.276998 21205 net.cpp:406] res2_2 <- res2_1_res2_1_0_split_1
I0423 22:44:03.277003 21205 net.cpp:406] res2_2 <- conv2_2_em
I0423 22:44:03.277006 21205 net.cpp:380] res2_2 -> res2_2
I0423 22:44:03.277032 21205 net.cpp:122] Setting up res2_2
I0423 22:44:03.277040 21205 net.cpp:129] Top shape: 128 64 28 24 (5505024)
I0423 22:44:03.277042 21205 net.cpp:137] Memory required for data: 2636908544
I0423 22:44:03.277045 21205 layer_factory.hpp:77] Creating layer res2_2_res2_2_0_split
I0423 22:44:03.277050 21205 net.cpp:84] Creating Layer res2_2_res2_2_0_split
I0423 22:44:03.277053 21205 net.cpp:406] res2_2_res2_2_0_split <- res2_2
I0423 22:44:03.277057 21205 net.cpp:380] res2_2_res2_2_0_split -> res2_2_res2_2_0_split_0
I0423 22:44:03.277063 21205 net.cpp:380] res2_2_res2_2_0_split -> res2_2_res2_2_0_split_1
I0423 22:44:03.277099 21205 net.cpp:122] Setting up res2_2_res2_2_0_split
I0423 22:44:03.277106 21205 net.cpp:129] Top shape: 128 64 28 24 (5505024)
I0423 22:44:03.277109 21205 net.cpp:129] Top shape: 128 64 28 24 (5505024)
I0423 22:44:03.277112 21205 net.cpp:137] Memory required for data: 2680948736
I0423 22:44:03.277133 21205 layer_factory.hpp:77] Creating layer conv2_3_ex
I0423 22:44:03.277143 21205 net.cpp:84] Creating Layer conv2_3_ex
I0423 22:44:03.277146 21205 net.cpp:406] conv2_3_ex <- res2_2_res2_2_0_split_0
I0423 22:44:03.277151 21205 net.cpp:380] conv2_3_ex -> conv2_3_ex
I0423 22:44:03.279430 21205 net.cpp:122] Setting up conv2_3_ex
I0423 22:44:03.279446 21205 net.cpp:129] Top shape: 128 128 28 24 (11010048)
I0423 22:44:03.279450 21205 net.cpp:137] Memory required for data: 2724988928
I0423 22:44:03.279455 21205 layer_factory.hpp:77] Creating layer conv2_3_ex/bn
I0423 22:44:03.279461 21205 net.cpp:84] Creating Layer conv2_3_ex/bn
I0423 22:44:03.279465 21205 net.cpp:406] conv2_3_ex/bn <- conv2_3_ex
I0423 22:44:03.279470 21205 net.cpp:367] conv2_3_ex/bn -> conv2_3_ex (in-place)
I0423 22:44:03.279676 21205 net.cpp:122] Setting up conv2_3_ex/bn
I0423 22:44:03.279685 21205 net.cpp:129] Top shape: 128 128 28 24 (11010048)
I0423 22:44:03.279687 21205 net.cpp:137] Memory required for data: 2769029120
I0423 22:44:03.279695 21205 layer_factory.hpp:77] Creating layer conv2_3_ex/scale
I0423 22:44:03.279700 21205 net.cpp:84] Creating Layer conv2_3_ex/scale
I0423 22:44:03.279703 21205 net.cpp:406] conv2_3_ex/scale <- conv2_3_ex
I0423 22:44:03.279707 21205 net.cpp:367] conv2_3_ex/scale -> conv2_3_ex (in-place)
I0423 22:44:03.279745 21205 layer_factory.hpp:77] Creating layer conv2_3_ex/scale
I0423 22:44:03.279860 21205 net.cpp:122] Setting up conv2_3_ex/scale
I0423 22:44:03.279867 21205 net.cpp:129] Top shape: 128 128 28 24 (11010048)
I0423 22:44:03.279870 21205 net.cpp:137] Memory required for data: 2813069312
I0423 22:44:03.279876 21205 layer_factory.hpp:77] Creating layer relu2_3_ex
I0423 22:44:03.279881 21205 net.cpp:84] Creating Layer relu2_3_ex
I0423 22:44:03.279883 21205 net.cpp:406] relu2_3_ex <- conv2_3_ex
I0423 22:44:03.279887 21205 net.cpp:367] relu2_3_ex -> conv2_3_ex (in-place)
I0423 22:44:03.280028 21205 net.cpp:122] Setting up relu2_3_ex
I0423 22:44:03.280036 21205 net.cpp:129] Top shape: 128 128 28 24 (11010048)
I0423 22:44:03.280040 21205 net.cpp:137] Memory required for data: 2857109504
I0423 22:44:03.280043 21205 layer_factory.hpp:77] Creating layer conv2_3_dw
I0423 22:44:03.280050 21205 net.cpp:84] Creating Layer conv2_3_dw
I0423 22:44:03.280055 21205 net.cpp:406] conv2_3_dw <- conv2_3_ex
I0423 22:44:03.280058 21205 net.cpp:380] conv2_3_dw -> conv2_3_dw
I0423 22:44:03.280314 21205 net.cpp:122] Setting up conv2_3_dw
I0423 22:44:03.280323 21205 net.cpp:129] Top shape: 128 128 28 24 (11010048)
I0423 22:44:03.280326 21205 net.cpp:137] Memory required for data: 2901149696
I0423 22:44:03.280331 21205 layer_factory.hpp:77] Creating layer conv2_3_dw/bn
I0423 22:44:03.280336 21205 net.cpp:84] Creating Layer conv2_3_dw/bn
I0423 22:44:03.280339 21205 net.cpp:406] conv2_3_dw/bn <- conv2_3_dw
I0423 22:44:03.280344 21205 net.cpp:367] conv2_3_dw/bn -> conv2_3_dw (in-place)
I0423 22:44:03.280539 21205 net.cpp:122] Setting up conv2_3_dw/bn
I0423 22:44:03.280546 21205 net.cpp:129] Top shape: 128 128 28 24 (11010048)
I0423 22:44:03.280549 21205 net.cpp:137] Memory required for data: 2945189888
I0423 22:44:03.280555 21205 layer_factory.hpp:77] Creating layer conv2_3_dw/scale
I0423 22:44:03.280560 21205 net.cpp:84] Creating Layer conv2_3_dw/scale
I0423 22:44:03.280565 21205 net.cpp:406] conv2_3_dw/scale <- conv2_3_dw
I0423 22:44:03.280568 21205 net.cpp:367] conv2_3_dw/scale -> conv2_3_dw (in-place)
I0423 22:44:03.280604 21205 layer_factory.hpp:77] Creating layer conv2_3_dw/scale
I0423 22:44:03.280716 21205 net.cpp:122] Setting up conv2_3_dw/scale
I0423 22:44:03.280725 21205 net.cpp:129] Top shape: 128 128 28 24 (11010048)
I0423 22:44:03.280727 21205 net.cpp:137] Memory required for data: 2989230080
I0423 22:44:03.280732 21205 layer_factory.hpp:77] Creating layer relu2_3_dw
I0423 22:44:03.280736 21205 net.cpp:84] Creating Layer relu2_3_dw
I0423 22:44:03.280740 21205 net.cpp:406] relu2_3_dw <- conv2_3_dw
I0423 22:44:03.280743 21205 net.cpp:367] relu2_3_dw -> conv2_3_dw (in-place)
I0423 22:44:03.280885 21205 net.cpp:122] Setting up relu2_3_dw
I0423 22:44:03.280910 21205 net.cpp:129] Top shape: 128 128 28 24 (11010048)
I0423 22:44:03.280915 21205 net.cpp:137] Memory required for data: 3033270272
I0423 22:44:03.280920 21205 layer_factory.hpp:77] Creating layer conv2_3_em
I0423 22:44:03.280927 21205 net.cpp:84] Creating Layer conv2_3_em
I0423 22:44:03.280930 21205 net.cpp:406] conv2_3_em <- conv2_3_dw
I0423 22:44:03.280936 21205 net.cpp:380] conv2_3_em -> conv2_3_em
I0423 22:44:03.283613 21205 net.cpp:122] Setting up conv2_3_em
I0423 22:44:03.283629 21205 net.cpp:129] Top shape: 128 64 28 24 (5505024)
I0423 22:44:03.283633 21205 net.cpp:137] Memory required for data: 3055290368
I0423 22:44:03.283639 21205 layer_factory.hpp:77] Creating layer conv2_3_em/bn
I0423 22:44:03.283645 21205 net.cpp:84] Creating Layer conv2_3_em/bn
I0423 22:44:03.283648 21205 net.cpp:406] conv2_3_em/bn <- conv2_3_em
I0423 22:44:03.283653 21205 net.cpp:367] conv2_3_em/bn -> conv2_3_em (in-place)
I0423 22:44:03.283870 21205 net.cpp:122] Setting up conv2_3_em/bn
I0423 22:44:03.283879 21205 net.cpp:129] Top shape: 128 64 28 24 (5505024)
I0423 22:44:03.283881 21205 net.cpp:137] Memory required for data: 3077310464
I0423 22:44:03.283888 21205 layer_factory.hpp:77] Creating layer conv2_3_em/scale
I0423 22:44:03.283895 21205 net.cpp:84] Creating Layer conv2_3_em/scale
I0423 22:44:03.283897 21205 net.cpp:406] conv2_3_em/scale <- conv2_3_em
I0423 22:44:03.283901 21205 net.cpp:367] conv2_3_em/scale -> conv2_3_em (in-place)
I0423 22:44:03.283941 21205 layer_factory.hpp:77] Creating layer conv2_3_em/scale
I0423 22:44:03.284065 21205 net.cpp:122] Setting up conv2_3_em/scale
I0423 22:44:03.284072 21205 net.cpp:129] Top shape: 128 64 28 24 (5505024)
I0423 22:44:03.284075 21205 net.cpp:137] Memory required for data: 3099330560
I0423 22:44:03.284080 21205 layer_factory.hpp:77] Creating layer res2_3
I0423 22:44:03.284085 21205 net.cpp:84] Creating Layer res2_3
I0423 22:44:03.284088 21205 net.cpp:406] res2_3 <- res2_2_res2_2_0_split_1
I0423 22:44:03.284091 21205 net.cpp:406] res2_3 <- conv2_3_em
I0423 22:44:03.284096 21205 net.cpp:380] res2_3 -> res2_3
I0423 22:44:03.284123 21205 net.cpp:122] Setting up res2_3
I0423 22:44:03.284129 21205 net.cpp:129] Top shape: 128 64 28 24 (5505024)
I0423 22:44:03.284132 21205 net.cpp:137] Memory required for data: 3121350656
I0423 22:44:03.284134 21205 layer_factory.hpp:77] Creating layer res2_3_res2_3_0_split
I0423 22:44:03.284140 21205 net.cpp:84] Creating Layer res2_3_res2_3_0_split
I0423 22:44:03.284143 21205 net.cpp:406] res2_3_res2_3_0_split <- res2_3
I0423 22:44:03.284147 21205 net.cpp:380] res2_3_res2_3_0_split -> res2_3_res2_3_0_split_0
I0423 22:44:03.284152 21205 net.cpp:380] res2_3_res2_3_0_split -> res2_3_res2_3_0_split_1
I0423 22:44:03.284191 21205 net.cpp:122] Setting up res2_3_res2_3_0_split
I0423 22:44:03.284198 21205 net.cpp:129] Top shape: 128 64 28 24 (5505024)
I0423 22:44:03.284200 21205 net.cpp:129] Top shape: 128 64 28 24 (5505024)
I0423 22:44:03.284204 21205 net.cpp:137] Memory required for data: 3165390848
I0423 22:44:03.284206 21205 layer_factory.hpp:77] Creating layer conv2_4_ex
I0423 22:44:03.284214 21205 net.cpp:84] Creating Layer conv2_4_ex
I0423 22:44:03.284217 21205 net.cpp:406] conv2_4_ex <- res2_3_res2_3_0_split_0
I0423 22:44:03.284221 21205 net.cpp:380] conv2_4_ex -> conv2_4_ex
I0423 22:44:03.286536 21205 net.cpp:122] Setting up conv2_4_ex
I0423 22:44:03.286552 21205 net.cpp:129] Top shape: 128 128 28 24 (11010048)
I0423 22:44:03.286556 21205 net.cpp:137] Memory required for data: 3209431040
I0423 22:44:03.286561 21205 layer_factory.hpp:77] Creating layer conv2_4_ex/bn
I0423 22:44:03.286567 21205 net.cpp:84] Creating Layer conv2_4_ex/bn
I0423 22:44:03.286571 21205 net.cpp:406] conv2_4_ex/bn <- conv2_4_ex
I0423 22:44:03.286576 21205 net.cpp:367] conv2_4_ex/bn -> conv2_4_ex (in-place)
I0423 22:44:03.286784 21205 net.cpp:122] Setting up conv2_4_ex/bn
I0423 22:44:03.286793 21205 net.cpp:129] Top shape: 128 128 28 24 (11010048)
I0423 22:44:03.286795 21205 net.cpp:137] Memory required for data: 3253471232
I0423 22:44:03.286828 21205 layer_factory.hpp:77] Creating layer conv2_4_ex/scale
I0423 22:44:03.286834 21205 net.cpp:84] Creating Layer conv2_4_ex/scale
I0423 22:44:03.286839 21205 net.cpp:406] conv2_4_ex/scale <- conv2_4_ex
I0423 22:44:03.286842 21205 net.cpp:367] conv2_4_ex/scale -> conv2_4_ex (in-place)
I0423 22:44:03.286885 21205 layer_factory.hpp:77] Creating layer conv2_4_ex/scale
I0423 22:44:03.287003 21205 net.cpp:122] Setting up conv2_4_ex/scale
I0423 22:44:03.287010 21205 net.cpp:129] Top shape: 128 128 28 24 (11010048)
I0423 22:44:03.287014 21205 net.cpp:137] Memory required for data: 3297511424
I0423 22:44:03.287019 21205 layer_factory.hpp:77] Creating layer relu2_4_ex
I0423 22:44:03.287029 21205 net.cpp:84] Creating Layer relu2_4_ex
I0423 22:44:03.287032 21205 net.cpp:406] relu2_4_ex <- conv2_4_ex
I0423 22:44:03.287036 21205 net.cpp:367] relu2_4_ex -> conv2_4_ex (in-place)
I0423 22:44:03.287180 21205 net.cpp:122] Setting up relu2_4_ex
I0423 22:44:03.287189 21205 net.cpp:129] Top shape: 128 128 28 24 (11010048)
I0423 22:44:03.287192 21205 net.cpp:137] Memory required for data: 3341551616
I0423 22:44:03.287196 21205 layer_factory.hpp:77] Creating layer conv2_4_dw
I0423 22:44:03.287204 21205 net.cpp:84] Creating Layer conv2_4_dw
I0423 22:44:03.287207 21205 net.cpp:406] conv2_4_dw <- conv2_4_ex
I0423 22:44:03.287212 21205 net.cpp:380] conv2_4_dw -> conv2_4_dw
I0423 22:44:03.287472 21205 net.cpp:122] Setting up conv2_4_dw
I0423 22:44:03.287480 21205 net.cpp:129] Top shape: 128 128 28 24 (11010048)
I0423 22:44:03.287483 21205 net.cpp:137] Memory required for data: 3385591808
I0423 22:44:03.287488 21205 layer_factory.hpp:77] Creating layer conv2_4_dw/bn
I0423 22:44:03.287494 21205 net.cpp:84] Creating Layer conv2_4_dw/bn
I0423 22:44:03.287497 21205 net.cpp:406] conv2_4_dw/bn <- conv2_4_dw
I0423 22:44:03.287500 21205 net.cpp:367] conv2_4_dw/bn -> conv2_4_dw (in-place)
I0423 22:44:03.287701 21205 net.cpp:122] Setting up conv2_4_dw/bn
I0423 22:44:03.287708 21205 net.cpp:129] Top shape: 128 128 28 24 (11010048)
I0423 22:44:03.287710 21205 net.cpp:137] Memory required for data: 3429632000
I0423 22:44:03.287717 21205 layer_factory.hpp:77] Creating layer conv2_4_dw/scale
I0423 22:44:03.287724 21205 net.cpp:84] Creating Layer conv2_4_dw/scale
I0423 22:44:03.287726 21205 net.cpp:406] conv2_4_dw/scale <- conv2_4_dw
I0423 22:44:03.287730 21205 net.cpp:367] conv2_4_dw/scale -> conv2_4_dw (in-place)
I0423 22:44:03.287766 21205 layer_factory.hpp:77] Creating layer conv2_4_dw/scale
I0423 22:44:03.287881 21205 net.cpp:122] Setting up conv2_4_dw/scale
I0423 22:44:03.287889 21205 net.cpp:129] Top shape: 128 128 28 24 (11010048)
I0423 22:44:03.287890 21205 net.cpp:137] Memory required for data: 3473672192
I0423 22:44:03.287895 21205 layer_factory.hpp:77] Creating layer relu2_4_dw
I0423 22:44:03.287900 21205 net.cpp:84] Creating Layer relu2_4_dw
I0423 22:44:03.287904 21205 net.cpp:406] relu2_4_dw <- conv2_4_dw
I0423 22:44:03.287907 21205 net.cpp:367] relu2_4_dw -> conv2_4_dw (in-place)
I0423 22:44:03.288048 21205 net.cpp:122] Setting up relu2_4_dw
I0423 22:44:03.288056 21205 net.cpp:129] Top shape: 128 128 28 24 (11010048)
I0423 22:44:03.288059 21205 net.cpp:137] Memory required for data: 3517712384
I0423 22:44:03.288064 21205 layer_factory.hpp:77] Creating layer conv2_4_em
I0423 22:44:03.288069 21205 net.cpp:84] Creating Layer conv2_4_em
I0423 22:44:03.288074 21205 net.cpp:406] conv2_4_em <- conv2_4_dw
I0423 22:44:03.288079 21205 net.cpp:380] conv2_4_em -> conv2_4_em
I0423 22:44:03.291250 21205 net.cpp:122] Setting up conv2_4_em
I0423 22:44:03.291266 21205 net.cpp:129] Top shape: 128 64 28 24 (5505024)
I0423 22:44:03.291270 21205 net.cpp:137] Memory required for data: 3539732480
I0423 22:44:03.291276 21205 layer_factory.hpp:77] Creating layer conv2_4_em/bn
I0423 22:44:03.291282 21205 net.cpp:84] Creating Layer conv2_4_em/bn
I0423 22:44:03.291286 21205 net.cpp:406] conv2_4_em/bn <- conv2_4_em
I0423 22:44:03.291292 21205 net.cpp:367] conv2_4_em/bn -> conv2_4_em (in-place)
I0423 22:44:03.291514 21205 net.cpp:122] Setting up conv2_4_em/bn
I0423 22:44:03.291540 21205 net.cpp:129] Top shape: 128 64 28 24 (5505024)
I0423 22:44:03.291544 21205 net.cpp:137] Memory required for data: 3561752576
I0423 22:44:03.291553 21205 layer_factory.hpp:77] Creating layer conv2_4_em/scale
I0423 22:44:03.291558 21205 net.cpp:84] Creating Layer conv2_4_em/scale
I0423 22:44:03.291561 21205 net.cpp:406] conv2_4_em/scale <- conv2_4_em
I0423 22:44:03.291566 21205 net.cpp:367] conv2_4_em/scale -> conv2_4_em (in-place)
I0423 22:44:03.291610 21205 layer_factory.hpp:77] Creating layer conv2_4_em/scale
I0423 22:44:03.291736 21205 net.cpp:122] Setting up conv2_4_em/scale
I0423 22:44:03.291744 21205 net.cpp:129] Top shape: 128 64 28 24 (5505024)
I0423 22:44:03.291746 21205 net.cpp:137] Memory required for data: 3583772672
I0423 22:44:03.291752 21205 layer_factory.hpp:77] Creating layer res2_4
I0423 22:44:03.291757 21205 net.cpp:84] Creating Layer res2_4
I0423 22:44:03.291760 21205 net.cpp:406] res2_4 <- res2_3_res2_3_0_split_1
I0423 22:44:03.291764 21205 net.cpp:406] res2_4 <- conv2_4_em
I0423 22:44:03.291769 21205 net.cpp:380] res2_4 -> res2_4
I0423 22:44:03.291795 21205 net.cpp:122] Setting up res2_4
I0423 22:44:03.291802 21205 net.cpp:129] Top shape: 128 64 28 24 (5505024)
I0423 22:44:03.291805 21205 net.cpp:137] Memory required for data: 3605792768
I0423 22:44:03.291808 21205 layer_factory.hpp:77] Creating layer conv3_ex
I0423 22:44:03.291815 21205 net.cpp:84] Creating Layer conv3_ex
I0423 22:44:03.291818 21205 net.cpp:406] conv3_ex <- res2_4
I0423 22:44:03.291823 21205 net.cpp:380] conv3_ex -> conv3_ex
I0423 22:44:03.295614 21205 net.cpp:122] Setting up conv3_ex
I0423 22:44:03.295629 21205 net.cpp:129] Top shape: 128 256 28 24 (22020096)
I0423 22:44:03.295632 21205 net.cpp:137] Memory required for data: 3693873152
I0423 22:44:03.295639 21205 layer_factory.hpp:77] Creating layer conv3_ex/bn
I0423 22:44:03.295645 21205 net.cpp:84] Creating Layer conv3_ex/bn
I0423 22:44:03.295648 21205 net.cpp:406] conv3_ex/bn <- conv3_ex
I0423 22:44:03.295653 21205 net.cpp:367] conv3_ex/bn -> conv3_ex (in-place)
I0423 22:44:03.295869 21205 net.cpp:122] Setting up conv3_ex/bn
I0423 22:44:03.295878 21205 net.cpp:129] Top shape: 128 256 28 24 (22020096)
I0423 22:44:03.295881 21205 net.cpp:137] Memory required for data: 3781953536
I0423 22:44:03.295888 21205 layer_factory.hpp:77] Creating layer conv3_ex/scale
I0423 22:44:03.295893 21205 net.cpp:84] Creating Layer conv3_ex/scale
I0423 22:44:03.295897 21205 net.cpp:406] conv3_ex/scale <- conv3_ex
I0423 22:44:03.295902 21205 net.cpp:367] conv3_ex/scale -> conv3_ex (in-place)
I0423 22:44:03.295939 21205 layer_factory.hpp:77] Creating layer conv3_ex/scale
I0423 22:44:03.296061 21205 net.cpp:122] Setting up conv3_ex/scale
I0423 22:44:03.296069 21205 net.cpp:129] Top shape: 128 256 28 24 (22020096)
I0423 22:44:03.296072 21205 net.cpp:137] Memory required for data: 3870033920
I0423 22:44:03.296077 21205 layer_factory.hpp:77] Creating layer relu3_ex
I0423 22:44:03.296082 21205 net.cpp:84] Creating Layer relu3_ex
I0423 22:44:03.296084 21205 net.cpp:406] relu3_ex <- conv3_ex
I0423 22:44:03.296088 21205 net.cpp:367] relu3_ex -> conv3_ex (in-place)
I0423 22:44:03.297170 21205 net.cpp:122] Setting up relu3_ex
I0423 22:44:03.297184 21205 net.cpp:129] Top shape: 128 256 28 24 (22020096)
I0423 22:44:03.297188 21205 net.cpp:137] Memory required for data: 3958114304
I0423 22:44:03.297194 21205 layer_factory.hpp:77] Creating layer conv3_dw
I0423 22:44:03.297201 21205 net.cpp:84] Creating Layer conv3_dw
I0423 22:44:03.297204 21205 net.cpp:406] conv3_dw <- conv3_ex
I0423 22:44:03.297211 21205 net.cpp:380] conv3_dw -> conv3_dw
I0423 22:44:03.297504 21205 net.cpp:122] Setting up conv3_dw
I0423 22:44:03.297513 21205 net.cpp:129] Top shape: 128 256 14 12 (5505024)
I0423 22:44:03.297516 21205 net.cpp:137] Memory required for data: 3980134400
I0423 22:44:03.297531 21205 layer_factory.hpp:77] Creating layer conv3_dw/bn
I0423 22:44:03.297538 21205 net.cpp:84] Creating Layer conv3_dw/bn
I0423 22:44:03.297541 21205 net.cpp:406] conv3_dw/bn <- conv3_dw
I0423 22:44:03.297545 21205 net.cpp:367] conv3_dw/bn -> conv3_dw (in-place)
I0423 22:44:03.297777 21205 net.cpp:122] Setting up conv3_dw/bn
I0423 22:44:03.297786 21205 net.cpp:129] Top shape: 128 256 14 12 (5505024)
I0423 22:44:03.297788 21205 net.cpp:137] Memory required for data: 4002154496
I0423 22:44:03.297796 21205 layer_factory.hpp:77] Creating layer conv3_dw/scale
I0423 22:44:03.297802 21205 net.cpp:84] Creating Layer conv3_dw/scale
I0423 22:44:03.297804 21205 net.cpp:406] conv3_dw/scale <- conv3_dw
I0423 22:44:03.297808 21205 net.cpp:367] conv3_dw/scale -> conv3_dw (in-place)
I0423 22:44:03.297848 21205 layer_factory.hpp:77] Creating layer conv3_dw/scale
I0423 22:44:03.297966 21205 net.cpp:122] Setting up conv3_dw/scale
I0423 22:44:03.297972 21205 net.cpp:129] Top shape: 128 256 14 12 (5505024)
I0423 22:44:03.297976 21205 net.cpp:137] Memory required for data: 4024174592
I0423 22:44:03.297981 21205 layer_factory.hpp:77] Creating layer relu3_dw
I0423 22:44:03.297986 21205 net.cpp:84] Creating Layer relu3_dw
I0423 22:44:03.297988 21205 net.cpp:406] relu3_dw <- conv3_dw
I0423 22:44:03.297992 21205 net.cpp:367] relu3_dw -> conv3_dw (in-place)
I0423 22:44:03.298110 21205 net.cpp:122] Setting up relu3_dw
I0423 22:44:03.298120 21205 net.cpp:129] Top shape: 128 256 14 12 (5505024)
I0423 22:44:03.298121 21205 net.cpp:137] Memory required for data: 4046194688
I0423 22:44:03.298125 21205 layer_factory.hpp:77] Creating layer conv3_em
I0423 22:44:03.298132 21205 net.cpp:84] Creating Layer conv3_em
I0423 22:44:03.298136 21205 net.cpp:406] conv3_em <- conv3_dw
I0423 22:44:03.298141 21205 net.cpp:380] conv3_em -> conv3_em
I0423 22:44:03.300590 21205 net.cpp:122] Setting up conv3_em
I0423 22:44:03.300604 21205 net.cpp:129] Top shape: 128 128 14 12 (2752512)
I0423 22:44:03.300608 21205 net.cpp:137] Memory required for data: 4057204736
I0423 22:44:03.300614 21205 layer_factory.hpp:77] Creating layer conv3_em/bn
I0423 22:44:03.300621 21205 net.cpp:84] Creating Layer conv3_em/bn
I0423 22:44:03.300623 21205 net.cpp:406] conv3_em/bn <- conv3_em
I0423 22:44:03.300629 21205 net.cpp:367] conv3_em/bn -> conv3_em (in-place)
I0423 22:44:03.300842 21205 net.cpp:122] Setting up conv3_em/bn
I0423 22:44:03.300849 21205 net.cpp:129] Top shape: 128 128 14 12 (2752512)
I0423 22:44:03.300853 21205 net.cpp:137] Memory required for data: 4068214784
I0423 22:44:03.300860 21205 layer_factory.hpp:77] Creating layer conv3_em/scale
I0423 22:44:03.300865 21205 net.cpp:84] Creating Layer conv3_em/scale
I0423 22:44:03.300868 21205 net.cpp:406] conv3_em/scale <- conv3_em
I0423 22:44:03.300873 21205 net.cpp:367] conv3_em/scale -> conv3_em (in-place)
I0423 22:44:03.300911 21205 layer_factory.hpp:77] Creating layer conv3_em/scale
I0423 22:44:03.301029 21205 net.cpp:122] Setting up conv3_em/scale
I0423 22:44:03.301036 21205 net.cpp:129] Top shape: 128 128 14 12 (2752512)
I0423 22:44:03.301039 21205 net.cpp:137] Memory required for data: 4079224832
I0423 22:44:03.301045 21205 layer_factory.hpp:77] Creating layer conv3_em_conv3_em/scale_0_split
I0423 22:44:03.301050 21205 net.cpp:84] Creating Layer conv3_em_conv3_em/scale_0_split
I0423 22:44:03.301053 21205 net.cpp:406] conv3_em_conv3_em/scale_0_split <- conv3_em
I0423 22:44:03.301057 21205 net.cpp:380] conv3_em_conv3_em/scale_0_split -> conv3_em_conv3_em/scale_0_split_0
I0423 22:44:03.301064 21205 net.cpp:380] conv3_em_conv3_em/scale_0_split -> conv3_em_conv3_em/scale_0_split_1
I0423 22:44:03.301105 21205 net.cpp:122] Setting up conv3_em_conv3_em/scale_0_split
I0423 22:44:03.301111 21205 net.cpp:129] Top shape: 128 128 14 12 (2752512)
I0423 22:44:03.301115 21205 net.cpp:129] Top shape: 128 128 14 12 (2752512)
I0423 22:44:03.301118 21205 net.cpp:137] Memory required for data: 4101244928
I0423 22:44:03.301121 21205 layer_factory.hpp:77] Creating layer conv3_1_ex
I0423 22:44:03.301128 21205 net.cpp:84] Creating Layer conv3_1_ex
I0423 22:44:03.301131 21205 net.cpp:406] conv3_1_ex <- conv3_em_conv3_em/scale_0_split_0
I0423 22:44:03.301136 21205 net.cpp:380] conv3_1_ex -> conv3_1_ex
I0423 22:44:03.303612 21205 net.cpp:122] Setting up conv3_1_ex
I0423 22:44:03.303645 21205 net.cpp:129] Top shape: 128 256 14 12 (5505024)
I0423 22:44:03.303650 21205 net.cpp:137] Memory required for data: 4123265024
I0423 22:44:03.303656 21205 layer_factory.hpp:77] Creating layer conv3_1_ex/bn
I0423 22:44:03.303663 21205 net.cpp:84] Creating Layer conv3_1_ex/bn
I0423 22:44:03.303666 21205 net.cpp:406] conv3_1_ex/bn <- conv3_1_ex
I0423 22:44:03.303671 21205 net.cpp:367] conv3_1_ex/bn -> conv3_1_ex (in-place)
I0423 22:44:03.303884 21205 net.cpp:122] Setting up conv3_1_ex/bn
I0423 22:44:03.303892 21205 net.cpp:129] Top shape: 128 256 14 12 (5505024)
I0423 22:44:03.303895 21205 net.cpp:137] Memory required for data: 4145285120
I0423 22:44:03.303902 21205 layer_factory.hpp:77] Creating layer conv3_1_ex/scale
I0423 22:44:03.303908 21205 net.cpp:84] Creating Layer conv3_1_ex/scale
I0423 22:44:03.303911 21205 net.cpp:406] conv3_1_ex/scale <- conv3_1_ex
I0423 22:44:03.303915 21205 net.cpp:367] conv3_1_ex/scale -> conv3_1_ex (in-place)
I0423 22:44:03.303954 21205 layer_factory.hpp:77] Creating layer conv3_1_ex/scale
I0423 22:44:03.304075 21205 net.cpp:122] Setting up conv3_1_ex/scale
I0423 22:44:03.304081 21205 net.cpp:129] Top shape: 128 256 14 12 (5505024)
I0423 22:44:03.304085 21205 net.cpp:137] Memory required for data: 4167305216
I0423 22:44:03.304090 21205 layer_factory.hpp:77] Creating layer relu3_1_ex
I0423 22:44:03.304095 21205 net.cpp:84] Creating Layer relu3_1_ex
I0423 22:44:03.304096 21205 net.cpp:406] relu3_1_ex <- conv3_1_ex
I0423 22:44:03.304100 21205 net.cpp:367] relu3_1_ex -> conv3_1_ex (in-place)
I0423 22:44:03.304220 21205 net.cpp:122] Setting up relu3_1_ex
I0423 22:44:03.304229 21205 net.cpp:129] Top shape: 128 256 14 12 (5505024)
I0423 22:44:03.304231 21205 net.cpp:137] Memory required for data: 4189325312
I0423 22:44:03.304235 21205 layer_factory.hpp:77] Creating layer conv3_1_dw
I0423 22:44:03.304242 21205 net.cpp:84] Creating Layer conv3_1_dw
I0423 22:44:03.304246 21205 net.cpp:406] conv3_1_dw <- conv3_1_ex
I0423 22:44:03.304250 21205 net.cpp:380] conv3_1_dw -> conv3_1_dw
I0423 22:44:03.304522 21205 net.cpp:122] Setting up conv3_1_dw
I0423 22:44:03.304530 21205 net.cpp:129] Top shape: 128 256 14 12 (5505024)
I0423 22:44:03.304533 21205 net.cpp:137] Memory required for data: 4211345408
I0423 22:44:03.304538 21205 layer_factory.hpp:77] Creating layer conv3_1_dw/bn
I0423 22:44:03.304544 21205 net.cpp:84] Creating Layer conv3_1_dw/bn
I0423 22:44:03.304546 21205 net.cpp:406] conv3_1_dw/bn <- conv3_1_dw
I0423 22:44:03.304551 21205 net.cpp:367] conv3_1_dw/bn -> conv3_1_dw (in-place)
I0423 22:44:03.304752 21205 net.cpp:122] Setting up conv3_1_dw/bn
I0423 22:44:03.304759 21205 net.cpp:129] Top shape: 128 256 14 12 (5505024)
I0423 22:44:03.304762 21205 net.cpp:137] Memory required for data: 4233365504
I0423 22:44:03.304769 21205 layer_factory.hpp:77] Creating layer conv3_1_dw/scale
I0423 22:44:03.304774 21205 net.cpp:84] Creating Layer conv3_1_dw/scale
I0423 22:44:03.304777 21205 net.cpp:406] conv3_1_dw/scale <- conv3_1_dw
I0423 22:44:03.304780 21205 net.cpp:367] conv3_1_dw/scale -> conv3_1_dw (in-place)
I0423 22:44:03.304818 21205 layer_factory.hpp:77] Creating layer conv3_1_dw/scale
I0423 22:44:03.304934 21205 net.cpp:122] Setting up conv3_1_dw/scale
I0423 22:44:03.304940 21205 net.cpp:129] Top shape: 128 256 14 12 (5505024)
I0423 22:44:03.304944 21205 net.cpp:137] Memory required for data: 4255385600
I0423 22:44:03.304949 21205 layer_factory.hpp:77] Creating layer relu3_1_dw
I0423 22:44:03.304953 21205 net.cpp:84] Creating Layer relu3_1_dw
I0423 22:44:03.304955 21205 net.cpp:406] relu3_1_dw <- conv3_1_dw
I0423 22:44:03.304960 21205 net.cpp:367] relu3_1_dw -> conv3_1_dw (in-place)
I0423 22:44:03.305078 21205 net.cpp:122] Setting up relu3_1_dw
I0423 22:44:03.305085 21205 net.cpp:129] Top shape: 128 256 14 12 (5505024)
I0423 22:44:03.305088 21205 net.cpp:137] Memory required for data: 4277405696
I0423 22:44:03.305093 21205 layer_factory.hpp:77] Creating layer conv3_1_em
I0423 22:44:03.305100 21205 net.cpp:84] Creating Layer conv3_1_em
I0423 22:44:03.305104 21205 net.cpp:406] conv3_1_em <- conv3_1_dw
I0423 22:44:03.305124 21205 net.cpp:380] conv3_1_em -> conv3_1_em
I0423 22:44:03.307885 21205 net.cpp:122] Setting up conv3_1_em
I0423 22:44:03.307902 21205 net.cpp:129] Top shape: 128 128 14 12 (2752512)
I0423 22:44:03.307905 21205 net.cpp:137] Memory required for data: 4288415744
I0423 22:44:03.307912 21205 layer_factory.hpp:77] Creating layer conv3_1_em/bn
I0423 22:44:03.307919 21205 net.cpp:84] Creating Layer conv3_1_em/bn
I0423 22:44:03.307922 21205 net.cpp:406] conv3_1_em/bn <- conv3_1_em
I0423 22:44:03.307927 21205 net.cpp:367] conv3_1_em/bn -> conv3_1_em (in-place)
I0423 22:44:03.308145 21205 net.cpp:122] Setting up conv3_1_em/bn
I0423 22:44:03.308152 21205 net.cpp:129] Top shape: 128 128 14 12 (2752512)
I0423 22:44:03.308156 21205 net.cpp:137] Memory required for data: 4299425792
I0423 22:44:03.308162 21205 layer_factory.hpp:77] Creating layer conv3_1_em/scale
I0423 22:44:03.308168 21205 net.cpp:84] Creating Layer conv3_1_em/scale
I0423 22:44:03.308171 21205 net.cpp:406] conv3_1_em/scale <- conv3_1_em
I0423 22:44:03.308176 21205 net.cpp:367] conv3_1_em/scale -> conv3_1_em (in-place)
I0423 22:44:03.308215 21205 layer_factory.hpp:77] Creating layer conv3_1_em/scale
I0423 22:44:03.308333 21205 net.cpp:122] Setting up conv3_1_em/scale
I0423 22:44:03.308341 21205 net.cpp:129] Top shape: 128 128 14 12 (2752512)
I0423 22:44:03.308343 21205 net.cpp:137] Memory required for data: 4310435840
I0423 22:44:03.308348 21205 layer_factory.hpp:77] Creating layer res3_1
I0423 22:44:03.308353 21205 net.cpp:84] Creating Layer res3_1
I0423 22:44:03.308357 21205 net.cpp:406] res3_1 <- conv3_em_conv3_em/scale_0_split_1
I0423 22:44:03.308362 21205 net.cpp:406] res3_1 <- conv3_1_em
I0423 22:44:03.308365 21205 net.cpp:380] res3_1 -> res3_1
I0423 22:44:03.308392 21205 net.cpp:122] Setting up res3_1
I0423 22:44:03.308398 21205 net.cpp:129] Top shape: 128 128 14 12 (2752512)
I0423 22:44:03.308401 21205 net.cpp:137] Memory required for data: 4321445888
I0423 22:44:03.308404 21205 layer_factory.hpp:77] Creating layer res3_1_res3_1_0_split
I0423 22:44:03.308409 21205 net.cpp:84] Creating Layer res3_1_res3_1_0_split
I0423 22:44:03.308411 21205 net.cpp:406] res3_1_res3_1_0_split <- res3_1
I0423 22:44:03.308418 21205 net.cpp:380] res3_1_res3_1_0_split -> res3_1_res3_1_0_split_0
I0423 22:44:03.308423 21205 net.cpp:380] res3_1_res3_1_0_split -> res3_1_res3_1_0_split_1
I0423 22:44:03.308460 21205 net.cpp:122] Setting up res3_1_res3_1_0_split
I0423 22:44:03.308466 21205 net.cpp:129] Top shape: 128 128 14 12 (2752512)
I0423 22:44:03.308471 21205 net.cpp:129] Top shape: 128 128 14 12 (2752512)
I0423 22:44:03.308473 21205 net.cpp:137] Memory required for data: 4343465984
I0423 22:44:03.308476 21205 layer_factory.hpp:77] Creating layer conv3_2_ex
I0423 22:44:03.308483 21205 net.cpp:84] Creating Layer conv3_2_ex
I0423 22:44:03.308487 21205 net.cpp:406] conv3_2_ex <- res3_1_res3_1_0_split_0
I0423 22:44:03.308491 21205 net.cpp:380] conv3_2_ex -> conv3_2_ex
I0423 22:44:03.310947 21205 net.cpp:122] Setting up conv3_2_ex
I0423 22:44:03.310963 21205 net.cpp:129] Top shape: 128 256 14 12 (5505024)
I0423 22:44:03.310967 21205 net.cpp:137] Memory required for data: 4365486080
I0423 22:44:03.310973 21205 layer_factory.hpp:77] Creating layer conv3_2_ex/bn
I0423 22:44:03.310981 21205 net.cpp:84] Creating Layer conv3_2_ex/bn
I0423 22:44:03.310984 21205 net.cpp:406] conv3_2_ex/bn <- conv3_2_ex
I0423 22:44:03.310992 21205 net.cpp:367] conv3_2_ex/bn -> conv3_2_ex (in-place)
I0423 22:44:03.311218 21205 net.cpp:122] Setting up conv3_2_ex/bn
I0423 22:44:03.311226 21205 net.cpp:129] Top shape: 128 256 14 12 (5505024)
I0423 22:44:03.311229 21205 net.cpp:137] Memory required for data: 4387506176
I0423 22:44:03.311236 21205 layer_factory.hpp:77] Creating layer conv3_2_ex/scale
I0423 22:44:03.311241 21205 net.cpp:84] Creating Layer conv3_2_ex/scale
I0423 22:44:03.311244 21205 net.cpp:406] conv3_2_ex/scale <- conv3_2_ex
I0423 22:44:03.311250 21205 net.cpp:367] conv3_2_ex/scale -> conv3_2_ex (in-place)
I0423 22:44:03.311291 21205 layer_factory.hpp:77] Creating layer conv3_2_ex/scale
I0423 22:44:03.311441 21205 net.cpp:122] Setting up conv3_2_ex/scale
I0423 22:44:03.311450 21205 net.cpp:129] Top shape: 128 256 14 12 (5505024)
I0423 22:44:03.311452 21205 net.cpp:137] Memory required for data: 4409526272
I0423 22:44:03.311458 21205 layer_factory.hpp:77] Creating layer relu3_2_ex
I0423 22:44:03.311465 21205 net.cpp:84] Creating Layer relu3_2_ex
I0423 22:44:03.311467 21205 net.cpp:406] relu3_2_ex <- conv3_2_ex
I0423 22:44:03.311471 21205 net.cpp:367] relu3_2_ex -> conv3_2_ex (in-place)
I0423 22:44:03.311596 21205 net.cpp:122] Setting up relu3_2_ex
I0423 22:44:03.311604 21205 net.cpp:129] Top shape: 128 256 14 12 (5505024)
I0423 22:44:03.311607 21205 net.cpp:137] Memory required for data: 4431546368
I0423 22:44:03.311611 21205 layer_factory.hpp:77] Creating layer conv3_2_dw
I0423 22:44:03.311619 21205 net.cpp:84] Creating Layer conv3_2_dw
I0423 22:44:03.311622 21205 net.cpp:406] conv3_2_dw <- conv3_2_ex
I0423 22:44:03.311630 21205 net.cpp:380] conv3_2_dw -> conv3_2_dw
I0423 22:44:03.311908 21205 net.cpp:122] Setting up conv3_2_dw
I0423 22:44:03.311918 21205 net.cpp:129] Top shape: 128 256 14 12 (5505024)
I0423 22:44:03.311920 21205 net.cpp:137] Memory required for data: 4453566464
I0423 22:44:03.311924 21205 layer_factory.hpp:77] Creating layer conv3_2_dw/bn
I0423 22:44:03.311929 21205 net.cpp:84] Creating Layer conv3_2_dw/bn
I0423 22:44:03.311933 21205 net.cpp:406] conv3_2_dw/bn <- conv3_2_dw
I0423 22:44:03.311939 21205 net.cpp:367] conv3_2_dw/bn -> conv3_2_dw (in-place)
I0423 22:44:03.312161 21205 net.cpp:122] Setting up conv3_2_dw/bn
I0423 22:44:03.312170 21205 net.cpp:129] Top shape: 128 256 14 12 (5505024)
I0423 22:44:03.312172 21205 net.cpp:137] Memory required for data: 4475586560
I0423 22:44:03.312178 21205 layer_factory.hpp:77] Creating layer conv3_2_dw/scale
I0423 22:44:03.312185 21205 net.cpp:84] Creating Layer conv3_2_dw/scale
I0423 22:44:03.312186 21205 net.cpp:406] conv3_2_dw/scale <- conv3_2_dw
I0423 22:44:03.312191 21205 net.cpp:367] conv3_2_dw/scale -> conv3_2_dw (in-place)
I0423 22:44:03.312232 21205 layer_factory.hpp:77] Creating layer conv3_2_dw/scale
I0423 22:44:03.312352 21205 net.cpp:122] Setting up conv3_2_dw/scale
I0423 22:44:03.312360 21205 net.cpp:129] Top shape: 128 256 14 12 (5505024)
I0423 22:44:03.312362 21205 net.cpp:137] Memory required for data: 4497606656
I0423 22:44:03.312367 21205 layer_factory.hpp:77] Creating layer relu3_2_dw
I0423 22:44:03.312371 21205 net.cpp:84] Creating Layer relu3_2_dw
I0423 22:44:03.312376 21205 net.cpp:406] relu3_2_dw <- conv3_2_dw
I0423 22:44:03.312381 21205 net.cpp:367] relu3_2_dw -> conv3_2_dw (in-place)
I0423 22:44:03.312505 21205 net.cpp:122] Setting up relu3_2_dw
I0423 22:44:03.312512 21205 net.cpp:129] Top shape: 128 256 14 12 (5505024)
I0423 22:44:03.312515 21205 net.cpp:137] Memory required for data: 4519626752
I0423 22:44:03.312520 21205 layer_factory.hpp:77] Creating layer conv3_2_em
I0423 22:44:03.312528 21205 net.cpp:84] Creating Layer conv3_2_em
I0423 22:44:03.312532 21205 net.cpp:406] conv3_2_em <- conv3_2_dw
I0423 22:44:03.312536 21205 net.cpp:380] conv3_2_em -> conv3_2_em
I0423 22:44:03.316629 21205 net.cpp:122] Setting up conv3_2_em
I0423 22:44:03.316645 21205 net.cpp:129] Top shape: 128 128 14 12 (2752512)
I0423 22:44:03.316648 21205 net.cpp:137] Memory required for data: 4530636800
I0423 22:44:03.316654 21205 layer_factory.hpp:77] Creating layer conv3_2_em/bn
I0423 22:44:03.316660 21205 net.cpp:84] Creating Layer conv3_2_em/bn
I0423 22:44:03.316664 21205 net.cpp:406] conv3_2_em/bn <- conv3_2_em
I0423 22:44:03.316670 21205 net.cpp:367] conv3_2_em/bn -> conv3_2_em (in-place)
I0423 22:44:03.316900 21205 net.cpp:122] Setting up conv3_2_em/bn
I0423 22:44:03.316910 21205 net.cpp:129] Top shape: 128 128 14 12 (2752512)
I0423 22:44:03.316911 21205 net.cpp:137] Memory required for data: 4541646848
I0423 22:44:03.316918 21205 layer_factory.hpp:77] Creating layer conv3_2_em/scale
I0423 22:44:03.316925 21205 net.cpp:84] Creating Layer conv3_2_em/scale
I0423 22:44:03.316928 21205 net.cpp:406] conv3_2_em/scale <- conv3_2_em
I0423 22:44:03.316949 21205 net.cpp:367] conv3_2_em/scale -> conv3_2_em (in-place)
I0423 22:44:03.316996 21205 layer_factory.hpp:77] Creating layer conv3_2_em/scale
I0423 22:44:03.317126 21205 net.cpp:122] Setting up conv3_2_em/scale
I0423 22:44:03.317136 21205 net.cpp:129] Top shape: 128 128 14 12 (2752512)
I0423 22:44:03.317137 21205 net.cpp:137] Memory required for data: 4552656896
I0423 22:44:03.317142 21205 layer_factory.hpp:77] Creating layer res3_2
I0423 22:44:03.317149 21205 net.cpp:84] Creating Layer res3_2
I0423 22:44:03.317153 21205 net.cpp:406] res3_2 <- res3_1_res3_1_0_split_1
I0423 22:44:03.317157 21205 net.cpp:406] res3_2 <- conv3_2_em
I0423 22:44:03.317162 21205 net.cpp:380] res3_2 -> res3_2
I0423 22:44:03.317191 21205 net.cpp:122] Setting up res3_2
I0423 22:44:03.317199 21205 net.cpp:129] Top shape: 128 128 14 12 (2752512)
I0423 22:44:03.317201 21205 net.cpp:137] Memory required for data: 4563666944
I0423 22:44:03.317204 21205 layer_factory.hpp:77] Creating layer res3_2_res3_2_0_split
I0423 22:44:03.317209 21205 net.cpp:84] Creating Layer res3_2_res3_2_0_split
I0423 22:44:03.317212 21205 net.cpp:406] res3_2_res3_2_0_split <- res3_2
I0423 22:44:03.317227 21205 net.cpp:380] res3_2_res3_2_0_split -> res3_2_res3_2_0_split_0
I0423 22:44:03.317234 21205 net.cpp:380] res3_2_res3_2_0_split -> res3_2_res3_2_0_split_1
I0423 22:44:03.317279 21205 net.cpp:122] Setting up res3_2_res3_2_0_split
I0423 22:44:03.317287 21205 net.cpp:129] Top shape: 128 128 14 12 (2752512)
I0423 22:44:03.317291 21205 net.cpp:129] Top shape: 128 128 14 12 (2752512)
I0423 22:44:03.317292 21205 net.cpp:137] Memory required for data: 4585687040
I0423 22:44:03.317296 21205 layer_factory.hpp:77] Creating layer conv3_3_ex
I0423 22:44:03.317303 21205 net.cpp:84] Creating Layer conv3_3_ex
I0423 22:44:03.317306 21205 net.cpp:406] conv3_3_ex <- res3_2_res3_2_0_split_0
I0423 22:44:03.317313 21205 net.cpp:380] conv3_3_ex -> conv3_3_ex
I0423 22:44:03.320030 21205 net.cpp:122] Setting up conv3_3_ex
I0423 22:44:03.320047 21205 net.cpp:129] Top shape: 128 256 14 12 (5505024)
I0423 22:44:03.320050 21205 net.cpp:137] Memory required for data: 4607707136
I0423 22:44:03.320055 21205 layer_factory.hpp:77] Creating layer conv3_3_ex/bn
I0423 22:44:03.320062 21205 net.cpp:84] Creating Layer conv3_3_ex/bn
I0423 22:44:03.320067 21205 net.cpp:406] conv3_3_ex/bn <- conv3_3_ex
I0423 22:44:03.320072 21205 net.cpp:367] conv3_3_ex/bn -> conv3_3_ex (in-place)
I0423 22:44:03.320302 21205 net.cpp:122] Setting up conv3_3_ex/bn
I0423 22:44:03.320312 21205 net.cpp:129] Top shape: 128 256 14 12 (5505024)
I0423 22:44:03.320314 21205 net.cpp:137] Memory required for data: 4629727232
I0423 22:44:03.320320 21205 layer_factory.hpp:77] Creating layer conv3_3_ex/scale
I0423 22:44:03.320327 21205 net.cpp:84] Creating Layer conv3_3_ex/scale
I0423 22:44:03.320329 21205 net.cpp:406] conv3_3_ex/scale <- conv3_3_ex
I0423 22:44:03.320336 21205 net.cpp:367] conv3_3_ex/scale -> conv3_3_ex (in-place)
I0423 22:44:03.320377 21205 layer_factory.hpp:77] Creating layer conv3_3_ex/scale
I0423 22:44:03.320508 21205 net.cpp:122] Setting up conv3_3_ex/scale
I0423 22:44:03.320515 21205 net.cpp:129] Top shape: 128 256 14 12 (5505024)
I0423 22:44:03.320518 21205 net.cpp:137] Memory required for data: 4651747328
I0423 22:44:03.320523 21205 layer_factory.hpp:77] Creating layer relu3_3_ex
I0423 22:44:03.320528 21205 net.cpp:84] Creating Layer relu3_3_ex
I0423 22:44:03.320530 21205 net.cpp:406] relu3_3_ex <- conv3_3_ex
I0423 22:44:03.320535 21205 net.cpp:367] relu3_3_ex -> conv3_3_ex (in-place)
I0423 22:44:03.320662 21205 net.cpp:122] Setting up relu3_3_ex
I0423 22:44:03.320672 21205 net.cpp:129] Top shape: 128 256 14 12 (5505024)
I0423 22:44:03.320673 21205 net.cpp:137] Memory required for data: 4673767424
I0423 22:44:03.320678 21205 layer_factory.hpp:77] Creating layer conv3_3_dw
I0423 22:44:03.320684 21205 net.cpp:84] Creating Layer conv3_3_dw
I0423 22:44:03.320688 21205 net.cpp:406] conv3_3_dw <- conv3_3_ex
I0423 22:44:03.320693 21205 net.cpp:380] conv3_3_dw -> conv3_3_dw
I0423 22:44:03.320986 21205 net.cpp:122] Setting up conv3_3_dw
I0423 22:44:03.321012 21205 net.cpp:129] Top shape: 128 256 14 12 (5505024)
I0423 22:44:03.321014 21205 net.cpp:137] Memory required for data: 4695787520
I0423 22:44:03.321020 21205 layer_factory.hpp:77] Creating layer conv3_3_dw/bn
I0423 22:44:03.321027 21205 net.cpp:84] Creating Layer conv3_3_dw/bn
I0423 22:44:03.321029 21205 net.cpp:406] conv3_3_dw/bn <- conv3_3_dw
I0423 22:44:03.321035 21205 net.cpp:367] conv3_3_dw/bn -> conv3_3_dw (in-place)
I0423 22:44:03.321270 21205 net.cpp:122] Setting up conv3_3_dw/bn
I0423 22:44:03.321280 21205 net.cpp:129] Top shape: 128 256 14 12 (5505024)
I0423 22:44:03.321282 21205 net.cpp:137] Memory required for data: 4717807616
I0423 22:44:03.321288 21205 layer_factory.hpp:77] Creating layer conv3_3_dw/scale
I0423 22:44:03.321293 21205 net.cpp:84] Creating Layer conv3_3_dw/scale
I0423 22:44:03.321296 21205 net.cpp:406] conv3_3_dw/scale <- conv3_3_dw
I0423 22:44:03.321302 21205 net.cpp:367] conv3_3_dw/scale -> conv3_3_dw (in-place)
I0423 22:44:03.321342 21205 layer_factory.hpp:77] Creating layer conv3_3_dw/scale
I0423 22:44:03.321470 21205 net.cpp:122] Setting up conv3_3_dw/scale
I0423 22:44:03.321478 21205 net.cpp:129] Top shape: 128 256 14 12 (5505024)
I0423 22:44:03.321481 21205 net.cpp:137] Memory required for data: 4739827712
I0423 22:44:03.321486 21205 layer_factory.hpp:77] Creating layer relu3_3_dw
I0423 22:44:03.321491 21205 net.cpp:84] Creating Layer relu3_3_dw
I0423 22:44:03.321494 21205 net.cpp:406] relu3_3_dw <- conv3_3_dw
I0423 22:44:03.321497 21205 net.cpp:367] relu3_3_dw -> conv3_3_dw (in-place)
I0423 22:44:03.322494 21205 net.cpp:122] Setting up relu3_3_dw
I0423 22:44:03.322508 21205 net.cpp:129] Top shape: 128 256 14 12 (5505024)
I0423 22:44:03.322512 21205 net.cpp:137] Memory required for data: 4761847808
I0423 22:44:03.322517 21205 layer_factory.hpp:77] Creating layer conv3_3_em
I0423 22:44:03.322526 21205 net.cpp:84] Creating Layer conv3_3_em
I0423 22:44:03.322530 21205 net.cpp:406] conv3_3_em <- conv3_3_dw
I0423 22:44:03.322537 21205 net.cpp:380] conv3_3_em -> conv3_3_em
I0423 22:44:03.325898 21205 net.cpp:122] Setting up conv3_3_em
I0423 22:44:03.325915 21205 net.cpp:129] Top shape: 128 128 14 12 (2752512)
I0423 22:44:03.325918 21205 net.cpp:137] Memory required for data: 4772857856
I0423 22:44:03.325924 21205 layer_factory.hpp:77] Creating layer conv3_3_em/bn
I0423 22:44:03.325932 21205 net.cpp:84] Creating Layer conv3_3_em/bn
I0423 22:44:03.325935 21205 net.cpp:406] conv3_3_em/bn <- conv3_3_em
I0423 22:44:03.325942 21205 net.cpp:367] conv3_3_em/bn -> conv3_3_em (in-place)
I0423 22:44:03.326179 21205 net.cpp:122] Setting up conv3_3_em/bn
I0423 22:44:03.326187 21205 net.cpp:129] Top shape: 128 128 14 12 (2752512)
I0423 22:44:03.326190 21205 net.cpp:137] Memory required for data: 4783867904
I0423 22:44:03.326197 21205 layer_factory.hpp:77] Creating layer conv3_3_em/scale
I0423 22:44:03.326203 21205 net.cpp:84] Creating Layer conv3_3_em/scale
I0423 22:44:03.326206 21205 net.cpp:406] conv3_3_em/scale <- conv3_3_em
I0423 22:44:03.326210 21205 net.cpp:367] conv3_3_em/scale -> conv3_3_em (in-place)
I0423 22:44:03.326254 21205 layer_factory.hpp:77] Creating layer conv3_3_em/scale
I0423 22:44:03.326387 21205 net.cpp:122] Setting up conv3_3_em/scale
I0423 22:44:03.326395 21205 net.cpp:129] Top shape: 128 128 14 12 (2752512)
I0423 22:44:03.326397 21205 net.cpp:137] Memory required for data: 4794877952
I0423 22:44:03.326402 21205 layer_factory.hpp:77] Creating layer res3_3
I0423 22:44:03.326407 21205 net.cpp:84] Creating Layer res3_3
I0423 22:44:03.326411 21205 net.cpp:406] res3_3 <- res3_2_res3_2_0_split_1
I0423 22:44:03.326414 21205 net.cpp:406] res3_3 <- conv3_3_em
I0423 22:44:03.326421 21205 net.cpp:380] res3_3 -> res3_3
I0423 22:44:03.326448 21205 net.cpp:122] Setting up res3_3
I0423 22:44:03.326455 21205 net.cpp:129] Top shape: 128 128 14 12 (2752512)
I0423 22:44:03.326457 21205 net.cpp:137] Memory required for data: 4805888000
I0423 22:44:03.326460 21205 layer_factory.hpp:77] Creating layer res3_3_res3_3_0_split
I0423 22:44:03.326467 21205 net.cpp:84] Creating Layer res3_3_res3_3_0_split
I0423 22:44:03.326488 21205 net.cpp:406] res3_3_res3_3_0_split <- res3_3
I0423 22:44:03.326494 21205 net.cpp:380] res3_3_res3_3_0_split -> res3_3_res3_3_0_split_0
I0423 22:44:03.326500 21205 net.cpp:380] res3_3_res3_3_0_split -> res3_3_res3_3_0_split_1
I0423 22:44:03.326547 21205 net.cpp:122] Setting up res3_3_res3_3_0_split
I0423 22:44:03.326555 21205 net.cpp:129] Top shape: 128 128 14 12 (2752512)
I0423 22:44:03.326557 21205 net.cpp:129] Top shape: 128 128 14 12 (2752512)
I0423 22:44:03.326560 21205 net.cpp:137] Memory required for data: 4827908096
I0423 22:44:03.326563 21205 layer_factory.hpp:77] Creating layer conv3_4_ex
I0423 22:44:03.326571 21205 net.cpp:84] Creating Layer conv3_4_ex
I0423 22:44:03.326575 21205 net.cpp:406] conv3_4_ex <- res3_3_res3_3_0_split_0
I0423 22:44:03.326581 21205 net.cpp:380] conv3_4_ex -> conv3_4_ex
I0423 22:44:03.329308 21205 net.cpp:122] Setting up conv3_4_ex
I0423 22:44:03.329322 21205 net.cpp:129] Top shape: 128 256 14 12 (5505024)
I0423 22:44:03.329326 21205 net.cpp:137] Memory required for data: 4849928192
I0423 22:44:03.329331 21205 layer_factory.hpp:77] Creating layer conv3_4_ex/bn
I0423 22:44:03.329339 21205 net.cpp:84] Creating Layer conv3_4_ex/bn
I0423 22:44:03.329344 21205 net.cpp:406] conv3_4_ex/bn <- conv3_4_ex
I0423 22:44:03.329349 21205 net.cpp:367] conv3_4_ex/bn -> conv3_4_ex (in-place)
I0423 22:44:03.329581 21205 net.cpp:122] Setting up conv3_4_ex/bn
I0423 22:44:03.329588 21205 net.cpp:129] Top shape: 128 256 14 12 (5505024)
I0423 22:44:03.329591 21205 net.cpp:137] Memory required for data: 4871948288
I0423 22:44:03.329597 21205 layer_factory.hpp:77] Creating layer conv3_4_ex/scale
I0423 22:44:03.329604 21205 net.cpp:84] Creating Layer conv3_4_ex/scale
I0423 22:44:03.329608 21205 net.cpp:406] conv3_4_ex/scale <- conv3_4_ex
I0423 22:44:03.329612 21205 net.cpp:367] conv3_4_ex/scale -> conv3_4_ex (in-place)
I0423 22:44:03.329654 21205 layer_factory.hpp:77] Creating layer conv3_4_ex/scale
I0423 22:44:03.329789 21205 net.cpp:122] Setting up conv3_4_ex/scale
I0423 22:44:03.329797 21205 net.cpp:129] Top shape: 128 256 14 12 (5505024)
I0423 22:44:03.329799 21205 net.cpp:137] Memory required for data: 4893968384
I0423 22:44:03.329805 21205 layer_factory.hpp:77] Creating layer relu3_4_ex
I0423 22:44:03.329809 21205 net.cpp:84] Creating Layer relu3_4_ex
I0423 22:44:03.329813 21205 net.cpp:406] relu3_4_ex <- conv3_4_ex
I0423 22:44:03.329818 21205 net.cpp:367] relu3_4_ex -> conv3_4_ex (in-place)
I0423 22:44:03.329946 21205 net.cpp:122] Setting up relu3_4_ex
I0423 22:44:03.329953 21205 net.cpp:129] Top shape: 128 256 14 12 (5505024)
I0423 22:44:03.329957 21205 net.cpp:137] Memory required for data: 4915988480
I0423 22:44:03.329962 21205 layer_factory.hpp:77] Creating layer conv3_4_dw
I0423 22:44:03.329979 21205 net.cpp:84] Creating Layer conv3_4_dw
I0423 22:44:03.329984 21205 net.cpp:406] conv3_4_dw <- conv3_4_ex
I0423 22:44:03.329990 21205 net.cpp:380] conv3_4_dw -> conv3_4_dw
I0423 22:44:03.330282 21205 net.cpp:122] Setting up conv3_4_dw
I0423 22:44:03.330291 21205 net.cpp:129] Top shape: 128 256 14 12 (5505024)
I0423 22:44:03.330293 21205 net.cpp:137] Memory required for data: 4938008576
I0423 22:44:03.330299 21205 layer_factory.hpp:77] Creating layer conv3_4_dw/bn
I0423 22:44:03.330305 21205 net.cpp:84] Creating Layer conv3_4_dw/bn
I0423 22:44:03.330308 21205 net.cpp:406] conv3_4_dw/bn <- conv3_4_dw
I0423 22:44:03.330312 21205 net.cpp:367] conv3_4_dw/bn -> conv3_4_dw (in-place)
I0423 22:44:03.330533 21205 net.cpp:122] Setting up conv3_4_dw/bn
I0423 22:44:03.330540 21205 net.cpp:129] Top shape: 128 256 14 12 (5505024)
I0423 22:44:03.330543 21205 net.cpp:137] Memory required for data: 4960028672
I0423 22:44:03.330549 21205 layer_factory.hpp:77] Creating layer conv3_4_dw/scale
I0423 22:44:03.330555 21205 net.cpp:84] Creating Layer conv3_4_dw/scale
I0423 22:44:03.330557 21205 net.cpp:406] conv3_4_dw/scale <- conv3_4_dw
I0423 22:44:03.330561 21205 net.cpp:367] conv3_4_dw/scale -> conv3_4_dw (in-place)
I0423 22:44:03.330602 21205 layer_factory.hpp:77] Creating layer conv3_4_dw/scale
I0423 22:44:03.330755 21205 net.cpp:122] Setting up conv3_4_dw/scale
I0423 22:44:03.330763 21205 net.cpp:129] Top shape: 128 256 14 12 (5505024)
I0423 22:44:03.330766 21205 net.cpp:137] Memory required for data: 4982048768
I0423 22:44:03.330771 21205 layer_factory.hpp:77] Creating layer relu3_4_dw
I0423 22:44:03.330776 21205 net.cpp:84] Creating Layer relu3_4_dw
I0423 22:44:03.330780 21205 net.cpp:406] relu3_4_dw <- conv3_4_dw
I0423 22:44:03.330785 21205 net.cpp:367] relu3_4_dw -> conv3_4_dw (in-place)
I0423 22:44:03.330909 21205 net.cpp:122] Setting up relu3_4_dw
I0423 22:44:03.330917 21205 net.cpp:129] Top shape: 128 256 14 12 (5505024)
I0423 22:44:03.330919 21205 net.cpp:137] Memory required for data: 5004068864
I0423 22:44:03.330924 21205 layer_factory.hpp:77] Creating layer conv3_4_em
I0423 22:44:03.330932 21205 net.cpp:84] Creating Layer conv3_4_em
I0423 22:44:03.330936 21205 net.cpp:406] conv3_4_em <- conv3_4_dw
I0423 22:44:03.330940 21205 net.cpp:380] conv3_4_em -> conv3_4_em
I0423 22:44:03.333709 21205 net.cpp:122] Setting up conv3_4_em
I0423 22:44:03.333725 21205 net.cpp:129] Top shape: 128 128 14 12 (2752512)
I0423 22:44:03.333729 21205 net.cpp:137] Memory required for data: 5015078912
I0423 22:44:03.333735 21205 layer_factory.hpp:77] Creating layer conv3_4_em/bn
I0423 22:44:03.333742 21205 net.cpp:84] Creating Layer conv3_4_em/bn
I0423 22:44:03.333746 21205 net.cpp:406] conv3_4_em/bn <- conv3_4_em
I0423 22:44:03.333752 21205 net.cpp:367] conv3_4_em/bn -> conv3_4_em (in-place)
I0423 22:44:03.333983 21205 net.cpp:122] Setting up conv3_4_em/bn
I0423 22:44:03.333992 21205 net.cpp:129] Top shape: 128 128 14 12 (2752512)
I0423 22:44:03.333994 21205 net.cpp:137] Memory required for data: 5026088960
I0423 22:44:03.334002 21205 layer_factory.hpp:77] Creating layer conv3_4_em/scale
I0423 22:44:03.334009 21205 net.cpp:84] Creating Layer conv3_4_em/scale
I0423 22:44:03.334015 21205 net.cpp:406] conv3_4_em/scale <- conv3_4_em
I0423 22:44:03.334020 21205 net.cpp:367] conv3_4_em/scale -> conv3_4_em (in-place)
I0423 22:44:03.334064 21205 layer_factory.hpp:77] Creating layer conv3_4_em/scale
I0423 22:44:03.334194 21205 net.cpp:122] Setting up conv3_4_em/scale
I0423 22:44:03.334201 21205 net.cpp:129] Top shape: 128 128 14 12 (2752512)
I0423 22:44:03.334204 21205 net.cpp:137] Memory required for data: 5037099008
I0423 22:44:03.334210 21205 layer_factory.hpp:77] Creating layer res3_4
I0423 22:44:03.334214 21205 net.cpp:84] Creating Layer res3_4
I0423 22:44:03.334218 21205 net.cpp:406] res3_4 <- res3_3_res3_3_0_split_1
I0423 22:44:03.334221 21205 net.cpp:406] res3_4 <- conv3_4_em
I0423 22:44:03.334228 21205 net.cpp:380] res3_4 -> res3_4
I0423 22:44:03.334257 21205 net.cpp:122] Setting up res3_4
I0423 22:44:03.334264 21205 net.cpp:129] Top shape: 128 128 14 12 (2752512)
I0423 22:44:03.334266 21205 net.cpp:137] Memory required for data: 5048109056
I0423 22:44:03.334270 21205 layer_factory.hpp:77] Creating layer res3_4_res3_4_0_split
I0423 22:44:03.334275 21205 net.cpp:84] Creating Layer res3_4_res3_4_0_split
I0423 22:44:03.334277 21205 net.cpp:406] res3_4_res3_4_0_split <- res3_4
I0423 22:44:03.334283 21205 net.cpp:380] res3_4_res3_4_0_split -> res3_4_res3_4_0_split_0
I0423 22:44:03.334290 21205 net.cpp:380] res3_4_res3_4_0_split -> res3_4_res3_4_0_split_1
I0423 22:44:03.334331 21205 net.cpp:122] Setting up res3_4_res3_4_0_split
I0423 22:44:03.334337 21205 net.cpp:129] Top shape: 128 128 14 12 (2752512)
I0423 22:44:03.334341 21205 net.cpp:129] Top shape: 128 128 14 12 (2752512)
I0423 22:44:03.334344 21205 net.cpp:137] Memory required for data: 5070129152
I0423 22:44:03.334347 21205 layer_factory.hpp:77] Creating layer conv3_5_ex
I0423 22:44:03.334357 21205 net.cpp:84] Creating Layer conv3_5_ex
I0423 22:44:03.334360 21205 net.cpp:406] conv3_5_ex <- res3_4_res3_4_0_split_0
I0423 22:44:03.334367 21205 net.cpp:380] conv3_5_ex -> conv3_5_ex
I0423 22:44:03.337852 21205 net.cpp:122] Setting up conv3_5_ex
I0423 22:44:03.337868 21205 net.cpp:129] Top shape: 128 256 14 12 (5505024)
I0423 22:44:03.337889 21205 net.cpp:137] Memory required for data: 5092149248
I0423 22:44:03.337896 21205 layer_factory.hpp:77] Creating layer conv3_5_ex/bn
I0423 22:44:03.337903 21205 net.cpp:84] Creating Layer conv3_5_ex/bn
I0423 22:44:03.337906 21205 net.cpp:406] conv3_5_ex/bn <- conv3_5_ex
I0423 22:44:03.337913 21205 net.cpp:367] conv3_5_ex/bn -> conv3_5_ex (in-place)
I0423 22:44:03.338150 21205 net.cpp:122] Setting up conv3_5_ex/bn
I0423 22:44:03.338158 21205 net.cpp:129] Top shape: 128 256 14 12 (5505024)
I0423 22:44:03.338160 21205 net.cpp:137] Memory required for data: 5114169344
I0423 22:44:03.338167 21205 layer_factory.hpp:77] Creating layer conv3_5_ex/scale
I0423 22:44:03.338173 21205 net.cpp:84] Creating Layer conv3_5_ex/scale
I0423 22:44:03.338176 21205 net.cpp:406] conv3_5_ex/scale <- conv3_5_ex
I0423 22:44:03.338181 21205 net.cpp:367] conv3_5_ex/scale -> conv3_5_ex (in-place)
I0423 22:44:03.338223 21205 layer_factory.hpp:77] Creating layer conv3_5_ex/scale
I0423 22:44:03.338354 21205 net.cpp:122] Setting up conv3_5_ex/scale
I0423 22:44:03.338363 21205 net.cpp:129] Top shape: 128 256 14 12 (5505024)
I0423 22:44:03.338366 21205 net.cpp:137] Memory required for data: 5136189440
I0423 22:44:03.338371 21205 layer_factory.hpp:77] Creating layer relu3_5_ex
I0423 22:44:03.338376 21205 net.cpp:84] Creating Layer relu3_5_ex
I0423 22:44:03.338378 21205 net.cpp:406] relu3_5_ex <- conv3_5_ex
I0423 22:44:03.338382 21205 net.cpp:367] relu3_5_ex -> conv3_5_ex (in-place)
I0423 22:44:03.338511 21205 net.cpp:122] Setting up relu3_5_ex
I0423 22:44:03.338520 21205 net.cpp:129] Top shape: 128 256 14 12 (5505024)
I0423 22:44:03.338522 21205 net.cpp:137] Memory required for data: 5158209536
I0423 22:44:03.338526 21205 layer_factory.hpp:77] Creating layer conv3_5_dw
I0423 22:44:03.338532 21205 net.cpp:84] Creating Layer conv3_5_dw
I0423 22:44:03.338536 21205 net.cpp:406] conv3_5_dw <- conv3_5_ex
I0423 22:44:03.338542 21205 net.cpp:380] conv3_5_dw -> conv3_5_dw
I0423 22:44:03.338840 21205 net.cpp:122] Setting up conv3_5_dw
I0423 22:44:03.338850 21205 net.cpp:129] Top shape: 128 256 14 12 (5505024)
I0423 22:44:03.338853 21205 net.cpp:137] Memory required for data: 5180229632
I0423 22:44:03.338858 21205 layer_factory.hpp:77] Creating layer conv3_5_dw/bn
I0423 22:44:03.338863 21205 net.cpp:84] Creating Layer conv3_5_dw/bn
I0423 22:44:03.338866 21205 net.cpp:406] conv3_5_dw/bn <- conv3_5_dw
I0423 22:44:03.338871 21205 net.cpp:367] conv3_5_dw/bn -> conv3_5_dw (in-place)
I0423 22:44:03.339098 21205 net.cpp:122] Setting up conv3_5_dw/bn
I0423 22:44:03.339107 21205 net.cpp:129] Top shape: 128 256 14 12 (5505024)
I0423 22:44:03.339108 21205 net.cpp:137] Memory required for data: 5202249728
I0423 22:44:03.339115 21205 layer_factory.hpp:77] Creating layer conv3_5_dw/scale
I0423 22:44:03.339120 21205 net.cpp:84] Creating Layer conv3_5_dw/scale
I0423 22:44:03.339123 21205 net.cpp:406] conv3_5_dw/scale <- conv3_5_dw
I0423 22:44:03.339128 21205 net.cpp:367] conv3_5_dw/scale -> conv3_5_dw (in-place)
I0423 22:44:03.339169 21205 layer_factory.hpp:77] Creating layer conv3_5_dw/scale
I0423 22:44:03.339299 21205 net.cpp:122] Setting up conv3_5_dw/scale
I0423 22:44:03.339306 21205 net.cpp:129] Top shape: 128 256 14 12 (5505024)
I0423 22:44:03.339308 21205 net.cpp:137] Memory required for data: 5224269824
I0423 22:44:03.339314 21205 layer_factory.hpp:77] Creating layer relu3_5_dw
I0423 22:44:03.339318 21205 net.cpp:84] Creating Layer relu3_5_dw
I0423 22:44:03.339321 21205 net.cpp:406] relu3_5_dw <- conv3_5_dw
I0423 22:44:03.339326 21205 net.cpp:367] relu3_5_dw -> conv3_5_dw (in-place)
I0423 22:44:03.339452 21205 net.cpp:122] Setting up relu3_5_dw
I0423 22:44:03.339458 21205 net.cpp:129] Top shape: 128 256 14 12 (5505024)
I0423 22:44:03.339462 21205 net.cpp:137] Memory required for data: 5246289920
I0423 22:44:03.339465 21205 layer_factory.hpp:77] Creating layer conv3_5_em
I0423 22:44:03.339473 21205 net.cpp:84] Creating Layer conv3_5_em
I0423 22:44:03.339476 21205 net.cpp:406] conv3_5_em <- conv3_5_dw
I0423 22:44:03.339481 21205 net.cpp:380] conv3_5_em -> conv3_5_em
I0423 22:44:03.342192 21205 net.cpp:122] Setting up conv3_5_em
I0423 22:44:03.342209 21205 net.cpp:129] Top shape: 128 128 14 12 (2752512)
I0423 22:44:03.342212 21205 net.cpp:137] Memory required for data: 5257299968
I0423 22:44:03.342217 21205 layer_factory.hpp:77] Creating layer conv3_5_em/bn
I0423 22:44:03.342226 21205 net.cpp:84] Creating Layer conv3_5_em/bn
I0423 22:44:03.342231 21205 net.cpp:406] conv3_5_em/bn <- conv3_5_em
I0423 22:44:03.342236 21205 net.cpp:367] conv3_5_em/bn -> conv3_5_em (in-place)
I0423 22:44:03.342471 21205 net.cpp:122] Setting up conv3_5_em/bn
I0423 22:44:03.342480 21205 net.cpp:129] Top shape: 128 128 14 12 (2752512)
I0423 22:44:03.342483 21205 net.cpp:137] Memory required for data: 5268310016
I0423 22:44:03.342490 21205 layer_factory.hpp:77] Creating layer conv3_5_em/scale
I0423 22:44:03.342497 21205 net.cpp:84] Creating Layer conv3_5_em/scale
I0423 22:44:03.342500 21205 net.cpp:406] conv3_5_em/scale <- conv3_5_em
I0423 22:44:03.342505 21205 net.cpp:367] conv3_5_em/scale -> conv3_5_em (in-place)
I0423 22:44:03.342547 21205 layer_factory.hpp:77] Creating layer conv3_5_em/scale
I0423 22:44:03.342681 21205 net.cpp:122] Setting up conv3_5_em/scale
I0423 22:44:03.342689 21205 net.cpp:129] Top shape: 128 128 14 12 (2752512)
I0423 22:44:03.342691 21205 net.cpp:137] Memory required for data: 5279320064
I0423 22:44:03.342696 21205 layer_factory.hpp:77] Creating layer res3_5
I0423 22:44:03.342701 21205 net.cpp:84] Creating Layer res3_5
I0423 22:44:03.342705 21205 net.cpp:406] res3_5 <- res3_4_res3_4_0_split_1
I0423 22:44:03.342710 21205 net.cpp:406] res3_5 <- conv3_5_em
I0423 22:44:03.342715 21205 net.cpp:380] res3_5 -> res3_5
I0423 22:44:03.342743 21205 net.cpp:122] Setting up res3_5
I0423 22:44:03.342751 21205 net.cpp:129] Top shape: 128 128 14 12 (2752512)
I0423 22:44:03.342754 21205 net.cpp:137] Memory required for data: 5290330112
I0423 22:44:03.342758 21205 layer_factory.hpp:77] Creating layer res3_5_res3_5_0_split
I0423 22:44:03.342763 21205 net.cpp:84] Creating Layer res3_5_res3_5_0_split
I0423 22:44:03.342766 21205 net.cpp:406] res3_5_res3_5_0_split <- res3_5
I0423 22:44:03.342770 21205 net.cpp:380] res3_5_res3_5_0_split -> res3_5_res3_5_0_split_0
I0423 22:44:03.342777 21205 net.cpp:380] res3_5_res3_5_0_split -> res3_5_res3_5_0_split_1
I0423 22:44:03.342819 21205 net.cpp:122] Setting up res3_5_res3_5_0_split
I0423 22:44:03.342825 21205 net.cpp:129] Top shape: 128 128 14 12 (2752512)
I0423 22:44:03.342829 21205 net.cpp:129] Top shape: 128 128 14 12 (2752512)
I0423 22:44:03.342831 21205 net.cpp:137] Memory required for data: 5312350208
I0423 22:44:03.342834 21205 layer_factory.hpp:77] Creating layer conv3_6_ex
I0423 22:44:03.342844 21205 net.cpp:84] Creating Layer conv3_6_ex
I0423 22:44:03.342849 21205 net.cpp:406] conv3_6_ex <- res3_5_res3_5_0_split_0
I0423 22:44:03.342854 21205 net.cpp:380] conv3_6_ex -> conv3_6_ex
I0423 22:44:03.345585 21205 net.cpp:122] Setting up conv3_6_ex
I0423 22:44:03.345602 21205 net.cpp:129] Top shape: 128 256 14 12 (5505024)
I0423 22:44:03.345605 21205 net.cpp:137] Memory required for data: 5334370304
I0423 22:44:03.345612 21205 layer_factory.hpp:77] Creating layer conv3_6_ex/bn
I0423 22:44:03.345618 21205 net.cpp:84] Creating Layer conv3_6_ex/bn
I0423 22:44:03.345621 21205 net.cpp:406] conv3_6_ex/bn <- conv3_6_ex
I0423 22:44:03.345628 21205 net.cpp:367] conv3_6_ex/bn -> conv3_6_ex (in-place)
I0423 22:44:03.345865 21205 net.cpp:122] Setting up conv3_6_ex/bn
I0423 22:44:03.345873 21205 net.cpp:129] Top shape: 128 256 14 12 (5505024)
I0423 22:44:03.345875 21205 net.cpp:137] Memory required for data: 5356390400
I0423 22:44:03.345883 21205 layer_factory.hpp:77] Creating layer conv3_6_ex/scale
I0423 22:44:03.345888 21205 net.cpp:84] Creating Layer conv3_6_ex/scale
I0423 22:44:03.345891 21205 net.cpp:406] conv3_6_ex/scale <- conv3_6_ex
I0423 22:44:03.345896 21205 net.cpp:367] conv3_6_ex/scale -> conv3_6_ex (in-place)
I0423 22:44:03.345939 21205 layer_factory.hpp:77] Creating layer conv3_6_ex/scale
I0423 22:44:03.346072 21205 net.cpp:122] Setting up conv3_6_ex/scale
I0423 22:44:03.346096 21205 net.cpp:129] Top shape: 128 256 14 12 (5505024)
I0423 22:44:03.346101 21205 net.cpp:137] Memory required for data: 5378410496
I0423 22:44:03.346107 21205 layer_factory.hpp:77] Creating layer relu3_6_ex
I0423 22:44:03.346112 21205 net.cpp:84] Creating Layer relu3_6_ex
I0423 22:44:03.346115 21205 net.cpp:406] relu3_6_ex <- conv3_6_ex
I0423 22:44:03.346119 21205 net.cpp:367] relu3_6_ex -> conv3_6_ex (in-place)
I0423 22:44:03.346251 21205 net.cpp:122] Setting up relu3_6_ex
I0423 22:44:03.346259 21205 net.cpp:129] Top shape: 128 256 14 12 (5505024)
I0423 22:44:03.346262 21205 net.cpp:137] Memory required for data: 5400430592
I0423 22:44:03.346266 21205 layer_factory.hpp:77] Creating layer conv3_6_dw
I0423 22:44:03.346274 21205 net.cpp:84] Creating Layer conv3_6_dw
I0423 22:44:03.346277 21205 net.cpp:406] conv3_6_dw <- conv3_6_ex
I0423 22:44:03.346282 21205 net.cpp:380] conv3_6_dw -> conv3_6_dw
I0423 22:44:03.346576 21205 net.cpp:122] Setting up conv3_6_dw
I0423 22:44:03.346586 21205 net.cpp:129] Top shape: 128 256 14 12 (5505024)
I0423 22:44:03.346590 21205 net.cpp:137] Memory required for data: 5422450688
I0423 22:44:03.346595 21205 layer_factory.hpp:77] Creating layer conv3_6_dw/bn
I0423 22:44:03.346599 21205 net.cpp:84] Creating Layer conv3_6_dw/bn
I0423 22:44:03.346603 21205 net.cpp:406] conv3_6_dw/bn <- conv3_6_dw
I0423 22:44:03.346607 21205 net.cpp:367] conv3_6_dw/bn -> conv3_6_dw (in-place)
I0423 22:44:03.346835 21205 net.cpp:122] Setting up conv3_6_dw/bn
I0423 22:44:03.346843 21205 net.cpp:129] Top shape: 128 256 14 12 (5505024)
I0423 22:44:03.346846 21205 net.cpp:137] Memory required for data: 5444470784
I0423 22:44:03.346873 21205 layer_factory.hpp:77] Creating layer conv3_6_dw/scale
I0423 22:44:03.346879 21205 net.cpp:84] Creating Layer conv3_6_dw/scale
I0423 22:44:03.346882 21205 net.cpp:406] conv3_6_dw/scale <- conv3_6_dw
I0423 22:44:03.346889 21205 net.cpp:367] conv3_6_dw/scale -> conv3_6_dw (in-place)
I0423 22:44:03.346935 21205 layer_factory.hpp:77] Creating layer conv3_6_dw/scale
I0423 22:44:03.347065 21205 net.cpp:122] Setting up conv3_6_dw/scale
I0423 22:44:03.347072 21205 net.cpp:129] Top shape: 128 256 14 12 (5505024)
I0423 22:44:03.347075 21205 net.cpp:137] Memory required for data: 5466490880
I0423 22:44:03.347080 21205 layer_factory.hpp:77] Creating layer relu3_6_dw
I0423 22:44:03.347084 21205 net.cpp:84] Creating Layer relu3_6_dw
I0423 22:44:03.347087 21205 net.cpp:406] relu3_6_dw <- conv3_6_dw
I0423 22:44:03.347093 21205 net.cpp:367] relu3_6_dw -> conv3_6_dw (in-place)
I0423 22:44:03.347221 21205 net.cpp:122] Setting up relu3_6_dw
I0423 22:44:03.347229 21205 net.cpp:129] Top shape: 128 256 14 12 (5505024)
I0423 22:44:03.347232 21205 net.cpp:137] Memory required for data: 5488510976
I0423 22:44:03.347236 21205 layer_factory.hpp:77] Creating layer conv3_6_em
I0423 22:44:03.347244 21205 net.cpp:84] Creating Layer conv3_6_em
I0423 22:44:03.347247 21205 net.cpp:406] conv3_6_em <- conv3_6_dw
I0423 22:44:03.347252 21205 net.cpp:380] conv3_6_em -> conv3_6_em
I0423 22:44:03.350334 21205 net.cpp:122] Setting up conv3_6_em
I0423 22:44:03.350352 21205 net.cpp:129] Top shape: 128 128 14 12 (2752512)
I0423 22:44:03.350354 21205 net.cpp:137] Memory required for data: 5499521024
I0423 22:44:03.350359 21205 layer_factory.hpp:77] Creating layer conv3_6_em/bn
I0423 22:44:03.350368 21205 net.cpp:84] Creating Layer conv3_6_em/bn
I0423 22:44:03.350371 21205 net.cpp:406] conv3_6_em/bn <- conv3_6_em
I0423 22:44:03.350376 21205 net.cpp:367] conv3_6_em/bn -> conv3_6_em (in-place)
I0423 22:44:03.350617 21205 net.cpp:122] Setting up conv3_6_em/bn
I0423 22:44:03.350626 21205 net.cpp:129] Top shape: 128 128 14 12 (2752512)
I0423 22:44:03.350630 21205 net.cpp:137] Memory required for data: 5510531072
I0423 22:44:03.350636 21205 layer_factory.hpp:77] Creating layer conv3_6_em/scale
I0423 22:44:03.350641 21205 net.cpp:84] Creating Layer conv3_6_em/scale
I0423 22:44:03.350644 21205 net.cpp:406] conv3_6_em/scale <- conv3_6_em
I0423 22:44:03.350651 21205 net.cpp:367] conv3_6_em/scale -> conv3_6_em (in-place)
I0423 22:44:03.350713 21205 layer_factory.hpp:77] Creating layer conv3_6_em/scale
I0423 22:44:03.350849 21205 net.cpp:122] Setting up conv3_6_em/scale
I0423 22:44:03.350858 21205 net.cpp:129] Top shape: 128 128 14 12 (2752512)
I0423 22:44:03.350860 21205 net.cpp:137] Memory required for data: 5521541120
I0423 22:44:03.350865 21205 layer_factory.hpp:77] Creating layer res3_6
I0423 22:44:03.350872 21205 net.cpp:84] Creating Layer res3_6
I0423 22:44:03.350875 21205 net.cpp:406] res3_6 <- res3_5_res3_5_0_split_1
I0423 22:44:03.350879 21205 net.cpp:406] res3_6 <- conv3_6_em
I0423 22:44:03.350884 21205 net.cpp:380] res3_6 -> res3_6
I0423 22:44:03.350914 21205 net.cpp:122] Setting up res3_6
I0423 22:44:03.350922 21205 net.cpp:129] Top shape: 128 128 14 12 (2752512)
I0423 22:44:03.350924 21205 net.cpp:137] Memory required for data: 5532551168
I0423 22:44:03.350927 21205 layer_factory.hpp:77] Creating layer conv4_ex
I0423 22:44:03.350934 21205 net.cpp:84] Creating Layer conv4_ex
I0423 22:44:03.350937 21205 net.cpp:406] conv4_ex <- res3_6
I0423 22:44:03.350944 21205 net.cpp:380] conv4_ex -> conv4_ex
I0423 22:44:03.355008 21205 net.cpp:122] Setting up conv4_ex
I0423 22:44:03.355024 21205 net.cpp:129] Top shape: 128 512 14 12 (11010048)
I0423 22:44:03.355028 21205 net.cpp:137] Memory required for data: 5576591360
I0423 22:44:03.355033 21205 layer_factory.hpp:77] Creating layer conv4_ex/bn
I0423 22:44:03.355041 21205 net.cpp:84] Creating Layer conv4_ex/bn
I0423 22:44:03.355044 21205 net.cpp:406] conv4_ex/bn <- conv4_ex
I0423 22:44:03.355051 21205 net.cpp:367] conv4_ex/bn -> conv4_ex (in-place)
I0423 22:44:03.355301 21205 net.cpp:122] Setting up conv4_ex/bn
I0423 22:44:03.355310 21205 net.cpp:129] Top shape: 128 512 14 12 (11010048)
I0423 22:44:03.355314 21205 net.cpp:137] Memory required for data: 5620631552
I0423 22:44:03.355320 21205 layer_factory.hpp:77] Creating layer conv4_ex/scale
I0423 22:44:03.355326 21205 net.cpp:84] Creating Layer conv4_ex/scale
I0423 22:44:03.355329 21205 net.cpp:406] conv4_ex/scale <- conv4_ex
I0423 22:44:03.355334 21205 net.cpp:367] conv4_ex/scale -> conv4_ex (in-place)
I0423 22:44:03.355373 21205 layer_factory.hpp:77] Creating layer conv4_ex/scale
I0423 22:44:03.355514 21205 net.cpp:122] Setting up conv4_ex/scale
I0423 22:44:03.355521 21205 net.cpp:129] Top shape: 128 512 14 12 (11010048)
I0423 22:44:03.355523 21205 net.cpp:137] Memory required for data: 5664671744
I0423 22:44:03.355530 21205 layer_factory.hpp:77] Creating layer relu4_ex
I0423 22:44:03.355535 21205 net.cpp:84] Creating Layer relu4_ex
I0423 22:44:03.355538 21205 net.cpp:406] relu4_ex <- conv4_ex
I0423 22:44:03.355543 21205 net.cpp:367] relu4_ex -> conv4_ex (in-place)
I0423 22:44:03.355702 21205 net.cpp:122] Setting up relu4_ex
I0423 22:44:03.355710 21205 net.cpp:129] Top shape: 128 512 14 12 (11010048)
I0423 22:44:03.355713 21205 net.cpp:137] Memory required for data: 5708711936
I0423 22:44:03.355717 21205 layer_factory.hpp:77] Creating layer conv4_dw
I0423 22:44:03.355726 21205 net.cpp:84] Creating Layer conv4_dw
I0423 22:44:03.355729 21205 net.cpp:406] conv4_dw <- conv4_ex
I0423 22:44:03.355734 21205 net.cpp:380] conv4_dw -> conv4_dw
I0423 22:44:03.356051 21205 net.cpp:122] Setting up conv4_dw
I0423 22:44:03.356060 21205 net.cpp:129] Top shape: 128 512 7 6 (2752512)
I0423 22:44:03.356063 21205 net.cpp:137] Memory required for data: 5719721984
I0423 22:44:03.356068 21205 layer_factory.hpp:77] Creating layer conv4_dw/bn
I0423 22:44:03.356075 21205 net.cpp:84] Creating Layer conv4_dw/bn
I0423 22:44:03.356078 21205 net.cpp:406] conv4_dw/bn <- conv4_dw
I0423 22:44:03.356082 21205 net.cpp:367] conv4_dw/bn -> conv4_dw (in-place)
I0423 22:44:03.356312 21205 net.cpp:122] Setting up conv4_dw/bn
I0423 22:44:03.356319 21205 net.cpp:129] Top shape: 128 512 7 6 (2752512)
I0423 22:44:03.356323 21205 net.cpp:137] Memory required for data: 5730732032
I0423 22:44:03.356330 21205 layer_factory.hpp:77] Creating layer conv4_dw/scale
I0423 22:44:03.356338 21205 net.cpp:84] Creating Layer conv4_dw/scale
I0423 22:44:03.356341 21205 net.cpp:406] conv4_dw/scale <- conv4_dw
I0423 22:44:03.356365 21205 net.cpp:367] conv4_dw/scale -> conv4_dw (in-place)
I0423 22:44:03.356406 21205 layer_factory.hpp:77] Creating layer conv4_dw/scale
I0423 22:44:03.356547 21205 net.cpp:122] Setting up conv4_dw/scale
I0423 22:44:03.356555 21205 net.cpp:129] Top shape: 128 512 7 6 (2752512)
I0423 22:44:03.356559 21205 net.cpp:137] Memory required for data: 5741742080
I0423 22:44:03.356564 21205 layer_factory.hpp:77] Creating layer relu4_dw
I0423 22:44:03.356568 21205 net.cpp:84] Creating Layer relu4_dw
I0423 22:44:03.356571 21205 net.cpp:406] relu4_dw <- conv4_dw
I0423 22:44:03.356576 21205 net.cpp:367] relu4_dw -> conv4_dw (in-place)
I0423 22:44:03.356683 21205 net.cpp:122] Setting up relu4_dw
I0423 22:44:03.356691 21205 net.cpp:129] Top shape: 128 512 7 6 (2752512)
I0423 22:44:03.356693 21205 net.cpp:137] Memory required for data: 5752752128
I0423 22:44:03.356698 21205 layer_factory.hpp:77] Creating layer conv4_em
I0423 22:44:03.356706 21205 net.cpp:84] Creating Layer conv4_em
I0423 22:44:03.356709 21205 net.cpp:406] conv4_em <- conv4_dw
I0423 22:44:03.356714 21205 net.cpp:380] conv4_em -> conv4_em
I0423 22:44:03.359663 21205 net.cpp:122] Setting up conv4_em
I0423 22:44:03.359679 21205 net.cpp:129] Top shape: 128 128 7 6 (688128)
I0423 22:44:03.359683 21205 net.cpp:137] Memory required for data: 5755504640
I0423 22:44:03.359688 21205 layer_factory.hpp:77] Creating layer conv4_em/bn
I0423 22:44:03.359694 21205 net.cpp:84] Creating Layer conv4_em/bn
I0423 22:44:03.359699 21205 net.cpp:406] conv4_em/bn <- conv4_em
I0423 22:44:03.359704 21205 net.cpp:367] conv4_em/bn -> conv4_em (in-place)
I0423 22:44:03.359946 21205 net.cpp:122] Setting up conv4_em/bn
I0423 22:44:03.359956 21205 net.cpp:129] Top shape: 128 128 7 6 (688128)
I0423 22:44:03.359957 21205 net.cpp:137] Memory required for data: 5758257152
I0423 22:44:03.359964 21205 layer_factory.hpp:77] Creating layer conv4_em/scale
I0423 22:44:03.359972 21205 net.cpp:84] Creating Layer conv4_em/scale
I0423 22:44:03.359974 21205 net.cpp:406] conv4_em/scale <- conv4_em
I0423 22:44:03.359978 21205 net.cpp:367] conv4_em/scale -> conv4_em (in-place)
I0423 22:44:03.360023 21205 layer_factory.hpp:77] Creating layer conv4_em/scale
I0423 22:44:03.360159 21205 net.cpp:122] Setting up conv4_em/scale
I0423 22:44:03.360168 21205 net.cpp:129] Top shape: 128 128 7 6 (688128)
I0423 22:44:03.360170 21205 net.cpp:137] Memory required for data: 5761009664
I0423 22:44:03.360175 21205 layer_factory.hpp:77] Creating layer conv4_em_conv4_em/scale_0_split
I0423 22:44:03.360182 21205 net.cpp:84] Creating Layer conv4_em_conv4_em/scale_0_split
I0423 22:44:03.360185 21205 net.cpp:406] conv4_em_conv4_em/scale_0_split <- conv4_em
I0423 22:44:03.360190 21205 net.cpp:380] conv4_em_conv4_em/scale_0_split -> conv4_em_conv4_em/scale_0_split_0
I0423 22:44:03.360196 21205 net.cpp:380] conv4_em_conv4_em/scale_0_split -> conv4_em_conv4_em/scale_0_split_1
I0423 22:44:03.360239 21205 net.cpp:122] Setting up conv4_em_conv4_em/scale_0_split
I0423 22:44:03.360247 21205 net.cpp:129] Top shape: 128 128 7 6 (688128)
I0423 22:44:03.360250 21205 net.cpp:129] Top shape: 128 128 7 6 (688128)
I0423 22:44:03.360254 21205 net.cpp:137] Memory required for data: 5766514688
I0423 22:44:03.360255 21205 layer_factory.hpp:77] Creating layer conv4_1_ex
I0423 22:44:03.360263 21205 net.cpp:84] Creating Layer conv4_1_ex
I0423 22:44:03.360266 21205 net.cpp:406] conv4_1_ex <- conv4_em_conv4_em/scale_0_split_0
I0423 22:44:03.360271 21205 net.cpp:380] conv4_1_ex -> conv4_1_ex
I0423 22:44:03.363003 21205 net.cpp:122] Setting up conv4_1_ex
I0423 22:44:03.363020 21205 net.cpp:129] Top shape: 128 256 7 6 (1376256)
I0423 22:44:03.363023 21205 net.cpp:137] Memory required for data: 5772019712
I0423 22:44:03.363029 21205 layer_factory.hpp:77] Creating layer conv4_1_ex/bn
I0423 22:44:03.363035 21205 net.cpp:84] Creating Layer conv4_1_ex/bn
I0423 22:44:03.363039 21205 net.cpp:406] conv4_1_ex/bn <- conv4_1_ex
I0423 22:44:03.363046 21205 net.cpp:367] conv4_1_ex/bn -> conv4_1_ex (in-place)
I0423 22:44:03.363291 21205 net.cpp:122] Setting up conv4_1_ex/bn
I0423 22:44:03.363315 21205 net.cpp:129] Top shape: 128 256 7 6 (1376256)
I0423 22:44:03.363320 21205 net.cpp:137] Memory required for data: 5777524736
I0423 22:44:03.363327 21205 layer_factory.hpp:77] Creating layer conv4_1_ex/scale
I0423 22:44:03.363332 21205 net.cpp:84] Creating Layer conv4_1_ex/scale
I0423 22:44:03.363335 21205 net.cpp:406] conv4_1_ex/scale <- conv4_1_ex
I0423 22:44:03.363343 21205 net.cpp:367] conv4_1_ex/scale -> conv4_1_ex (in-place)
I0423 22:44:03.363389 21205 layer_factory.hpp:77] Creating layer conv4_1_ex/scale
I0423 22:44:03.363524 21205 net.cpp:122] Setting up conv4_1_ex/scale
I0423 22:44:03.363533 21205 net.cpp:129] Top shape: 128 256 7 6 (1376256)
I0423 22:44:03.363536 21205 net.cpp:137] Memory required for data: 5783029760
I0423 22:44:03.363541 21205 layer_factory.hpp:77] Creating layer relu4_1_ex
I0423 22:44:03.363546 21205 net.cpp:84] Creating Layer relu4_1_ex
I0423 22:44:03.363548 21205 net.cpp:406] relu4_1_ex <- conv4_1_ex
I0423 22:44:03.363554 21205 net.cpp:367] relu4_1_ex -> conv4_1_ex (in-place)
I0423 22:44:03.363656 21205 net.cpp:122] Setting up relu4_1_ex
I0423 22:44:03.363663 21205 net.cpp:129] Top shape: 128 256 7 6 (1376256)
I0423 22:44:03.363665 21205 net.cpp:137] Memory required for data: 5788534784
I0423 22:44:03.363670 21205 layer_factory.hpp:77] Creating layer conv4_1_dw
I0423 22:44:03.363678 21205 net.cpp:84] Creating Layer conv4_1_dw
I0423 22:44:03.363682 21205 net.cpp:406] conv4_1_dw <- conv4_1_ex
I0423 22:44:03.363687 21205 net.cpp:380] conv4_1_dw -> conv4_1_dw
I0423 22:44:03.363991 21205 net.cpp:122] Setting up conv4_1_dw
I0423 22:44:03.363999 21205 net.cpp:129] Top shape: 128 256 7 6 (1376256)
I0423 22:44:03.364002 21205 net.cpp:137] Memory required for data: 5794039808
I0423 22:44:03.364007 21205 layer_factory.hpp:77] Creating layer conv4_1_dw/bn
I0423 22:44:03.364012 21205 net.cpp:84] Creating Layer conv4_1_dw/bn
I0423 22:44:03.364015 21205 net.cpp:406] conv4_1_dw/bn <- conv4_1_dw
I0423 22:44:03.364020 21205 net.cpp:367] conv4_1_dw/bn -> conv4_1_dw (in-place)
I0423 22:44:03.364255 21205 net.cpp:122] Setting up conv4_1_dw/bn
I0423 22:44:03.364264 21205 net.cpp:129] Top shape: 128 256 7 6 (1376256)
I0423 22:44:03.364265 21205 net.cpp:137] Memory required for data: 5799544832
I0423 22:44:03.364271 21205 layer_factory.hpp:77] Creating layer conv4_1_dw/scale
I0423 22:44:03.364276 21205 net.cpp:84] Creating Layer conv4_1_dw/scale
I0423 22:44:03.364280 21205 net.cpp:406] conv4_1_dw/scale <- conv4_1_dw
I0423 22:44:03.364284 21205 net.cpp:367] conv4_1_dw/scale -> conv4_1_dw (in-place)
I0423 22:44:03.364326 21205 layer_factory.hpp:77] Creating layer conv4_1_dw/scale
I0423 22:44:03.364462 21205 net.cpp:122] Setting up conv4_1_dw/scale
I0423 22:44:03.364470 21205 net.cpp:129] Top shape: 128 256 7 6 (1376256)
I0423 22:44:03.364472 21205 net.cpp:137] Memory required for data: 5805049856
I0423 22:44:03.364477 21205 layer_factory.hpp:77] Creating layer relu4_1_dw
I0423 22:44:03.364481 21205 net.cpp:84] Creating Layer relu4_1_dw
I0423 22:44:03.364485 21205 net.cpp:406] relu4_1_dw <- conv4_1_dw
I0423 22:44:03.364490 21205 net.cpp:367] relu4_1_dw -> conv4_1_dw (in-place)
I0423 22:44:03.364590 21205 net.cpp:122] Setting up relu4_1_dw
I0423 22:44:03.364598 21205 net.cpp:129] Top shape: 128 256 7 6 (1376256)
I0423 22:44:03.364601 21205 net.cpp:137] Memory required for data: 5810554880
I0423 22:44:03.364605 21205 layer_factory.hpp:77] Creating layer conv4_1_em
I0423 22:44:03.364614 21205 net.cpp:84] Creating Layer conv4_1_em
I0423 22:44:03.364616 21205 net.cpp:406] conv4_1_em <- conv4_1_dw
I0423 22:44:03.364621 21205 net.cpp:380] conv4_1_em -> conv4_1_em
I0423 22:44:03.367733 21205 net.cpp:122] Setting up conv4_1_em
I0423 22:44:03.367748 21205 net.cpp:129] Top shape: 128 128 7 6 (688128)
I0423 22:44:03.367753 21205 net.cpp:137] Memory required for data: 5813307392
I0423 22:44:03.367759 21205 layer_factory.hpp:77] Creating layer conv4_1_em/bn
I0423 22:44:03.367766 21205 net.cpp:84] Creating Layer conv4_1_em/bn
I0423 22:44:03.367770 21205 net.cpp:406] conv4_1_em/bn <- conv4_1_em
I0423 22:44:03.367795 21205 net.cpp:367] conv4_1_em/bn -> conv4_1_em (in-place)
I0423 22:44:03.368043 21205 net.cpp:122] Setting up conv4_1_em/bn
I0423 22:44:03.368052 21205 net.cpp:129] Top shape: 128 128 7 6 (688128)
I0423 22:44:03.368054 21205 net.cpp:137] Memory required for data: 5816059904
I0423 22:44:03.368062 21205 layer_factory.hpp:77] Creating layer conv4_1_em/scale
I0423 22:44:03.368070 21205 net.cpp:84] Creating Layer conv4_1_em/scale
I0423 22:44:03.368073 21205 net.cpp:406] conv4_1_em/scale <- conv4_1_em
I0423 22:44:03.368077 21205 net.cpp:367] conv4_1_em/scale -> conv4_1_em (in-place)
I0423 22:44:03.368124 21205 layer_factory.hpp:77] Creating layer conv4_1_em/scale
I0423 22:44:03.368263 21205 net.cpp:122] Setting up conv4_1_em/scale
I0423 22:44:03.368270 21205 net.cpp:129] Top shape: 128 128 7 6 (688128)
I0423 22:44:03.368273 21205 net.cpp:137] Memory required for data: 5818812416
I0423 22:44:03.368278 21205 layer_factory.hpp:77] Creating layer res4_1
I0423 22:44:03.368283 21205 net.cpp:84] Creating Layer res4_1
I0423 22:44:03.368286 21205 net.cpp:406] res4_1 <- conv4_em_conv4_em/scale_0_split_1
I0423 22:44:03.368290 21205 net.cpp:406] res4_1 <- conv4_1_em
I0423 22:44:03.368295 21205 net.cpp:380] res4_1 -> res4_1
I0423 22:44:03.368321 21205 net.cpp:122] Setting up res4_1
I0423 22:44:03.368327 21205 net.cpp:129] Top shape: 128 128 7 6 (688128)
I0423 22:44:03.368330 21205 net.cpp:137] Memory required for data: 5821564928
I0423 22:44:03.368332 21205 layer_factory.hpp:77] Creating layer res4_1_res4_1_0_split
I0423 22:44:03.368340 21205 net.cpp:84] Creating Layer res4_1_res4_1_0_split
I0423 22:44:03.368343 21205 net.cpp:406] res4_1_res4_1_0_split <- res4_1
I0423 22:44:03.368347 21205 net.cpp:380] res4_1_res4_1_0_split -> res4_1_res4_1_0_split_0
I0423 22:44:03.368353 21205 net.cpp:380] res4_1_res4_1_0_split -> res4_1_res4_1_0_split_1
I0423 22:44:03.368398 21205 net.cpp:122] Setting up res4_1_res4_1_0_split
I0423 22:44:03.368405 21205 net.cpp:129] Top shape: 128 128 7 6 (688128)
I0423 22:44:03.368408 21205 net.cpp:129] Top shape: 128 128 7 6 (688128)
I0423 22:44:03.368410 21205 net.cpp:137] Memory required for data: 5827069952
I0423 22:44:03.368414 21205 layer_factory.hpp:77] Creating layer conv4_2_ex
I0423 22:44:03.368422 21205 net.cpp:84] Creating Layer conv4_2_ex
I0423 22:44:03.368427 21205 net.cpp:406] conv4_2_ex <- res4_1_res4_1_0_split_0
I0423 22:44:03.368432 21205 net.cpp:380] conv4_2_ex -> conv4_2_ex
I0423 22:44:03.371198 21205 net.cpp:122] Setting up conv4_2_ex
I0423 22:44:03.371214 21205 net.cpp:129] Top shape: 128 256 7 6 (1376256)
I0423 22:44:03.371217 21205 net.cpp:137] Memory required for data: 5832574976
I0423 22:44:03.371224 21205 layer_factory.hpp:77] Creating layer conv4_2_ex/bn
I0423 22:44:03.371232 21205 net.cpp:84] Creating Layer conv4_2_ex/bn
I0423 22:44:03.371237 21205 net.cpp:406] conv4_2_ex/bn <- conv4_2_ex
I0423 22:44:03.371242 21205 net.cpp:367] conv4_2_ex/bn -> conv4_2_ex (in-place)
I0423 22:44:03.371487 21205 net.cpp:122] Setting up conv4_2_ex/bn
I0423 22:44:03.371496 21205 net.cpp:129] Top shape: 128 256 7 6 (1376256)
I0423 22:44:03.371500 21205 net.cpp:137] Memory required for data: 5838080000
I0423 22:44:03.371505 21205 layer_factory.hpp:77] Creating layer conv4_2_ex/scale
I0423 22:44:03.371511 21205 net.cpp:84] Creating Layer conv4_2_ex/scale
I0423 22:44:03.371515 21205 net.cpp:406] conv4_2_ex/scale <- conv4_2_ex
I0423 22:44:03.371520 21205 net.cpp:367] conv4_2_ex/scale -> conv4_2_ex (in-place)
I0423 22:44:03.371567 21205 layer_factory.hpp:77] Creating layer conv4_2_ex/scale
I0423 22:44:03.371707 21205 net.cpp:122] Setting up conv4_2_ex/scale
I0423 22:44:03.371716 21205 net.cpp:129] Top shape: 128 256 7 6 (1376256)
I0423 22:44:03.371718 21205 net.cpp:137] Memory required for data: 5843585024
I0423 22:44:03.371723 21205 layer_factory.hpp:77] Creating layer relu4_2_ex
I0423 22:44:03.371728 21205 net.cpp:84] Creating Layer relu4_2_ex
I0423 22:44:03.371731 21205 net.cpp:406] relu4_2_ex <- conv4_2_ex
I0423 22:44:03.371737 21205 net.cpp:367] relu4_2_ex -> conv4_2_ex (in-place)
I0423 22:44:03.371863 21205 net.cpp:122] Setting up relu4_2_ex
I0423 22:44:03.371872 21205 net.cpp:129] Top shape: 128 256 7 6 (1376256)
I0423 22:44:03.371876 21205 net.cpp:137] Memory required for data: 5849090048
I0423 22:44:03.371879 21205 layer_factory.hpp:77] Creating layer conv4_2_dw
I0423 22:44:03.371887 21205 net.cpp:84] Creating Layer conv4_2_dw
I0423 22:44:03.371891 21205 net.cpp:406] conv4_2_dw <- conv4_2_ex
I0423 22:44:03.371896 21205 net.cpp:380] conv4_2_dw -> conv4_2_dw
I0423 22:44:03.372198 21205 net.cpp:122] Setting up conv4_2_dw
I0423 22:44:03.372206 21205 net.cpp:129] Top shape: 128 256 7 6 (1376256)
I0423 22:44:03.372210 21205 net.cpp:137] Memory required for data: 5854595072
I0423 22:44:03.372215 21205 layer_factory.hpp:77] Creating layer conv4_2_dw/bn
I0423 22:44:03.372220 21205 net.cpp:84] Creating Layer conv4_2_dw/bn
I0423 22:44:03.372222 21205 net.cpp:406] conv4_2_dw/bn <- conv4_2_dw
I0423 22:44:03.372227 21205 net.cpp:367] conv4_2_dw/bn -> conv4_2_dw (in-place)
I0423 22:44:03.372463 21205 net.cpp:122] Setting up conv4_2_dw/bn
I0423 22:44:03.372472 21205 net.cpp:129] Top shape: 128 256 7 6 (1376256)
I0423 22:44:03.372473 21205 net.cpp:137] Memory required for data: 5860100096
I0423 22:44:03.372480 21205 layer_factory.hpp:77] Creating layer conv4_2_dw/scale
I0423 22:44:03.372486 21205 net.cpp:84] Creating Layer conv4_2_dw/scale
I0423 22:44:03.372489 21205 net.cpp:406] conv4_2_dw/scale <- conv4_2_dw
I0423 22:44:03.372493 21205 net.cpp:367] conv4_2_dw/scale -> conv4_2_dw (in-place)
I0423 22:44:03.372535 21205 layer_factory.hpp:77] Creating layer conv4_2_dw/scale
I0423 22:44:03.372674 21205 net.cpp:122] Setting up conv4_2_dw/scale
I0423 22:44:03.372681 21205 net.cpp:129] Top shape: 128 256 7 6 (1376256)
I0423 22:44:03.372684 21205 net.cpp:137] Memory required for data: 5865605120
I0423 22:44:03.372689 21205 layer_factory.hpp:77] Creating layer relu4_2_dw
I0423 22:44:03.372694 21205 net.cpp:84] Creating Layer relu4_2_dw
I0423 22:44:03.372697 21205 net.cpp:406] relu4_2_dw <- conv4_2_dw
I0423 22:44:03.372701 21205 net.cpp:367] relu4_2_dw -> conv4_2_dw (in-place)
I0423 22:44:03.372802 21205 net.cpp:122] Setting up relu4_2_dw
I0423 22:44:03.372812 21205 net.cpp:129] Top shape: 128 256 7 6 (1376256)
I0423 22:44:03.372814 21205 net.cpp:137] Memory required for data: 5871110144
I0423 22:44:03.372818 21205 layer_factory.hpp:77] Creating layer conv4_2_em
I0423 22:44:03.372828 21205 net.cpp:84] Creating Layer conv4_2_em
I0423 22:44:03.372831 21205 net.cpp:406] conv4_2_em <- conv4_2_dw
I0423 22:44:03.372835 21205 net.cpp:380] conv4_2_em -> conv4_2_em
I0423 22:44:03.375566 21205 net.cpp:122] Setting up conv4_2_em
I0423 22:44:03.375581 21205 net.cpp:129] Top shape: 128 128 7 6 (688128)
I0423 22:44:03.375586 21205 net.cpp:137] Memory required for data: 5873862656
I0423 22:44:03.375591 21205 layer_factory.hpp:77] Creating layer conv4_2_em/bn
I0423 22:44:03.375598 21205 net.cpp:84] Creating Layer conv4_2_em/bn
I0423 22:44:03.375602 21205 net.cpp:406] conv4_2_em/bn <- conv4_2_em
I0423 22:44:03.375608 21205 net.cpp:367] conv4_2_em/bn -> conv4_2_em (in-place)
I0423 22:44:03.375856 21205 net.cpp:122] Setting up conv4_2_em/bn
I0423 22:44:03.375864 21205 net.cpp:129] Top shape: 128 128 7 6 (688128)
I0423 22:44:03.375867 21205 net.cpp:137] Memory required for data: 5876615168
I0423 22:44:03.375874 21205 layer_factory.hpp:77] Creating layer conv4_2_em/scale
I0423 22:44:03.375880 21205 net.cpp:84] Creating Layer conv4_2_em/scale
I0423 22:44:03.375883 21205 net.cpp:406] conv4_2_em/scale <- conv4_2_em
I0423 22:44:03.375887 21205 net.cpp:367] conv4_2_em/scale -> conv4_2_em (in-place)
I0423 22:44:03.375933 21205 layer_factory.hpp:77] Creating layer conv4_2_em/scale
I0423 22:44:03.376075 21205 net.cpp:122] Setting up conv4_2_em/scale
I0423 22:44:03.376083 21205 net.cpp:129] Top shape: 128 128 7 6 (688128)
I0423 22:44:03.376085 21205 net.cpp:137] Memory required for data: 5879367680
I0423 22:44:03.376092 21205 layer_factory.hpp:77] Creating layer res4_2
I0423 22:44:03.376096 21205 net.cpp:84] Creating Layer res4_2
I0423 22:44:03.376118 21205 net.cpp:406] res4_2 <- res4_1_res4_1_0_split_1
I0423 22:44:03.376123 21205 net.cpp:406] res4_2 <- conv4_2_em
I0423 22:44:03.376130 21205 net.cpp:380] res4_2 -> res4_2
I0423 22:44:03.376158 21205 net.cpp:122] Setting up res4_2
I0423 22:44:03.376165 21205 net.cpp:129] Top shape: 128 128 7 6 (688128)
I0423 22:44:03.376168 21205 net.cpp:137] Memory required for data: 5882120192
I0423 22:44:03.376171 21205 layer_factory.hpp:77] Creating layer conv5_ex
I0423 22:44:03.376179 21205 net.cpp:84] Creating Layer conv5_ex
I0423 22:44:03.376183 21205 net.cpp:406] conv5_ex <- res4_2
I0423 22:44:03.376188 21205 net.cpp:380] conv5_ex -> conv5_ex
I0423 22:44:03.379798 21205 net.cpp:122] Setting up conv5_ex
I0423 22:44:03.379814 21205 net.cpp:129] Top shape: 128 512 7 6 (2752512)
I0423 22:44:03.379818 21205 net.cpp:137] Memory required for data: 5893130240
I0423 22:44:03.379823 21205 layer_factory.hpp:77] Creating layer conv5_ex/bn
I0423 22:44:03.379830 21205 net.cpp:84] Creating Layer conv5_ex/bn
I0423 22:44:03.379834 21205 net.cpp:406] conv5_ex/bn <- conv5_ex
I0423 22:44:03.379842 21205 net.cpp:367] conv5_ex/bn -> conv5_ex (in-place)
I0423 22:44:03.380093 21205 net.cpp:122] Setting up conv5_ex/bn
I0423 22:44:03.380102 21205 net.cpp:129] Top shape: 128 512 7 6 (2752512)
I0423 22:44:03.380105 21205 net.cpp:137] Memory required for data: 5904140288
I0423 22:44:03.380111 21205 layer_factory.hpp:77] Creating layer conv5_ex/scale
I0423 22:44:03.380117 21205 net.cpp:84] Creating Layer conv5_ex/scale
I0423 22:44:03.380120 21205 net.cpp:406] conv5_ex/scale <- conv5_ex
I0423 22:44:03.380126 21205 net.cpp:367] conv5_ex/scale -> conv5_ex (in-place)
I0423 22:44:03.380165 21205 layer_factory.hpp:77] Creating layer conv5_ex/scale
I0423 22:44:03.380312 21205 net.cpp:122] Setting up conv5_ex/scale
I0423 22:44:03.380322 21205 net.cpp:129] Top shape: 128 512 7 6 (2752512)
I0423 22:44:03.380326 21205 net.cpp:137] Memory required for data: 5915150336
I0423 22:44:03.380331 21205 layer_factory.hpp:77] Creating layer relu5_ex
I0423 22:44:03.380336 21205 net.cpp:84] Creating Layer relu5_ex
I0423 22:44:03.380339 21205 net.cpp:406] relu5_ex <- conv5_ex
I0423 22:44:03.380343 21205 net.cpp:367] relu5_ex -> conv5_ex (in-place)
I0423 22:44:03.380455 21205 net.cpp:122] Setting up relu5_ex
I0423 22:44:03.380463 21205 net.cpp:129] Top shape: 128 512 7 6 (2752512)
I0423 22:44:03.380466 21205 net.cpp:137] Memory required for data: 5926160384
I0423 22:44:03.380470 21205 layer_factory.hpp:77] Creating layer conv5_dw
I0423 22:44:03.380478 21205 net.cpp:84] Creating Layer conv5_dw
I0423 22:44:03.380481 21205 net.cpp:406] conv5_dw <- conv5_ex
I0423 22:44:03.380486 21205 net.cpp:380] conv5_dw -> conv5_dw
I0423 22:44:03.380895 21205 net.cpp:122] Setting up conv5_dw
I0423 22:44:03.380904 21205 net.cpp:129] Top shape: 128 512 1 1 (65536)
I0423 22:44:03.380906 21205 net.cpp:137] Memory required for data: 5926422528
I0423 22:44:03.380913 21205 layer_factory.hpp:77] Creating layer conv5_dw/bn
I0423 22:44:03.380919 21205 net.cpp:84] Creating Layer conv5_dw/bn
I0423 22:44:03.380923 21205 net.cpp:406] conv5_dw/bn <- conv5_dw
I0423 22:44:03.380926 21205 net.cpp:367] conv5_dw/bn -> conv5_dw (in-place)
I0423 22:44:03.381156 21205 net.cpp:122] Setting up conv5_dw/bn
I0423 22:44:03.381163 21205 net.cpp:129] Top shape: 128 512 1 1 (65536)
I0423 22:44:03.381166 21205 net.cpp:137] Memory required for data: 5926684672
I0423 22:44:03.381172 21205 layer_factory.hpp:77] Creating layer conv5_dw/scale
I0423 22:44:03.381178 21205 net.cpp:84] Creating Layer conv5_dw/scale
I0423 22:44:03.381181 21205 net.cpp:406] conv5_dw/scale <- conv5_dw
I0423 22:44:03.381184 21205 net.cpp:367] conv5_dw/scale -> conv5_dw (in-place)
I0423 22:44:03.381232 21205 layer_factory.hpp:77] Creating layer conv5_dw/scale
I0423 22:44:03.381377 21205 net.cpp:122] Setting up conv5_dw/scale
I0423 22:44:03.381386 21205 net.cpp:129] Top shape: 128 512 1 1 (65536)
I0423 22:44:03.381387 21205 net.cpp:137] Memory required for data: 5926946816
I0423 22:44:03.381392 21205 layer_factory.hpp:77] Creating layer fc5
I0423 22:44:03.381417 21205 net.cpp:84] Creating Layer fc5
I0423 22:44:03.381422 21205 net.cpp:406] fc5 <- conv5_dw
I0423 22:44:03.381428 21205 net.cpp:380] fc5 -> fc5
I0423 22:44:03.381848 21205 net.cpp:122] Setting up fc5
I0423 22:44:03.381856 21205 net.cpp:129] Top shape: 128 128 (16384)
I0423 22:44:03.381860 21205 net.cpp:137] Memory required for data: 5927012352
I0423 22:44:03.381863 21205 layer_factory.hpp:77] Creating layer norm1
I0423 22:44:03.381868 21205 net.cpp:84] Creating Layer norm1
I0423 22:44:03.381871 21205 net.cpp:406] norm1 <- fc5
I0423 22:44:03.381877 21205 net.cpp:380] norm1 -> norm1
I0423 22:44:03.381943 21205 net.cpp:122] Setting up norm1
I0423 22:44:03.381950 21205 net.cpp:129] Top shape: 128 128 1 1 (16384)
I0423 22:44:03.381953 21205 net.cpp:137] Memory required for data: 5927077888
I0423 22:44:03.381956 21205 layer_factory.hpp:77] Creating layer fc6_l2
I0423 22:44:03.381960 21205 net.cpp:84] Creating Layer fc6_l2
I0423 22:44:03.381963 21205 net.cpp:406] fc6_l2 <- norm1
I0423 22:44:03.381970 21205 net.cpp:380] fc6_l2 -> fc6
I0423 22:44:03.390942 21205 net.cpp:122] Setting up fc6_l2
I0423 22:44:03.390957 21205 net.cpp:129] Top shape: 128 10575 (1353600)
I0423 22:44:03.390960 21205 net.cpp:137] Memory required for data: 5932492288
I0423 22:44:03.390966 21205 layer_factory.hpp:77] Creating layer label_specific_margin
I0423 22:44:03.390974 21205 net.cpp:84] Creating Layer label_specific_margin
I0423 22:44:03.390977 21205 net.cpp:406] label_specific_margin <- fc6
I0423 22:44:03.390982 21205 net.cpp:406] label_specific_margin <- label_data_1_split_0
I0423 22:44:03.390987 21205 net.cpp:380] label_specific_margin -> fc6_margin
I0423 22:44:03.391026 21205 net.cpp:122] Setting up label_specific_margin
I0423 22:44:03.391034 21205 net.cpp:129] Top shape: 128 10575 (1353600)
I0423 22:44:03.391037 21205 net.cpp:137] Memory required for data: 5937906688
I0423 22:44:03.391041 21205 layer_factory.hpp:77] Creating layer fc6_margin_label_specific_margin_0_split
I0423 22:44:03.391046 21205 net.cpp:84] Creating Layer fc6_margin_label_specific_margin_0_split
I0423 22:44:03.391048 21205 net.cpp:406] fc6_margin_label_specific_margin_0_split <- fc6_margin
I0423 22:44:03.391053 21205 net.cpp:380] fc6_margin_label_specific_margin_0_split -> fc6_margin_label_specific_margin_0_split_0
I0423 22:44:03.391060 21205 net.cpp:380] fc6_margin_label_specific_margin_0_split -> fc6_margin_label_specific_margin_0_split_1
I0423 22:44:03.391108 21205 net.cpp:122] Setting up fc6_margin_label_specific_margin_0_split
I0423 22:44:03.391114 21205 net.cpp:129] Top shape: 128 10575 (1353600)
I0423 22:44:03.391118 21205 net.cpp:129] Top shape: 128 10575 (1353600)
I0423 22:44:03.391121 21205 net.cpp:137] Memory required for data: 5948735488
I0423 22:44:03.391124 21205 layer_factory.hpp:77] Creating layer fc6_margin_scale
I0423 22:44:03.391132 21205 net.cpp:84] Creating Layer fc6_margin_scale
I0423 22:44:03.391135 21205 net.cpp:406] fc6_margin_scale <- fc6_margin_label_specific_margin_0_split_0
I0423 22:44:03.391141 21205 net.cpp:380] fc6_margin_scale -> fc6_margin_scale
I0423 22:44:03.391266 21205 net.cpp:122] Setting up fc6_margin_scale
I0423 22:44:03.391273 21205 net.cpp:129] Top shape: 128 10575 (1353600)
I0423 22:44:03.391276 21205 net.cpp:137] Memory required for data: 5954149888
I0423 22:44:03.391281 21205 layer_factory.hpp:77] Creating layer softmax_loss
I0423 22:44:03.391288 21205 net.cpp:84] Creating Layer softmax_loss
I0423 22:44:03.391290 21205 net.cpp:406] softmax_loss <- fc6_margin_scale
I0423 22:44:03.391294 21205 net.cpp:406] softmax_loss <- label_data_1_split_1
I0423 22:44:03.391300 21205 net.cpp:380] softmax_loss -> softmax_loss
…
